checkpoints/cnn_model/fold_3.pth (torch, 55946 bytes, 15 tensors)

encoder.0.weight f4 [16, 1, 3]
000000 18 c3 8e 3e 2e fe 81 3e b5 c0 ac 3e 1b 55 f8 be
       0.2788322 0.25389236 0.33740774 -0.4850243
000010 dd df 3a 3e 11 51 0a be 45 13 04 3f 26 4d 9d 3b
       0.1824946 -0.13507487 0.515919 0.0048004566
000020 20 b8 c9 be 8b 05 d6 bd ef 35 83 3e b6 e7 a4 3e
       -0.3939829 -0.10450276 0.25627086 0.3220803
000030 e2 10 85 3e 30 cc 55 3e 89 04 82 3e 8d 39 93 bd
       0.25989443 0.20878673 0.25394085 -0.07188711
000040 ff 5e d1 3d 93 01 86 3e fe be 8d 3d 45 d7 83 3e
       0.10223197 0.26173076 0.069211945 0.25750175
000050 ea ce 0e 3f ad 85 d5 be ca 68 0b be 26 32 00 3f
       0.55784476 -0.4170355 -0.13614193 0.5007652
000060 ad 82 e5 3e 01 c6 8f 3e c5 58 9d be 81 a5 bb be
       0.4482626 0.28080752 -0.30731788 -0.36649707
000070 bc 93 09 3a 3b 29 70 3e 8b 92 80 3e 46 ff 1a bc
       0.00052481494 0.23453228 0.25111803 -0.009460276
000080 76 d4 0e 3e 42 e3 98 be a3 0e 0c be 6c 0a 8a bb
       0.13948235 -0.29860884 -0.13677458 -0.004212668
000090 fc ed 0b 3f 59 a2 06 3f 53 17 1b be 3e de 01 bf
       0.5466001 0.5259147 -0.15145616 -0.5072974
0000a0 12 4c a7 3e f3 05 c8 be 57 3d af 3e 75 ad 04 3f
       0.32675225 -0.3906704 0.34226486 0.51827174
0000b0 df 4d 9f 3e 05 f5 e2 be 42 95 15 3d 3b 53 f7 3e
       0.31114098 -0.4432756 0.036519296 0.48305687

encoder.0.bias f4 [16]
000000 a0 18 ff be d9 ee 84 be 3e 60 02 3d 9a cf b3 3e
       -0.49823475 -0.25963476 0.031830065 0.35119325
000010 4a ed f4 3e 43 ad 9c bb 86 95 a9 3e dc 0d ab 3e
       0.47837287 -0.0047813966 0.3312189 0.3340901
000020 c9 84 1f 3e 67 7f 0a 3f cb b7 7a 3e a6 98 19 be
       0.15577997 0.5410065 0.24484174 -0.14999637
000030 9f 86 a3 bd 45 6e cf be cf f0 de 3e df 5e b1 bd
       -0.07984661 -0.40513816 0.43543097 -0.08660673

encoder.1.weight f4 [16]
000000 c8 4b 81 3f 31 7d 7c 3f a9 02 80 3f 37 1c 7f 3f
       1.0101252 0.98628527 1.0000812 0.9965243
000010 83 5f 7f 3f e3 21 7e 3f 67 01 7e 3f dc 13 7f 3f
       0.99755114 0.9927046 0.9922089 0.9963968
000020 04 14 80 3f de e2 7e 3f bc c7 7e 3f 42 fd 80 3f
       1.0006108 0.9956492 0.9952352 1.0077288
000030 22 5c 7f 3f fd 6b 7c 3f 1d 13 81 3f 66 36 7c 3f
       0.9974996 0.9860228 1.0083958 0.98520505

encoder.1.bias f4 [16]
000000 b0 2f 33 3c 69 78 00 3b a6 b3 54 ba cf 9d 3d bb
       0.010936663 0.001960302 -0.0008113928 -0.0028933173
000010 7a c5 6f 3b 6c 9c 1d bb 64 12 ba ba 1a 76 d8 3a
       0.003658621 -0.0024049534 -0.0014196155 0.0016514689
000020 69 f6 11 3c 80 85 d9 3b 2c 2f bb 3b ed 04 59 3b
       0.008908846 0.006638229 0.0057124104 0.0033114508
000030 b5 bd 9b bb 9f 09 a6 bb cf 75 8e 3b b7 c0 3c bb
       -0.0047528394 -0.005067065 0.00434754 -0.002880139

encoder.1.running_mean f4 [16]
000000 f1 02 01 bf d3 83 83 be a9 42 fc 3c 60 45 b2 3e
       -0.50395113 -0.2568651 0.030793505 0.34818554
000010 33 89 f2 3e 27 ba d8 bb c0 b4 a6 3e 62 63 ab 3e
       0.473703 -0.006613988 0.32559776 0.3347426
000020 f1 6f 1c 3e 44 c4 0a 3f eb 39 78 3e d4 97 16 be
       0.15277077 0.5420573 0.24240844 -0.14706355
000030 47 71 b0 bd ea a3 cd be 68 00 db 3e f0 f2 b1 bd
       -0.08615356 -0.4016412 0.42773747 -0.08688915

encoder.1.running_var f4 [16]
000000 b6 62 ec 3e 2b b0 82 3e 84 b4 5c 3e f2 7f 40 3e
       0.4616906 0.2552503 0.21553236 0.18798807
000010 5a da a2 3e 56 db a1 3d 35 10 09 3f de ed 63 3e
       0.31807214 0.07903163 0.53540355 0.22258708
000020 cb 41 87 3e fc 12 d0 3d dc 86 e3 3d d7 e2 0d 3e
       0.26417384 0.10159871 0.11109707 0.13856064
000030 09 87 2b 3f 35 ed ef 3e ce f6 56 3f ea 7c 5c 3e
       0.6700292 0.46860662 0.83970344 0.21532026

encoder.4.weight f4 [32, 16, 3]
000000 ad 6b 98 bd 2c 48 9b bd a2 16 04 bc 9b 1a 02 be
       -0.074424125 -0.07582125 -0.008062037 -0.12705462
000010 1f fe aa 3d 8e 98 8a 3d 96 37 10 be ba 3b a0 bc
       0.08349251 0.06767379 -0.14083704 -0.01955973
000020 75 2f a4 3b 9a c4 3b 3b 7e 4f 41 3c 5b 07 3f 3c
       0.00501054 0.002865112 0.011798738 0.0116594685
000030 d0 df 3d bd e3 50 53 3d e7 6a e5 bd 73 9d ed bd
       -0.046356022 0.05159081 -0.11202031 -0.11602297
000040 e1 27 02 bd aa ad ef 3d 4c 31 00 bd e2 40 9c 3d
       -0.031776313 0.11703046 -0.031297013 0.07629563
000050 87 32 0b 3d e4 7a f7 bd c9 b9 09 3e 92 00 36 3d
       0.033983734 -0.120839864 0.13449778 0.044434138
000060 6f 89 cd bd 80 93 2f 3d dd ac f3 bd 96 b9 e0 bc
       -0.10035979 0.042865276 -0.118982054 -0.027432244
000070 a1 bc 52 3d 58 78 d2 3d 7d eb a1 bd 75 b8 f5 3d
       0.05144942 0.1027686 -0.07906244 0.11998073
000080 32 e2 a4 bd 67 49 bb 3c e9 30 a7 bd b1 b1 b1 3d
       -0.08050956 0.02286215 -0.08163626 0.0867647
000090 57 78 46 3d 19 16 51 3d 90 2b 36 3d d9 ea fb 3d
       0.04845461 0.051046465 0.04447514 0.12300653
0000a0 5d 49 97 3d 65 c6 93 3d c0 eb bf bd 40 50 04 3d
       0.0738704 0.07215575 -0.093711376 0.032303095
0000b0 28 f0 f5 3d 16 fd 9e bd 52 91 23 bd b2 e1 06 3b
       0.12008697 -0.07763116 -0.03993351 0.0020581302
0000c0 c7 5a bd 3d b9 c8 af 3d c8 e2 f8 3c 9e d8 6b 3d
       0.0924583 0.08583207 0.030381575 0.05757963
0000d0 2d c9 7a bc 22 9f 71 3d b7 e2 e9 bd f8 c2 06 3e
       -0.015306753 0.05898965 -0.114201955 0.13160312
0000e0 ae c4 5c 3c 0e 06 7b 3d 5c 27 3b bd 85 0b 9f bc
       0.0134746265 0.06128507 -0.045691833 -0.019414673
0000f0 6e d7 24 bd 0a f5 96 bc 99 76 a3 3d fe 22 ef 3d
       -0.040244512 -0.01842739 0.07981605 0.11676596
000100 ca b9 9d 3d b5 86 40 bb 52 67 dc 3b e4 e1 c0 3d
       0.07701452 -0.0029377167 0.006726184 0.09418085
000110 c4 77 7e bd 56 53 83 3c b0 38 e7 bd 17 49 03 3e
       -0.062125936 0.016030949 -0.11290109 0.1282085
000120 ae d3 15 3e 9e 04 30 bd 65 0e 9f bd cc 9c d8 bd
       0.1463153 -0.042973153 -0.077664174 -0.10576782
000130 9a 2a 16 be ad 91 9a bd 65 26 cf bc 0b 3b 15 3e
       -0.14664689 -0.07547317 -0.025286863 0.14573304
000140 68 29 82 3d 6e 7c 56 bd 69 47 f0 3d b9 47 23 be
       0.06355554 -0.05236476 0.117323704 -0.15945329
000150 95 a9 95 bc 8c 7e 6b bd cb e7 ce 3d 92 fc 49 3d
       -0.01826934 -0.05749373 0.10102805 0.049313135
000160 65 90 1f 3d 54 d2 75 3d 96 4c e3 3d e1 92 a4 bd
       0.038956065 0.060015038 0.11098592 -0.080358274
000170 a2 33 a3 bc 41 c6 fc bb b9 0c 87 bc ba fe b9 3d
       -0.019922081 -0.0077140634 -0.016485559 0.09081788
000180 76 5d c9 bd 32 71 17 3e 5a f4 03 be 4d 21 b8 3c
       -0.098322794 0.14789274 -0.12886181 0.022476817
000190 5d c2 e1 3c b1 6f bf 3d 9e fa f8 bc 59 35 a0 3d
       0.0275585 0.09347475 -0.030392941 0.07822675
0001a0 62 c0 00 3d 5f ee 59 3d fc b8 b7 3d 98 ff 98 bd
       0.03143347 0.053205844 0.0897083 -0.07470626
0001b0 ff 80 e1 3c a2 51 e0 3c 9b ba a7 bd 87 64 a7 3d
       0.02752733 0.027382676 -0.08189889 0.08173471
0001c0 23 9f 71 3d c2 43 c4 bd d6 d8 11 bd 8b eb 03 bd
       0.058989655 -0.09583236 -0.03560718 -0.032207053
0001d0 dc 8d 9e bd 68 a9 f5 3d f3 43 04 bd 93 e2 ac 3d
       -0.07741901 0.11995202 -0.032291364 0.08441653
0001e0 38 62 ac bc 2e b5 7c 3d 5a 92 b7 bd d5 05 d4 bd
       -0.021042928 0.061696224 -0.08963461 -0.10352675
0001f0 7c 80 11 3d 66 35 43 bd 78 96 f3 bd 96 1a f4 3d
       0.035522923 -0.047658347 -0.11893934 0.11919133
000200 ac cc 05 be 5b b1 5a 3c 2b 57 92 bd 15 c6 35 bc
       -0.13066357 0.013347949 -0.07145532 -0.01109459
000210 2a ed 5c bd 90 ae cf 3d 17 3a 89 3d 8e ef 91 3d
       -0.053937115 0.10140717 0.06700533 0.071257696
000220 3b 24 b8 bd 42 2d 73 bd 12 18 05 3e af 1c 0b 3e
       -0.089912854 -0.059369333 0.12997463 0.1358516
000230 74 52 ae bd 07 34 c7 bd 70 30 e6 3c a7 6c 02 be
       -0.085118204 -0.0972672 0.028099269 -0.1273676
000240 75 de 70 3c 90 bb d3 bd 9a 3f a4 3d 34 d1 61 3d
       0.014701475 -0.10338509 0.080199435 0.055131152
000250 4e 28 07 be 3f a9 18 bd 3e 5f c0 bc 4b 67 4b bd
       -0.13198969 -0.03727078 -0.023482915 -0.049659055
000260 12 85 85 3d ef de a6 3d be e1 ec 3d 39 7a d4 3d
       0.06519522 0.0814799 0.115664944 0.103748746
000270 dd 06 99 bd e4 f5 0f bd 12 98 49 bd f3 52 dc 3d
       -0.07472012 -0.03514661 -0.04921729 0.10758009
000280 53 9f 83 3d 1c 67 07 3d ab 43 b1 bc 3c a4 01 be
       0.06426873 0.033057317 -0.021638712 -0.12660307
000290 f2 f4 65 bd 8f fe 05 be a3 50 fd bd 0a e8 0d 3e
       -0.0561418 -0.13085388 -0.12368896 0.13858047
0002a0 80 f7 a2 bd cd f1 36 bd 5c ec 5c bb 66 90 a6 3d
       -0.07957363 -0.044664193 -0.0033710217 0.081330106
0002b0 4e e8 35 bd 8c da 40 3d ec 69 97 bd 7b d7 b9 3c
       -0.044410996 0.047083423 -0.0739325 0.022685757
0002c0 ca f8 ae 3d 99 0c 0b bd 5e ea 40 bd ec d1 0c be
       0.085435465 -0.03394756 -0.04709851 -0.13751954
0002d0 44 48 74 bd 42 1a 17 3e 99 8b 09 3e 1b 6e 16 3c
       -0.05963923 0.1475611 0.13432159 0.009181525
0002e0 b7 bd 36 bd df b2 b4 3a cc e9 23 3d 5d b3 a0 3d
       -0.04461452 0.0013786218 0.040017888 0.07846711
0002f0 36 ec 1d bc ee 91 a9 bd 3a 1e ba bd fd 1d 8a bd
       -0.009638837 -0.08279787 -0.090877965 -0.06744001
000300 1a 6f 92 bd eb 90 ca bd ad 5c d4 3d 1c ba fc bd
       -0.07150097 -0.09890922 0.10369239 -0.12340185
000310 74 a0 26 bc af 3c df 3d 46 1c 06 3e 26 63 92 bd
       -0.010170091 0.10900246 0.13096723 -0.07147817
000320 a9 ac 42 3c 21 4a 00 3d 3f 42 f0 3d 2f 66 20 3d
       0.011881986 0.031320695 0.117313854 0.03915995
000330 8c 0c 95 3d e5 10 cd 3d 74 40 87 3d 9a 35 6b bd
       0.07277784 0.10012988 0.0660409 -0.057424165
000340 6f 59 ee 3d 55 88 68 3d dd d7 16 be ad 8d 0f be
       0.11638152 0.05677064 -0.14730783 -0.14018889
000350 45 04 1a be a2 c5 9f 3d d6 5d f2 3b 6e 96 41 bd
       -0.15040691 0.07801367 0.00739644 -0.0472626
000360 5b 3f 17 3e 12 b3 c3 bd 60 29 d0 bd 17 26 cc bd
       0.14770262 -0.09555639 -0.10164142 -0.099682026
000370 cd 19 6d 3a 89 e0 07 3d 50 1c e8 3d 6a 9c 52 bd
       0.0009044677 0.033173118 0.11333525 -0.0514187
000380 74 64 70 bc 95 7f 95 bd d0 14 1d 3d 78 ef fb bb
       -0.014672387 -0.07299725 0.038349926 -0.007688459
000390 be 59 f1 bd 00 25 d0 3c a7 d9 01 3d 6a f9 0a 3e
       -0.11784695 0.025408268 0.03170171 0.13571706
0003a0 a4 d8 e7 3d 3f 26 f3 bd 79 71 db 3d ca c1 e8 bc
       0.11320618 -0.11872529 0.107150026 -0.028412718
0003b0 40 d7 01 be 12 ef d9 3d 46 b5 a9 bd 4e 19 38 bd
       -0.12679768 0.10641302 -0.08286528 -0.044946007
0003c0 9e c0 0f be 7e 85 14 bd 3a f8 68 bd 9e 9d 1c 3d
       -0.14038321 -0.03626012 -0.056877352 0.038236253
0003d0 8c 1c 4b bd 9e e4 57 3d cf 47 a2 3d a3 69 26 bb
       -0.04958777 0.05270826 0.07923853 -0.0025392554
0003e0 ec 69 e1 bd b0 14 dd bd 53 17 bc 3d 09 fb d3 3c
       -0.11006531 -0.107949615 0.09184136 0.025876539
0003f0 6c 47 69 3d 4b 13 bd 3d 6d 8f fd bd 5b 2a c8 3d
       0.05695288 0.092321955 -0.12380872 0.09773704

encoder.4.bias f4 [32]
000000 83 43 ba 3d 86 83 d6 3d ab 31 b4 bd 50 ac 85 3d
       0.09094908 0.10474305 -0.08798536 0.065270066
000010 d3 d7 91 3c fc 02 70 3c be 35 4b bc 2b 4b a4 3d
       0.017803108 0.014649149 -0.01240295 0.0802215
000020 48 cc 0a bd 0a 2f a8 3d 12 2e d8 3d 1b 54 77 3d
       -0.033886224 0.08212097 0.10555662 0.060382944
000030 3a f1 8d 3d 37 0a 38 bd 70 cc 35 bd 55 c7 a8 3d
       0.06930776 -0.044931617 -0.04438442 0.082411446
000040 d3 cb ca bd 13 cf a0 bd 77 b4 f9 bd bd 6c 8c 3d
       -0.09902158 -0.07851996 -0.12192624 0.06856678
000050 e9 5a ff bd 9c e4 6a bc ee 4f 2a 3d b7 ae cb 3c
       -0.124685116 -0.014336731 0.041580133 0.024863584
000060 ef 38 6c bd 71 f2 06 be 5e b4 81 3d ef 56 fb 3c
       -0.057671484 -0.13178422 0.063332304 0.030681102
000070 14 80 99 3d ba 4c aa 3d 6c bf 80 bd 31 d6 5f bd
       0.07495132 0.08315416 -0.06286511 -0.05464763

encoder.5.weight f4 [32]
000000 08 a4 7f 3f 62 8d 81 3f 10 36 81 3f 9d d6 82 3f
       0.99859667 1.0121272 1.0094624 1.0221745
000010 4e 0b 80 3f 6d 3f 81 3f 9b 58 80 3f f1 bb 81 3f
       1.000345 1.0097481 1.002704 1.013548
000020 2e d4 81 3f 57 96 80 3f 7b 35 82 3f df 0d 81 3f
       1.0142877 1.004588 1.0172571 1.0082358
000030 38 7e 80 3f d0 4b 80 3f 44 29 81 3f 55 ff 80 3f
       1.0038519 1.0023136 1.0090718 1.0077921
000040 05 92 82 3f 15 d2 80 3f 52 0f 80 3f 60 b7 80 3f
       1.0200812 1.0064112 1.0004675 1.0055962
000050 84 98 7f 3f 90 1f 81 3f 33 a9 80 3f 97 5d 80 3f
       0.99842095 1.0087757 1.0051636 1.0028561
000060 be 00 83 3f 4f f9 81 3f 39 d2 80 3f 71 55 81 3f
       1.0234601 1.0154208 1.0064155 1.01042
000070 d5 c5 81 3f 25 f5 81 3f 4f 18 80 3f 17 7c 81 3f
       1.0138499 1.0152937 1.0007418 1.0115994

encoder.5.bias f4 [32]
000000 ab 2b 3d ba af 56 41 3c 22 71 d6 3b 97 72 82 3c
       -0.0007216285 0.011800452 0.006544248 0.015923781
000010 31 09 b1 bb 70 af d5 3b 60 31 b1 3b a4 98 24 3c
       -0.005402707 0.006521158 0.0054074973 0.010046158
000020 74 46 29 3c 45 05 ee 3b bc e4 84 3c de 38 ce 3b
       0.010331739 0.007263812 0.01622235 0.0062934
000030 e0 1e c0 3b eb d3 c1 3b 17 03 06 3c 25 aa ba 3b
       0.0058630556 0.005915155 0.008179448 0.0056965523
000040 c9 cb 85 3c b3 fb 17 3c b4 38 80 3b 13 42 06 3c
       0.016332524 0.009276318 0.0039130095 0.008194464
000050 bd ce 41 3b ae 1d 32 3c 08 bc 03 3c ef 1b a1 3b
       0.0029572689 0.010871334 0.008040436 0.00491666
000060 63 76 1d 3c 46 d9 49 3c d7 28 8f 3b 1d d4 31 3c
       0.009610745 0.012319868 0.004368882 0.010853794
000070 ba ff 86 3c 79 b0 46 3c 16 49 bf 3b e3 0e 05 3c
       0.016479362 0.012127035 0.00583757 0.008121225

encoder.5.running_mean f4 [32]
000000 4d f0 09 3e f1 3c ea 3e 9f d8 00 be ed 66 05 be
       0.13470574 0.4574962 -0.12582634 -0.13027544
000010 b4 20 2d 3d a0 70 33 bf ac 47 0c bf 00 50 57 be
       0.042267516 -0.7009373 -0.5479686 -0.21026611
000020 ef 5c 2d be dd b2 df be 6f f3 72 3e 39 4f ca 3e
       -0.16929983 -0.4369115 0.23725675 0.39513567
000030 56 d4 a1 be 98 58 68 bf 19 af 07 3e b8 3b 57 3e
       -0.31607312 -0.90760183 0.13250388 0.21018875
000040 4d f6 1a 3d 8a a4 da bb 00 07 7e be b6 26 44 be
       0.037832547 -0.0066724466 -0.24807358 -0.19155392
000050 83 9f e9 bd 0d 8e c9 be 1d 62 59 3e f7 5e 91 be
       -0.114073776 -0.3936619 0.21228833 -0.28392765
000060 fb 00 30 bd 3f ee 1c be f7 f2 8a be f1 23 1f 3e
       -0.042969685 -0.15325259 -0.27138492 0.15541054
000070 08 49 28 bf e6 0b 71 3e 10 62 a9 3e 98 cb 89 3d
       -0.65736437 0.23539695 0.33082628 0.067282856

encoder.5.running_var f4 [32]
000000 71 7d 4b 3e 88 0f 53 3e 32 cc 1c 3e f5 49 31 3e
       0.19872071 0.20611393 0.1531227 0.17313369
000010 b0 42 64 3d ed b7 58 3e 65 ff 5a 3e f5 b3 ea 3d
       0.05572766 0.21163912 0.21386488 0.11460105
000020 a4 02 0e 3e d5 ea c1 3d 44 72 9e 3d 27 da 0d 3e
       0.13868195 0.09468619 0.07736638 0.1385275
000030 29 08 e8 3d 3f 1d ef 3e bd 70 d3 3d 21 11 da 3d
       0.113296814 0.46702 0.103242375 0.10647798
000040 86 34 68 3e f1 0d 31 3e a6 38 e6 3d b4 fe 2f 3e
       0.22676286 0.17290474 0.112412736 0.17187005
000050 cf c7 59 3e 8a ae 02 3e 26 4f b8 3d 4a 07 00 3e
       0.21267627 0.12761894 0.08999471 0.1250278
000060 c9 32 2c 3e 3e 8b 4d 3e c9 c9 7e 3d 8d 14 83 3d
       0.16816248 0.20072648 0.062204156 0.06400404
000070 7c 56 e9 3e 18 7e ac 3e 5e f3 97 3d de f8 1b 3e
       0.45573795 0.33689952 0.074194655 0.15231654

classifier.1.weight f4 [32, 320]
000000 5e 18 e1 3c 1c 3a a6 3c f8 e6 53 3d cb 1f 1a 3c
       0.02747744 0.02029138 0.05173394 0.009406994
000010 c1 28 90 3c 97 87 58 3c 4d ac de 3c 61 06 4f bd
       0.017597558 0.013215921 0.027181769 -0.050543193
000020 52 0e 11 bd 32 6b 43 bc 45 19 f0 3c ac ed 7f 3c
       -0.035414048 -0.011927413 0.029308924 0.01562063
000030 29 bd 9d bc f9 49 58 bb 67 e2 bc 3c 69 8b f8 3c
       -0.019255238 -0.0033003076 0.023057176 0.030339913
000040 28 16 36 3d c9 3e 04 bc 33 31 8c bc 75 94 de 3c
       0.044454724 -0.00807161 -0.017113304 0.0271704
000050 04 9f 10 bc 93 e0 22 3d 3b fd b8 bc e3 a4 c5 b9
       -0.008826975 0.039764952 -0.022581687 -0.00037697618
000060 3e 11 e3 3c e0 98 35 bd 2d 0a 0f bd b0 e4 b0 3c
       0.027718183 -0.044335246 -0.034921814 0.021593422
000070 47 d3 7f 3c d0 42 90 bc c0 da 60 ba 87 a1 aa ba
       0.015614337 -0.017609984 -0.0008577518 -0.001301811
000080 8c 0f 27 3b 40 56 2b 3d 7c 17 b6 bc fb ab f2 3c
       0.0025491444 0.0418303 -0.022227995 0.029623022
000090 54 3c 93 bc 4b fb 1a 3d 73 17 42 3b 9d 25 16 3c
       -0.017973103 0.037837308 0.0029616028 0.009164241
0000a0 66 ec df bc 1a 1d db 3c 64 73 c9 3c 99 eb 1d bb
       -0.027334403 0.026747275 0.024591155 -0.0024096726
0000b0 07 ef 4f 3c cf 8e e2 3c 97 a3 7b bb 8d 3f 48 3d
       0.012691266 0.027655987 -0.0038397068 0.04888873
0000c0 a5 29 0e 3d 9f 16 0b 3d cd 3f 61 bc 20 55 90 bc
       0.034707684 0.03395712 -0.013748121 -0.017618716
0000d0 28 b2 1f 3d 3d b6 44 3d 8d da cc 3b 42 c3 4b bd
       0.038988262 0.04802536 0.006251639 -0.04974676
0000e0 44 e5 4f bd c4 d8 63 3c 38 43 81 bc 12 fa 43 3d
       -0.050755754 0.013906661 -0.015779123 0.047845908
0000f0 69 dc 1f 3d c8 a0 dc bc e6 46 33 3d 5e 62 a0 3c
       0.03902856 -0.026932135 0.043768786 0.019578155
000100 93 e8 9a 3b 29 f4 de bc 1c a9 4e 3b 46 66 2d bc
       0.004727432 -0.027216034 0.0031533903 -0.010583466
000110 fa 1f 2a 3c 64 d8 5e 3d b5 77 45 3d 3d 48 14 3c
       0.0103836 0.054405585 0.048209865 0.009050426
000120 6a d5 5a 3d 5d ab a2 bc 2f 02 ec bb b2 a2 82 3b
       0.053426184 -0.019857103 -0.0072024087 0.00398668
000130 e7 c5 d4 3c 1a 50 3c bc f6 63 53 3c 8e cb 15 3d
       0.025973273 -0.011493707 0.0129022505 0.036571078
000140 a2 13 cf 3c 17 12 0c 3d 45 95 5f 3d 16 51 25 bd
       0.025277916 0.03419694 0.054585714 -0.040360533
000150 f6 e7 29 3d 2b 92 16 bc e1 87 3c bd 8a 97 40 3c
       0.04148098 -0.009190123 -0.04602802 0.01175488
000160 94 48 41 3d c3 46 01 bd d0 4c 1e bd 1a 14 36 3d
       0.047188357 -0.031561624 -0.038647473 0.044452764
000170 71 c0 cb bc 3a 87 04 bd 91 3a 72 bb bb 6a 13 bd
       -0.024872037 -0.032355525 -0.0036961178 -0.035990458
000180 16 f5 3a bd c3 2c be bc 6d dd e0 bc ef 25 1c 3d
       -0.04564389 -0.023214703 -0.027449334 0.038122114
000190 bd 50 29 3d 8b fb 85 3c 53 02 9e bc 88 7e 13 3d
       0.041336764 0.016355297 -0.019288218 0.03600934
0001a0 62 5a 62 3d 1d 2a 61 bd 98 e5 22 3d 83 c1 2e 3d
       0.055261977 -0.054971803 0.03976974 0.042665016
0001b0 17 c6 32 bc 95 ca 36 bc d7 26 14 3d 1e eb 9e 3c
       -0.010911486 -0.011156698 0.036169853 0.019399222
0001c0 d1 cc 0d bd 33 93 4b 3b 6e 99 56 3d c9 ec 46 bd
       -0.034619156 0.003106308 0.052392416 -0.04856566
0001d0 ea ef c0 3c 61 ae 22 3d f7 21 cd bc ba 9c a1 3a
       0.0235519 0.039717082 -0.02504061 0.0012330033
0001e0 e6 bc 3b 3d 97 77 40 3d fb c9 f2 bc ff 66 1c 3d
       0.045834444 0.04698905 -0.029637327 0.038184162
0001f0 bb 3b 3e 3d 1c 92 a7 bc 87 9f ae 3c 8b fe 2d bd
       0.046443682 -0.020455413 0.021316303 -0.04247908
000200 fe f5 48 bd 50 58 be 3c 13 8c 1f bd ae 62 17 3d
       -0.04906272 0.02323547 -0.038951945 0.036959343
000210 a1 6b 31 3d 05 77 37 3d 6f 9f 04 bd 96 bd 16 3c
       0.043315534 0.04479124 -0.03237861 0.009200474
000220 a7 01 ce 3b c4 4a 0b bd fb 60 d9 bc 6c f7 2a ba
       0.006286818 -0.03400685 -0.026535502 -0.0006521854
000230 1b 23 af 3c 14 3e ed bc 4c 90 19 3d 32 69 22 bd
       0.021379044 -0.028960265 0.037491128 -0.039651103
000240 21 c3 44 3c d5 55 93 3c 91 ff ce bc f0 c9 45 bc
       0.012009413 0.017985264 -0.025268348 -0.012072071
000250 18 60 0a 3d 92 0c 15 bd 54 3a f1 bc 15 54 29 3d
       0.03378305 -0.03638894 -0.029446758 0.041339952
000260 8a fd fe 3c e1 1e 60 bb 85 bb 55 3d 86 b2 8d 3c
       0.031126756 -0.0034198093 0.052180786 0.01729704
000270 2e 23 bc bc ac 53 d7 bb 77 60 a6 3b 46 ca a6 bc
       -0.022965994 -0.0065712538 0.0050774175 -0.020360123
000280 f7 66 3d 3b 58 0c 47 bd bd a9 ac bc ea 1a 58 3d
       0.0028900483 -0.048595756 -0.021077031 0.052760042
000290 5c ba 44 bd e7 45 b5 3c 08 da 7a bc 90 cd 14 bc
       -0.04802929 0.022128059 -0.015310772 -0.009082213
0002a0 71 54 03 3d 11 fa 65 bc 61 62 90 3a 00 d1 fd 3c
       0.03206295 -0.014036671 0.0011015647 0.030983448
0002b0 8d d5 20 bc ad 32 1b bc 14 52 bb bc c8 2e 92 3b
       -0.0098165395 -0.009472531 -0.022866286 0.004461143
0002c0 ed 50 05 3d 25 16 13 bd 82 a0 fa 3c 8e e9 ec bc
       0.03254788 -0.03590979 0.030594114 -0.028919961
0002d0 be ea d9 bc b9 f9 68 bd bd 10 84 bc 3e 0c ab bb
       -0.026601192 -0.05687878 -0.016121263 -0.0052199652
0002e0 50 a1 ee bc 3b db c3 bc b7 0c a0 bc 29 15 6a bb
       -0.029129654 -0.023908248 -0.019537313 -0.003571818
0002f0 7e 83 2a 3d 2b 98 43 3c ca e8 dd bc 13 d5 21 3c
       0.041629307 0.011938135 -0.027088542 0.009877461
000300 b4 98 1f bd 28 9e 8a 3c 86 a1 2e 3d a0 88 18 bd
       -0.03896399 0.016921118 0.04263451 -0.03723967
000310 c3 8e 3a 3d 7a 03 06 3d 4d 86 01 bb 64 dc b5 3c
       0.045546304 0.03271816 -0.0019763887 0.022199817
000320 25 67 49 bc 00 91 5c bd bd 50 01 3d 1e 0a 22 3c
       -0.012292658 -0.05384922 0.03157114 0.009890107
000330 97 93 ec bc 13 bb 4b 3d a1 52 52 3b bb ae 43 3d
       -0.02887897 0.049738955 0.0032092708 0.047774058
000340 ea bc ba bc b2 3d cd ba 50 a2 07 3d 15 b4 12 bd
       -0.02279516 -0.0015658645 0.033113778 -0.03581627
000350 56 e9 3e 3c 74 2b d6 bb 2e ed 2d 3c 04 07 12 bd
       0.011652311 -0.0065359417 0.01061563 -0.035651222
000360 30 28 72 3c 19 52 ab bb 70 de 58 bc 4c 2d 1e bd
       0.014780089 -0.0052282927 -0.013236627 -0.038617417
000370 26 55 ea bc 21 e8 c4 3c 93 1b 22 bc e1 6a 0e 3d
       -0.028605055 0.024036469 -0.0098942695 0.034769896
000380 dd c8 d2 3b a0 c1 19 bd 7c d6 21 bc e1 45 c9 3c
       0.006432636 -0.03753817 -0.009877797 0.024569454
000390 3c dc 02 3c 5f 63 6f 3b 57 13 06 bd e2 be e3 3b
       0.007987078 0.0036527736 -0.032733288 0.0069502452
0003a0 06 b8 02 bd aa 2f dc bc 0d 08 ec bc 03 d1 a5 bc
       -0.03191378 -0.026878197 -0.028812433 -0.020241266
0003b0 cf 86 30 bd 3f 5a 9e bc 76 25 d4 3c ce b2 03 3d
       -0.043097313 -0.019330142 0.025896769 0.032152943
0003c0 47 af 9e bc 67 c1 70 3c 7c 1a 09 bd 58 6b 55 bd
       -0.019370688 0.014694548 -0.033472523 -0.052104324
0003d0 f5 6c 9a bc 88 08 2d bd a8 7d 44 3d 4f c0 47 3d
       -0.018850783 -0.042244464 0.047971398 0.048767384
0003e0 89 60 d5 bc 44 a3 54 3d 21 26 1d 3d c9 12 50 bd
       -0.026047008 0.051913515 0.03836644 -0.050799165
0003f0 80 3b bc bc b8 0e 91 3c 93 02 44 bd 1d 49 a8 3b
       -0.02297759 0.017707214 -0.047854017 0.005135669

classifier.1.bias f4 [32]
000000 55 0d 1e 3d 6d 8e 63 bc e3 50 22 bb ea 63 83 3b
       0.038586933 -0.013888937 -0.002476745 0.0040097134
000010 57 74 ab bc a5 92 8a bc 31 2a f2 bc 97 4f 0e bd
       -0.020929499 -0.016915629 -0.029561134 -0.03474387
000020 28 2d 27 3d f3 78 80 3c dc 15 0c bd 1c 18 f8 bc
       0.04081455 0.015682673 -0.034200534 -0.030284934
000030 e0 8a 70 3b 18 0e 0f bd 78 08 27 3c 65 78 7c 3d
       0.003670387 -0.03492555 0.01019489 0.061638255
000040 d0 a5 f8 bc 35 dc 0f bc c2 12 71 b8 6e da 46 bd
       -0.030352503 -0.008780529 -5.7476347e-05 -0.048548155
000050 3d f0 f8 bc 33 e9 38 bc b8 29 40 bc a6 1b 9c bc
       -0.030387992 -0.011286068 -0.0117286965 -0.019056153
000060 cc 41 1a 3d 8d b0 37 bd b6 c2 70 3b 83 5f 3e bd
       0.037660405 -0.044846106 0.003673715 -0.046477806
000070 ac 20 b6 3c dd be 6d 3d a8 e1 60 3d 65 90 46 3d
       0.022232376 0.05804335 0.054902703 0.04847755

classifier.3.weight f4 [1, 32]
000000 2b 2a e3 bc 66 79 a4 be b9 91 05 be f8 c0 d3 3d
       -0.027730068 -0.3212387 -0.1304387 0.1033954
000010 83 b3 cb bc c6 ec a5 be 8d 59 78 3d 38 bd 87 3e
       -0.024865871 -0.32407206 0.060632277 0.2651155
000020 7b 58 6b 3e d2 5b 67 3e 70 41 64 3e d2 9a 35 3c
       0.22982971 0.2259362 0.22290587 0.011084275
000030 cb d3 54 be 83 2b e5 3c 1d bc 30 bd 29 a0 5f be
       -0.20783918 0.02797485 -0.04314815 -0.2183844
000040 a4 f2 e0 3e ae fd 90 3e d3 98 ed bd 04 57 bc 3b
       0.4393512 0.28318542 -0.116014145 0.0057476778
000050 41 42 21 3e 2f 25 a6 be 03 a1 26 be 37 54 f0 bd
       0.1574793 -0.32450244 -0.16272359 -0.11734813
000060 58 7b cf 3c 14 9b 44 3e fc 8f 7c 3e 93 88 22 3d
       0.02532737 0.19199783 0.246643 0.03968103
000070 59 b4 13 be 12 02 d2 bd 08 10 6e be f5 3d ef 3d
       -0.14424266 -0.10254301 -0.23248303 0.11681739
