checkpoints/cnn_model/fold_3.pth (torch, 55946 bytes, 15 tensors)

encoder.0.weight f4 [16, 1, 3]
0.4734383 0.06938488 -0.119574994 -0.45171922 0.29843265 0.048683435 0.070177555 -0.05756781
0.23014675 0.10597859 -0.5147462 0.39986324 0.52669895 -0.00026167315 -0.39148253 0.01777966
0.39081436 0.53074104 -0.335409 -0.10910374 0.38547245 -0.011016608 0.41747466 0.13097098
-0.26609942 0.16389994 0.20724437 0.3904648 -0.27812532 -0.48943135 0.33673605 -0.11386251
-0.0962652 -0.3555833 0.32477322 -0.2536173 -0.39267606 -0.38422883 -0.30502844 0.5232052
0.49074402 -0.40112707 0.5338578 -0.512803 -0.16295134 0.44720823 0.04238315 -0.23452894
00000000: 8166 f23e a919 8e3d bce3 f4bd be47 e7be
00000010: 2acc 983e 4868 473d 40b9 8f3d 39cc 6bbd
00000020: 97ab 6b3e 4e0b d93d 68c6 03bf e0ba cc3e
00000030: bed5 063f 2d31 89b9 6670 c8be a6a6 913c
00000040: d218 c83e a5de 073f baba abbe c871 dfbd
00000050: a55c c53e 017f 34bc 3dbf d53e 421d 063e
00000060: 2f3e 88be 63d5 273e de37 543e 01eb c73e
00000070: 7166 8ebe bf96 fabe ab68 ac3e bf30 e9bd
00000080: b026 c5bd 040f b6be ad48 a63e 20da 81be
00000090: d60c c9be a4b9 c4be b02c 9cbe c7f0 053f
000000a0: cd42 fb3e 8760 cdbe e8aa 083f 0f47 03bf
000000b0: b7dc 26be 7af8 e43e f499 2d3d 5b28 70be

encoder.0.bias f4 [16]
0.34797424 0.036889166 -0.5201628 -0.23785447 -0.53462255 -0.19141497 0.37249446 0.3320963
0.13072953 0.17620112 -0.20773192 0.3434869 0.22789185 -0.38487718 0.28460836 0.5639076
00000000: ae29 b23e 1819 173d 6429 05bf 1f90 73be
00000010: 06dd 08bf 4902 44be 98b7 be3e 8708 aa3e
00000020: f6dd 053e 116e 343e adb7 54be 84dd af3e
00000030: 7b5c 693e 9f0e c5be 30b8 913e 405c 103f

encoder.1.weight f4 [16]
1.0000224 0.9976922 0.98844284 1.0029333 0.99557024 1.0056506 0.9950908 1.0033557
0.98885614 0.98010564 1.0046666 0.991652 0.99488425 1.0014127 0.9981001 0.98929584
00000000: bc00 803f c268 7f3f 970a 7d3f 1e60 803f
00000010: b1dd 7e3f 29b9 803f 45be 7e3f f66d 803f
00000020: ad25 7d3f 34e8 7a3f ea98 803f e8dc 7d3f
00000030: bcb0 7e3f 4b2e 803f 7d83 7f3f 7e42 7d3f

encoder.1.bias f4 [16]
0.002180682 0.0024686516 0.003069287 0.005463904 0.0067786966 0.0030762334 0.0015889227 0.0045198784
-0.002447743 0.0031234892 0.009786034 0.008345507 0.0039805467 0.0055731344 0.005132709 0.0044019646
00000000: c6e9 0e3b 1ac9 213b 1726 493b 8c0a b33b
00000010: d41f de3b a29a 493b 6643 d03a 7d1b 943b
00000020: 506a 20bb 74b3 4c3b 9a55 203c 98bb 083c
00000030: 3f6f 823b d79e b63b 4930 a83b 5b3e 903b

encoder.1.running_mean f4 [16]
0.33963874 0.038990427 -0.52480507 -0.23744373 -0.5375942 -0.20941591 0.37397274 0.32173213
0.12885402 0.18323326 -0.21031125 0.34894434 0.24885614 -0.39717278 0.28725612 0.5588088
00000000: 21e5 ad3e 6db4 1f3d a059 06bf 7324 73be
00000010: c69f 09bf 2071 56be 5b79 bf3e 13ba a43e
00000020: 4ff2 033e 80a1 3b3e d55b 57be d5a8 b23e
00000030: 25d4 7e3e 3b5a cbbe 3c13 933e 180e 0f3f

encoder.1.running_var f4 [16]
0.20494524 0.17426209 0.060410038 0.26214162 0.23219723 0.60563976 0.14433281 0.22934322
0.07985446 0.30727425 0.08135478 0.2153947 0.710092 0.5212195 0.335884 0.16222222
00000000: 2add 513e c371 323e 8470 773d 6d37 863e
00000010: 1cc5 6d3e 350b 1b3f fbcb 133e f3d8 6a3e
00000020: bc8a a33d 0d53 9d3e 569d a63d 6e90 5c3e
00000030: 97c8 353f a46e 053f fdf8 ab3e 951d 263e

encoder.4.weight f4 [32, 16, 3]
0.07294356 0.047177028 0.0652291 0.0015932112 0.11442296 0.12795009 0.07151293 -0.11988917
0.043474145 -0.08627718 0.08354628 0.017679838 0.07641387 -0.008695636 -0.09888026 -0.13957863
-0.040508028 -0.12109912 -0.018298382 -0.06621309 -0.048447292 -0.06320261 0.10663165 0.08877011
0.062796645 0.009313297 0.12731126 -0.048841845 -0.109944746 0.11417755 0.08656182 -0.10071664
-0.042731535 -0.10759054 -0.03621345 -0.06965866 -0.1334263 0.10869914 0.12386817 -0.094528824
0.053579476 0.012839928 0.020292727 -0.010098072 -0.12061805 0.0033742867 -0.06841825 -0.057529174
0.08368228 -0.12559465 0.044976886 0.024670426 0.008316556 -0.12118645 -0.104629435 -0.0053393827
0.047095373 -0.046236824 0.091980495 -0.056115862 -0.07629922 0.08690272 -0.051944338 0.11169538
-0.10098169 0.044004455 0.07549759 0.01079945 0.078041434 -0.016458847 -0.047738936 0.11318408
0.07412841 0.030452546 0.065137066 -0.059785195 0.028817248 0.15467566 -0.11657014 3.972973e-05
0.041755073 0.10257718 -0.09933536 0.017530905 0.028807342 -0.077064075 0.12670654 -0.10656334
-0.10281115 -0.11329402 -0.11743691 0.14884949 0.037452612 -0.056190085 -0.03721493 0.082544744
-0.1314305 0.14260015 0.13236347 -0.01060925 -0.044677094 -0.029870337 0.08816859 0.05722134
-0.11518503 0.068013445 -0.116119064 0.079782546 0.11146627 -0.018271083 0.039954748 -0.11216045
0.08202878 0.030839412 -0.023117203 0.1233828 0.05199757 0.12711589 0.10769529 0.038330007
-0.01896247 0.093721874 -0.012264355 0.087180704 0.009764316 0.0050745397 0.10091725 -0.080017865
0.122979194 -0.0069617485 0.077010304 -0.07962239 0.041109957 -0.05431529 0.1259384 0.020461932
-0.10478758 0.039439958 0.054731682 -0.12463637 -0.00014751311 0.069944754 0.026668897 0.13985752
-0.06529812 0.032916877 -0.110430755 -0.14661747 -0.025420869 0.06629826 0.0500495 -0.06851955
0.09168795 0.11570975 -0.067852825 0.03774929 0.07460367 0.15203795 -0.1548389 0.12382597
0.12306231 -0.11839915 -0.061084587 0.08890863 -0.11372258 0.021032788 0.006901038 -0.075057276
0.11663765 0.0490652 0.01125993 -0.07553241 0.066261046 0.090555884 0.11609528 -0.0069219666
-0.13515033 -0.040168192 0.024734238 0.017741468 0.09117487 0.09512488 -0.05918984 -0.12400166
0.11016164 0.0442095 -0.022349583 -0.041082874 -0.042696286 0.13066529 -0.12937877 0.079116
-0.09500119 -0.113558166 -0.063311614 0.056177057 0.112216994 0.057684794 -0.07661027 -0.09743432
0.09490039 0.038866732 -0.12961088 0.033465385 0.004599518 -0.103044 -0.02065593 -0.06635449
0.018737629 0.020705227 0.11853265 -0.09208105 -0.010932468 -0.06649624 -0.017154163 -0.04095191
-0.038736947 0.09461616 -0.064149104 -0.023175707 -0.07927374 0.07228911 -0.08289269 -0.012222626
0.10833994 -0.11790779 0.06575629 0.01626545 0.07909282 0.070670776 -0.11512689 0.04881783
0.025666365 -0.13834654 -0.089849494 0.105509065 -0.11645836 -0.1047588 -0.13030577 -0.12582433
-0.07306832 0.021191569 -0.039059952 -0.05132098 -0.06230431 -0.07709481 -0.021600476 0.1097285
-0.11477404 -0.0060763992 -0.11448465 0.10267612 0.062912196 -0.012161309 0.07164406 -0.0057295193
00000000: 6f63 953d b33c 413d d696 853d 4cd3 d03a
00000010: 9656 ea3d 5905 033e 5f75 923d 7488 f5bd
00000020: f211 323d 17b2 b0bd 501a ab3d 4fd5 903c
00000030: e07e 9c3d 2478 0ebc bc81 cabd b3ed 0ebe
00000040: bfeb 25bd d102 f8bd 7de6 95bc bb9a 87bd
00000050: ab70 46bd 5f70 81bd b261 da3d 1acd b53d
00000060: 879b 803d cd96 183c e25d 023e 630e 48bd
00000070: b62a e1bd ebd5 e93d 5347 b13d 8744 cebd
00000080: 4307 2fbd 6e58 dcbd 8e54 14bd 33a9 8ebd
00000090: e7a0 08be a89d de3d 98ae fd3d 5498 c1bd
000000a0: 2776 5b3d 905e 523c ef3c a63c 6272 25bc
000000b0: 9906 f7bd 2323 5d3b de1e 8cbd b6a3 6bbd
000000c0: 9d61 ab3d e29b 00be af39 383d a219 ca3c
000000d0: 2a42 083c 9a30 f8bd f547 d6bd fdf5 aebb
000000e0: 14e7 403d d362 3dbd 4560 bc3d bfd9 65bd
000000f0: c442 9cbd 0efa b13d 96c3 54bd 8cc0 e43d
00000100: 7dcf cebd 043e 343d 7b9e 9a3d 2df0 303c
00000110: 30d4 9f3d b4d4 86bc e789 43bd 0ecd e73d
00000120: a3d0 973d 9e77 f93c 9566 853d 52e1 74bd
00000130: 2612 ec3c 4c63 1e3e 53bc eebd 79a3 2638
00000140: 5e07 2b3d fc13 d23d 5670 cbbd f99c 8f3c
00000150: 60fd eb3c c5d3 9dbd 5cbf 013e e13d dabd
00000160: a78e d2bd b206 e8bd c382 f0bd 006c 183e
00000170: e967 193d 9327 66bd af6e 18bd 380d a93d
00000180: b895 06be c605 123e 4a8a 073e 6bd2 2dbc
00000190: 54ff 36bd a3b2 f4bc bc91 b43d ec60 6a3d
000001a0: 21e6 ebbd a24a 8b3d d5cf edbd 0865 a33d
000001b0: 6e48 e43d 3dad 95bc 97a7 233d 61b4 e5bd
000001c0: b4fe a73d efa2 fc3c 4a60 bdbc 1fb0 fc3d
000001d0: 67fb 543d ab2a 023e 598f dc3d edff 1c3d
000001e0: 2f57 9bbc 41f1 bf3d 6ff0 48bc cc8b b23d
000001f0: 82fa 1f3c 5348 a63b b4ad ce3d 68e0 a3bd
00000200: 84dc fb3d 611f e4bb 94b7 9d3d 1011 a3bd
00000210: ea62 283d b679 5ebd fff5 003e c89f a73c
00000220: df9a d6bd cb8b 213d 542e 603d 5a41 ffbd
00000230: c0ad 1ab9 323f 8f3d bb78 da3c cf36 0f3e
00000240: 05bb 85bd d9d3 063d 8529 e2bd e422 16be
00000250: 6d3f d0bc 62c7 873d b400 4d3d fa53 8cbd
00000260: e4c6 bb3d 3cf9 ec3d 6cf6 8abd 009f 1a3d
00000270: cfc9 983d d6af 1b3e 178e 1ebe 7898 fd3d
00000280: 1808 fc3d 417b f2bd d533 7abd ba15 b63d
00000290: 62e7 e8bd f44c ac3c 1a22 e23b a1b7 99bd
000002a0: b8df ee3d 97f8 483d 927b 383c bcb0 9abd
000002b0: dfb3 873d 5d75 b93d 5dc3 ed3d aad1 e2bb
000002c0: d964 0abe 6787 24bd 759f ca3c 8e56 913c
000002d0: e4b9 ba3d d5d0 c23d 0c71 72bd 95f4 fdbd
000002e0: 6d9c e13d 0515 353d 7916 b7bc 8446 28bd
000002f0: 4de2 2ebd 1fcd 053e de7b 04be 9207 a23d
00000300: fc8f c2bd 2f91 e8bd 85a9 81bd ea19 663d
00000310: 06d2 e53d e446 6c3d d8e5 9cbd a58b c7bd
00000320: 235b c23d b932 1f3d b7b8 04be 0013 093d
00000330: 8eb7 963b bc08 d3bd a036 a9bc dde4 87bd
00000340: a87f 993c 029e a93c 3fc1 f23d fd94 bcbd
00000350: 181e 33bc 2e2f 88bd e386 8cbc 31bd 27bd
00000360: a2aa 1ebd 1ec6 c13d 9b60 83bd fbda bdbc
00000370: 455a a2bd 500c 943d a5c3 a9bd 6941 48bc
00000380: 55e1 dd3d a479 f1bd 3cab 863d 1f3f 853c
00000390: 6bfb a13d d7bb 903d a6c7 ebbd 34f5 473d
000003a0: 4542 d23c b7aa 0dbe 0303 b8bd 2315 d83d
000003b0: b881 eebd c88b d6bd e06e 05be 18d8 00be
000003c0: d8a4 95bd f199 ad3c 54fd 1fbd f335 52bd
000003d0: ce32 7fbd e2e3 9dbd 7bf3 b0bc 56b9 e03d
000003e0: a70e ebbd 881c c7bb ee76 eabd dc47 d23d
000003f0: 1cd8 803d 3a40 47bc 1fba 923d b1be bbbb

encoder.4.bias f4 [32]
-0.040892653 -0.11406018 0.07445365 -0.110932246 -0.02465297 0.060391355 -0.12718284 -0.06675739
0.11179243 0.09047689 0.13326696 -0.117611155 -0.08020288 -0.086245194 0.10199401 -0.10280434
-0.028856445 0.14126708 0.02325637 0.11954943 -0.025325818 -0.13593808 0.039969083 -0.118708804
0.0631524 0.14244935 -0.004987228 -0.046277877 -0.02146393 0.084079675 -0.073621154 -0.059571177
00000000: 0e7f 27bd 6298 e9bd 287b 983d 7230 e3bd
00000010: 06f5 c9bc ed5c 773d 383c 02be 19b8 88bd
00000020: 6ef3 e43d f34b b93d 2277 083e 1ede f0bd
00000030: 6841 a4bd 52a1 b0bd 3ce2 d03d 158b d2bd
00000040: 5a64 ecbc 51a8 103e 2584 be3c 55d6 f43d
00000050: 1778 cfbc 5a33 0bbe 9fb6 233d 9a1d f3bd
00000060: 0c56 813d 3ede 113e e76b a3bb df8d 3dbd
00000070: 20d5 afbc f731 ac3d b0c6 96bd e800 74bd

encoder.5.weight f4 [32]
1.0016271 1.0078185 1.0050509 1.0287695 1.0104688 1.0253172 1.0167859 0.99776584
1.0075372 1.0209417 1.0138612 1.003713 1.001898 1.009216 1.0106508 1.0061243
0.9986706 1.0084293 1.010898 1.00877 1.016113 1.0000514 1.0058593 1.015798
1.012985 1.0176511 1.0058514 1.0080847 1.0064267 1.0227569 1.0043356 1.0203503
00000000: 5135 803f 3200 813f 82a5 803f b8ae 833f
00000010: 0b57 813f 983d 833f 0a26 823f 956d 7f3f
00000020: fbf6 803f 38ae 823f 34c6 813f ab79 803f
00000030: 323e 803f fd2d 813f 015d 813f aec8 803f
00000040: e0a8 7f3f 3614 813f 1b65 813f 601f 813f
00000050: fe0f 823f af01 803f ffbf 803f ab05 823f
00000060: 7ea9 813f 6442 823f bdbf 803f eb08 813f
00000070: 97d2 803f b3e9 823f 128e 803f d79a 823f

encoder.5.bias f4 [32]
0.004381913 0.010381387 0.0068952045 0.02001767 0.008592872 0.022135286 0.014349308 0.00057574705
0.008849048 0.018518878 0.00786917 0.0056870594 0.0053224177 0.011009478 0.010527012 0.008669703
0.002968919 0.008477418 0.011634343 0.010431689 0.012746729 0.006000891 0.0068116495 0.011618701
0.012410119 0.012125372 0.009808623 0.008924639 0.007390766 0.017584367 0.004685474 0.014555242
00000000: 2796 8f3b b116 2a3c 2bf1 e13b 19fc a33c
00000010: 1ec9 0c3c 0f55 b53c 5c19 6b3c bbed 163a
00000020: 99fb 103c e7b4 973c b1ed 003c 835a ba3b
00000030: ad67 ae3b 1961 343c 7d79 2c3c 5f0b 0e3c
00000040: 3292 423b dee4 0a3c f99d 3e3c ade9 2a3c
00000050: a8d7 503c 1fa3 c43b 4234 df3b 5d5c 3e3c
00000060: d053 4b3c 7fa9 463c 59b4 203c a638 123c
00000070: 3d2e f23b 170d 903c 9b88 993b 1c79 6e3c

encoder.5.running_mean f4 [32]
-0.14582147 -0.06423255 0.76773053 0.0723871 -0.60574687 -0.20091558 -0.17500761 -0.10537134
-0.023986725 0.44226757 0.20925446 -0.05413595 -0.28715715 0.15526783 0.27169102 -0.27152947
0.41029012 0.28632534 0.40369803 0.20413713 0.25665253 0.14375526 -0.31038994 -0.49507225
-0.50318706 0.12436944 0.027956203 -0.44445732 0.22910191 -0.23567487 -0.3004796 -0.045398008
00000000: 3952 15be 5b8c 83bd fd89 443f b03f 943d
00000010: 3a12 1bbf d0bc 4dbe 3235 33be eecc d7bd
00000020: cf7f c4bc e570 e23e cd46 563e a8bd 5dbd
00000030: 4306 93be 88fe 1e3e 161b 8b3e e905 8bbe
00000040: 8c11 d23e 3c99 923e 82b1 ce3e 5309 513e
00000050: f667 833e 9434 133e 6eeb 9ebe 1c7a fdbe
00000060: ded0 00bf 68b5 fe3d 6804 e53c e98f e3be
00000070: b199 6a3e c154 71be 76d8 99be 43f3 39bd

encoder.5.running_var f4 [32]
0.05773075 0.15786603 0.32928154 0.074435286 0.28691167 0.18532166 0.10817503 0.16874145
0.1863893 0.2541359 0.12288119 0.10249608 0.1376425 0.102141686 0.072668 0.14531118
0.08771033 0.11717408 0.1325841 0.10633468 0.18645857 0.22853401 0.14141987 0.26219147
0.2675715 0.18386616 0.11957856 0.15134932 0.18453991 0.1290199 0.17717266 0.20853694
00000000: 1477 6c3d a2a7 213e 9797 a83e 8771 983d
00000010: 16e6 923e f6c4 3d3e df8a dd3d 8fca 2c3e
00000020: d6dc 3e3e 1a1e 823e 22a9 fb3d 77e9 d13d
00000030: 28f2 0c3e a92f d13d f6d2 943d 74cc 143e
00000040: 79a1 b33d f7f8 ef3d 20c4 073e ffc5 d93d
00000050: ffee 3e3e d204 6a3e 5fd0 103e f63d 863e
00000060: 22ff 883e 6947 3c3e 9be5 f43d 51fb 1a3e
00000070: 08f8 3c3e cb1d 043e c06c 353e b58a 553e

classifier.1.weight f4 [32, 320]
-0.042326078 0.04291463 -0.056672182 0.018199004 -0.02676194 -0.028597837 0.052929368 0.049350303
0.03583651 -0.050728686 -0.030243048 0.007841171 0.008714982 -0.015277934 0.042051036 -0.006800625
-0.04972129 -0.020032402 0.018190134 -0.03819733 -0.0047467304 0.057434674 -0.040412556 -0.0127344355
0.04237941 -0.010048201 0.015632762 -0.014014903 0.05733713 0.058119502 0.00062234624 0.05419859
-0.023753198 0.009724457 -0.04739559 0.0061952244 0.05933336 0.033484403 0.04049848 0.067761905
0.0052688336 -0.02269485 0.0023232617 -0.05276522 0.022706717 0.035103615 -0.030273724 -0.043015067
-0.019295981 -0.04466083 0.05349541 0.030375887 -0.007932486 0.012390646 0.029947653 -0.04985612
-0.058549017 -0.021114254 0.010248822 0.019937411 -0.022176439 0.011572021 0.05933917 -0.01388633
-0.050451465 0.020428866 -0.032929957 -0.0052521294 0.061701234 0.0075057996 0.03174336 0.055545546
-0.03655188 0.03311252 -0.054894734 -0.035036642 -0.015294262 0.046435483 -0.02448214 -0.039602377
-0.01311167 -0.033361044 0.019428072 0.03503656 0.039528947 0.042259745 -0.00235055 -0.00068812625
0.0002257789 0.016844887 -0.027241593 -0.044906817 -0.032980356 -0.038383216 0.049868833 0.0381024
0.0015624921 0.0015406506 0.057863496 -0.0014982244 0.018000813 -0.030199926 -0.031114763 -0.0054841153
-0.008623431 0.039833795 0.05295216 0.05638729 -0.049525395 -0.03664276 0.0010985081 0.008298339
0.05708003 0.0447573 -0.02116987 -0.010543254 0.0029349667 -0.0022870456 -0.02359743 -0.01845822
-0.005650515 -0.04274837 0.007219645 0.034779366 0.034108512 0.04134243 0.020777738 0.030718679
-0.0412168 0.041944955 0.006011104 -0.022972774 0.026877172 -0.05125593 -0.010888302 -0.025736205
0.012660032 -0.040249195 0.022318203 -0.03746664 0.020575637 -0.014931985 0.022468694 0.047909606
-0.051410176 0.01788484 0.012785425 -0.03629666 -0.020566816 -0.02229148 0.007329949 0.017089719
0.0051277773 0.03509766 -0.03620765 0.057815444 0.03580128 -0.035810124 -0.0149010755 -0.024129141
-0.032896537 -0.017566478 -0.04831453 0.029315619 0.04101134 0.009707087 -0.004676401 0.011288083
0.03428147 0.010480367 -0.04700782 -0.031045137 0.01583116 0.01095227 0.038378064 0.028944505
0.05276459 -0.0084483335 -0.020533077 0.056471676 0.0602094 -0.040863827 0.019685708 0.0032583142
-0.050610073 0.044643894 -0.05047783 0.055498537 0.011871902 0.042483535 0.040704776 0.040457178
0.03091221 -0.017954277 -0.022798004 0.00920682 0.032682132 0.04358081 -0.010030114 0.042938035
-0.02156329 -0.028679863 0.039980542 -0.060018644 -0.053231858 0.02339086 0.056768615 0.021967253
-0.032690603 -0.041841123 -0.04157045 -0.0063225394 0.02673986 0.015803428 0.014491152 -0.010304561
0.024653617 0.056341745 -0.044018056 -0.036277402 -0.0361033 -0.0014856957 0.026056316 -0.0072089294
-0.021598963 0.008082206 -0.010164177 -0.028166585 -0.0053242664 -0.010889056 -0.012486291 -0.022444889
0.030490888 0.009775084 0.04851511 0.037914615 0.014779991 -0.027435176 -0.0420613 -0.017278312
-0.04220283 0.029173182 -0.04252407 0.009036463 -0.00031402652 0.011762752 0.014081134 0.006656867
0.012055346 -0.011154201 0.009868786 -0.015319291 -0.019090824 0.01679223 -0.01728472 0.0006372257
00000000: 1c5e 2dbd 40c7 2f3d 1721 68bd 1416 953c
00000010: db3b dbbc 0346 eabc 77cc 583d 8b23 4a3d
00000020: 4ec9 123d e2c8 4fbd 45c0 f7bc 4178 003c
00000030: 49c9 0e3c 4d50 7abc b53d 2c3d c7d7 debb
00000040: 8da8 4bbd fe1a a4bc 7a03 953c ce74 1cbd
00000050: 768a 9bbb 9f40 6b3d a387 25bd 18a4 50bc
00000060: 0896 2d3d 36a1 24bc 4710 803c c49e 65bc
00000070: 57da 6a3d b70e 6e3d f324 233a 57ff 5d3d
00000080: 1196 c2bc 5453 1f3c e121 42bd 4f01 cb3b
00000090: 8a07 733d f126 093d bce1 253d c1c6 8a3d
000000a0: 2ea6 ac3b 8dea b9bc dd41 183b 5820 58bd
000000b0: 7003 ba3c cfc8 0f3d 9a00 f8bc 9130 30bd
000000c0: 9b12 9ebc 46ee 36bd 011e 5b3d dad6 f83c
000000d0: 42f7 01bc 2302 4b3c c854 f53c ee35 4cbd
000000e0: 18d1 6fbd cdf7 acbc adea 273c c853 a33c
000000f0: 5dab b5bc 9398 3d3c a10d 733d 7d83 63bc
00000100: 32a6 4ebd 705a a73c 90e1 06bd 0e1a acbb
00000110: 6fba 7c3d 36f3 f53b 5305 023d ba83 633d
00000120: 6db7 15bd fea0 073d 4dd9 60bd 9582 0fbd
00000130: c994 7abc 2233 3e3d c58e c8bc 1a36 22bd
00000140: 54d2 56bc 97a5 08bd 9f27 9f3c 7f82 0f3d
00000150: 1be9 213d 8e18 2d3d af0b 1abb 5f63 34ba
00000160: 10bf 6c39 4afe 893c c329 dfbc 36f0 37bd
00000170: 6916 07bd b837 1dbd 4343 4c3d 4311 1c3d
00000180: 89cc cc3a a8ef c93a 4602 6d3d 1260 c4ba
00000190: 7176 933c d665 f7bc 63e4 febc 18b4 b3bb
000001a0: 4b49 0dbc c328 233d 5de4 583d 5cf6 663d
000001b0: 24db 4abd b816 16bd d1fb 8f3a c2f5 073c
000001c0: c0cc 693d 6e53 373d 6f6c adbc 9dbd 2cbc
000001d0: 9258 403b 42e2 15bb 664f c1bc b135 97bc
000001e0: f527 b9bb ea18 2fbd c692 ec3b cf74 0e3d
000001f0: 5eb5 0b3d ae56 293d 1336 aa3c bda5 fb3c
00000200: f3d2 28bd 79ce 2b3d ccf8 c43b 6631 bcbc
00000210: 842d dc3c bdf1 51bd d964 32bc bcd4 d2bc
00000220: 066c 4f3c 57dc 24bd aad4 b63c 9f76 19bd
00000230: 3d8e a83c 49a5 74bc 4410 b83c dd3c 443d
00000240: 7a93 52bd 3a83 923c f679 513c ceab 14bd
00000250: bd7b a8bc 9f9c b6bc 1230 f03b bdff 8b3c
00000260: ea06 a83b 90c2 0f3d 794e 14bd e3cf 6c3d
00000270: 5da4 123d a3ad 12bd a423 74bc 7aaa c5bc
00000280: 85be 06bd 93e7 8fbc 75e5 45bd 4f27 f03c
00000290: 82fb 273d 790a 1f3c 7f3c 99bb a7f1 383c
000002a0: ba6a 0c3d d8b5 2b3c 468b 40bd 5f52 febc
000002b0: 59b0 813c 2671 333c 5132 1d3d 071d ed3c
000002c0: af1f 583d e16a 0abc fc34 a8bc d84e 673d
000002d0: 229e 763d d460 27bd ec43 a13c 7189 553b
000002e0: 824c 4fbd 84dc 363d d7c1 4ebd 6f52 633d
000002f0: 5e82 423c 3703 2e3d 0dba 263d 6db6 253d
00000300: 9a3b fd3c d914 93bc e1c2 babc 34d8 163c
00000310: b3dd 053d cb81 323d 5955 24bc cbdf 2f3d
00000320: 7fa5 b0bc 08f2 eabc a3c2 233d 1cd6 75bd
00000330: a609 5abd 309e bf3c 3586 683d abf4 b33c
00000340: 95e6 05bd 9961 2bbd c745 2abd 4e2d cfbb
00000350: 8d0d db3c 3176 813c 4c6c 6d3c 76d4 28bc
00000360: 62f6 c93c 9ac6 663d 474c 34bd 9d97 14bd
00000370: 0ee1 13bd adbb c2ba 0e74 d53c e238 ecbb
00000380: 4ff0 b0bc 3b6b 043c a687 26bc 9cbd e6bc
00000390: 2f77 aebb 0368 32bc 4d93 4cbc 58de b7bc
000003a0: 07c8 f93c ad27 203c c8b7 463d 5b4c 1b3d
000003b0: c627 723c bcbf e0bc 7848 2cbd 3f8b 8dbc
000003c0: e0dc 2cbd 99fc ee3c b82d 2ebd ac0d 143c
000003d0: eda3 a4b9 8fb8 403c 8fb4 663c d921 da3b
000003e0: c983 453c 1cc0 36bc b0b0 213c c3fd 7abc
000003f0: 5c64 9cbc dc8f 893c af98 8dbc 7e0b 273a

classifier.1.bias f4 [32]
-0.02695632 0.054483943 0.044651903 -0.00049107615 0.002299988 0.015929792 0.033212416 -0.010020627
0.0038281735 0.011107268 0.048933472 0.043444682 0.048466895 -0.04931464 -0.037589762 -0.025373107
-0.0062207873 -0.0018936003 -0.0045392714 -0.051389568 -0.013236083 0.059374593 -0.027927095 0.04790512
-0.017734328 -0.017286874 0.030383335 -0.02871056 -0.0075761043 0.046499174 0.0007707221 0.022763044
00000000: 80d3 dcbc 8e2a 5f3d eae4 363d 90bb 00ba
00000010: 65bb 163b 327f 823c be09 083d 8e2d 24bc
00000020: 18e2 7a3b 42fb 353c 776e 483d 0df3 313d
00000030: 3985 463d 26fe 49bd b9f7 19bd 43db cfbc
00000040: bfd7 cbbb af32 f8ba 2bbe 94bb de7d 52bd
00000050: 28dc 58bc c632 733d 5dc7 e4bc 2938 443d
00000060: 9547 91bc 349d 8dbc 79e6 f83c 6932 ebbc
00000070: f840 f8bb eb75 3e3d 490a 4a3a 9079 ba3c

classifier.3.weight f4 [1, 32]
0.14220093 0.2634577 0.4751545 0.050032094 0.14557838 0.101058595 -0.12863886 -0.2976011
-0.30468878 -0.085093014 0.13850754 0.07420086 0.2640478 0.075023025 -0.25581914 0.07413995
-0.26212975 -0.08983212 0.0670455 0.06331478 0.12062907 0.2542984 0.32034123 -0.2814433
0.0046492303 0.040498152 0.09099901 0.0758279 -0.14156932 -0.056828566 -0.14765804 -0.2732635
00000000: 1f9d 113e ede3 863e 7347 f33e 74ee 4c3d
00000010: 8012 153e cff7 ce3d e8b9 03be 2c5f 98be
00000020: 2b00 9cbe 3f45 aebd ecd4 0d3e 9ff6 973d
00000030: 4631 873e aca5 993d bafa 82be b0d6 973d
00000040: df35 86be e7f9 b7bd 274f 893d 2eab 813d
00000050: 600c f73d 6633 823e c403 a43e 5619 90be
00000060: 9258 983b 64e1 253d b05d ba3d a84b 9b3d
00000070: 8cf7 10be 12c5 68bd ab33 17be 32e9 8bbe
