checkpoints/cnn_model/fold_4.pth (torch, 56010 bytes, 15 tensors)

encoder.0.weight f4 [16, 1, 3]
000000 7e 6f 6c be bb 4b ce bd e8 82 b6 be c4 a0 0f 3f
       -0.23089406 -0.10073038 -0.3564675 0.56104684
000010 4a e9 db be f4 5f d0 3e b9 b2 83 be f9 dd 14 3f
       -0.42951423 0.40698206 -0.25722292 0.58151203
000020 12 bc 32 bd 70 25 1b 3c fc 52 ad 3e cb f7 50 3e
       -0.04363639 0.009469375 0.33852375 0.20407026
000030 b0 2f cc 3d 49 fb 58 3e f2 9e af 3e 1e 8a e6 be
       0.09970033 0.21189608 0.34300953 -0.4502725
000040 66 b1 92 be 8d 7a d7 3e fb 14 b1 3e 99 2f 2c be
       -0.2865097 0.42085686 0.3458632 -0.16815032
000050 7c 29 2a be b5 df 06 be 27 02 99 3d f6 94 83 3e
       -0.16617388 -0.13171275 0.07471114 0.25699586
000060 44 78 df be b6 30 e7 bd 27 c1 e9 be 37 8e ec 3e
       -0.43646443 -0.11288588 -0.45655176 0.4620225
000070 f6 99 e1 be 80 c6 07 bf 15 49 ed bd 66 d1 b4 3e
       -0.44062775 -0.5303726 -0.11586205 0.35316008
000080 1f ce 12 3f b7 02 ef 3c f2 26 48 be 95 ad c8 bb
       0.57345766 0.0291761 -0.19546106 -0.006124208
000090 02 9d dd be d2 91 c2 be cb c4 c4 bd f1 31 53 3e
       -0.4328385 -0.38001877 -0.09607848 0.2062452
0000a0 23 b8 68 3d a3 82 f7 be 02 ba 6d bd 4f c6 e9 3d
       0.05681623 -0.48341855 -0.05803872 0.114147775
0000b0 86 02 cc bd 2b dd 40 3e 7a 92 84 bd 23 63 c5 be
       -0.09961419 0.18834369 -0.06473251 -0.38552198

encoder.0.bias f4 [16]
000000 ff 30 c5 be fa 1c 02 3e a7 80 18 be 22 d7 b6 3e
       -0.38513944 0.12706366 -0.14892827 0.35711008
000010 d2 13 b7 be 1b 01 11 bf 4c 3c 1b 3c 5f 73 c3 3e
       -0.3575731 -0.5664231 0.009474825 0.3817396
000020 7c d3 ef bb d8 bb f8 be f9 c9 b3 be da 5a a0 be
       -0.007318912 -0.48580813 -0.3511503 -0.31319314
000030 aa f9 79 3e fc 21 07 bf fd f6 8b 3e 57 8d 07 3f
       0.24411646 -0.5278623 0.27336875 0.5295004

encoder.1.weight f4 [16]
000000 a6 4f 7b 3f 15 1f 7d 3f 19 70 7f 3f a9 4f 7b 3f
       0.9816841 0.9887555 0.9978042 0.98168427
000010 11 6c 7a 3f 18 f3 78 3f 72 1a 7e 3f 9a da 78 3f
       0.97821146 0.9724593 0.992591 0.9720856
000020 de dc 75 3f 6b 40 75 3f 12 89 7c 3f aa 38 7f 3f
       0.9604014 0.9580142 0.9864665 0.9969584
000030 ce a2 7d 3f 2b 24 7a 3f c3 e7 80 3f e6 0c 7c 3f
       0.99076545 0.9771144 1.0070728 0.9845718

encoder.1.bias f4 [16]
000000 58 ed 9a 3c f9 fc 5e 3b f1 83 c0 3b 7d 20 36 3c
       0.018912002 0.0034025295 0.0058751036 0.011116144
000010 50 e8 1e 3c 9b 55 92 3c 52 0f 85 3c 9c 27 c5 3a
       0.009698942 0.017863085 0.016242657 0.0015041712
000020 b0 24 8f bc e5 a4 14 bb 61 e1 b8 3b ed e7 17 3c
       -0.017473549 -0.0022681293 0.0056421016 0.009271604
000030 1f 3d 75 ba 3c 94 cf 3c 9c e2 6f 39 0b b4 d8 3c
       -0.0009355116 0.025339238 0.00022877235 0.026453039

encoder.1.running_mean f4 [16]
000000 eb 1a d2 be e5 e7 15 3e 00 77 0d be f4 52 c1 3e
       -0.41036162 0.14639242 -0.13814926 0.377586
000010 19 d1 aa be 7e 4c 14 bf dd 4b 27 3c e6 10 c7 3e
       -0.33362654 -0.5792922 0.010210958 0.3888008
000020 c1 45 35 bd d2 08 01 bf c3 bd a4 be 48 b6 a3 be
       -0.044255976 -0.50404084 -0.32176027 -0.31975007
000030 31 17 57 3e 3d 03 09 bf 54 41 8b 3e 7c 3d 05 3f
       0.2100494 -0.53520566 0.2719828 0.5204694

encoder.1.running_var f4 [16]
000000 f6 81 91 3e c6 f0 08 3f 98 4d 90 3e d2 e5 4b 3e
       0.28419465 0.5349239 0.281842 0.19911888
000010 6d 69 81 3e 02 a2 94 3e 52 4d cc 3d 0f 22 81 3d
       0.25275746 0.29029852 0.09975685 0.06305324
000020 ae e7 1c 3f b9 df f3 3e fe 02 fe 3e 2f cb 0c 3d
       0.61291015 0.47631624 0.49611658 0.03437346
000030 61 1e fb 3e 83 99 30 3e 23 58 91 3c 76 71 02 3e
       0.49046615 0.1724606 0.017742222 0.12738594

encoder.4.weight f4 [32, 16, 3]
000000 29 cf f0 bd 05 ae a4 bc c3 10 aa 3b 09 62 0e 3e
       -0.11758263 -0.02010251 0.0051899864 0.13904585
000010 f6 d7 4c bd b0 5c d2 bd b5 32 f1 3b 43 44 09 be
       -0.050010644 -0.10271585 0.007360781 -0.13404946
000020 ef 24 11 3d 40 5a 03 3e 05 bf 68 3d a1 a4 c0 bd
       0.035435613 0.12827396 0.056822795 -0.094064005
000030 46 6c a9 bc ed 11 ab bd 5d 50 a3 bd 52 75 df 3c
       -0.020681512 -0.083530284 -0.079743125 0.027277622
000040 99 a7 04 3e da ee e7 bd 22 8b 2c 3d e4 54 db 3c
       0.12954558 -0.11324854 0.042124875 0.026773877
000050 85 22 ef bd 36 65 04 3e 63 dd 29 3d fd 97 12 bd
       -0.11676506 0.12929234 0.041470896 -0.03578948
000060 5e b5 6f bd 92 7d c8 3c 1d c3 8e bd 2f 77 36 bd
       -0.058522575 0.02447394 -0.06970809 -0.044547256
000070 bc cf ce bd 6f 01 f2 3c 70 38 7e 3d c3 30 65 bd
       -0.10098216 0.0295417 0.06206554 -0.055954706
000080 5a 06 a9 bd 8b 14 04 3e ee 38 a7 3c 28 a5 b8 3d
       -0.082531646 0.12898462 0.020412888 0.09015876
000090 a7 20 b2 bd 20 2a a2 bc cc a3 93 3d c9 ae 59 3d
       -0.08697634 -0.019795477 0.07208976 0.053145204
0000a0 92 26 10 3e 21 bb b0 bd 7c 54 a1 3d f1 07 1d bd
       0.14077213 -0.08629442 0.07877442 -0.03833765
0000b0 13 dc e8 3d 8a 84 d0 bb b0 07 cc 3d 9a d2 88 bc
       0.11370101 -0.006363456 0.09962404 -0.016701985
0000c0 f1 a3 61 3c 69 76 10 3e 5b f6 d1 bd 68 e9 06 be
       0.013771997 0.1410767 -0.10252067 -0.13174975
0000d0 14 39 c4 3b 32 62 b3 bd ae 7f 9b bd c8 92 7b bd
       0.0059882496 -0.08758964 -0.07592712 -0.06141928
0000e0 7c eb b2 3c 5a d4 7b 3d 33 43 93 3d 12 48 85 3d
       0.021840803 0.06148181 0.071905516 0.06507887
0000f0 2d 02 05 be 57 d0 12 3d 5f c4 69 bd df 19 b9 3d
       -0.12989111 0.03584322 -0.05707204 0.09038138
000100 cc 49 0a be fc 4e a6 3d 49 c8 27 bd 96 5f f8 bd
       -0.13504714 0.08120534 -0.04096249 -0.121276066
000110 37 32 8e bd 42 09 a2 3d 99 28 41 bd 7d 19 96 3c
       -0.069431715 0.07911922 -0.047157858 0.0183227
000120 5b e2 a8 bc 4d 69 b0 3d 11 33 28 bd 16 35 aa bd
       -0.020615747 0.086138345 -0.041064326 -0.083109066
000130 f6 5a 80 3d 1c 6a 4e bd 73 18 a6 3d bc 0f 0f 3e
       0.062673494 -0.050394163 0.08110132 0.13970846
000140 19 27 cb bd 1f 66 09 3e a0 40 02 3e 8b 80 05 be
       -0.09919567 0.13417862 0.12719965 -0.13037317
000150 04 ac fe 3d 24 91 56 3d 63 d0 16 3c ea 76 6a bd
       0.12435153 0.05238451 0.009204957 -0.05724231
000160 7f 61 84 3d 5d c9 c8 3d 30 12 22 3d aa b2 c1 3d
       0.064639084 0.09804032 0.039568126 0.094579056
000170 e1 d7 f3 bd 91 ab d4 3d a8 37 99 3c b5 18 0a 3e
       -0.1190641 0.10384286 0.018703297 0.13485987
000180 6d d2 94 3d fe f5 13 3d a9 14 66 3d 59 5f 1e be
       0.07266698 0.03612327 0.056172047 -0.1546606
000190 73 c3 95 bc 30 ec 50 bd 6d b9 9e 3d 6b 30 fa bd
       -0.018281674 -0.051006496 0.07750211 -0.12216266
0001a0 5f f8 05 bb 52 81 9c 3d 96 3e 39 3c 43 fe 71 3c
       -0.002044223 0.076418534 0.011306426 0.014770093
0001b0 77 11 06 be ce d3 88 bd fe 3a 01 be b6 96 16 bd
       -0.130926 -0.066810235 -0.1262016 -0.036764823
0001c0 5c 6d 18 be 3d cd 0e 3d ab 52 d0 3d fd 20 91 bc
       -0.14885467 0.0348637 0.10172018 -0.017715925
0001d0 42 c8 12 bd 86 04 fa bd 9d 3b 42 3b 4b 67 15 be
       -0.035835512 -0.12207894 0.0029637583 -0.14590184
0001e0 a3 df 9a 3d 01 21 07 3e f8 49 95 bd d7 f8 a8 3d
       0.075621866 0.13196184 -0.07289499 0.082505874
0001f0 1b 44 ac 3a 6d 2b 63 bd 72 37 88 bd 11 eb 64 bd
       0.0013142856 -0.055461336 -0.066512 -0.05588824
000200 99 05 e4 bd 92 57 62 3c b6 5e 7b 3d 3d 52 28 3d
       -0.1113388 0.013814824 0.06136962 0.041094054
000210 ee e7 40 bd f2 28 24 3c bd 1e 47 bd 8a 75 7c 3d
       -0.047096185 0.010019528 -0.0486133 0.06163553
000220 6a 76 32 bd 8e 17 29 3d 09 88 b6 bd 85 3f ab bd
       -0.04356996 0.04128223 -0.089126654 -0.08361725
000230 23 0b 90 3d 39 f4 87 3d 3a c6 00 3c ec 7f 59 3d
       0.07033374 0.06638379 0.007859761 0.05310051
000240 f1 15 e6 bd 64 93 44 bd 85 45 f6 bc cf 0c 5e bd
       -0.11234654 -0.047992125 -0.030062446 -0.054211434
000250 3c 91 40 3d bf 53 66 3d dd 3a 21 3d 2d eb ff 3d
       0.047013506 0.05623221 0.039362777 0.12496028
000260 cd 0d 0e 3e fc e5 41 bd c1 f7 08 bd c4 ac 15 be
       0.13872452 -0.04733847 -0.0334394 -0.14616686
000270 f7 d6 8e bd f6 93 0e 3e 80 ce b9 3d d4 eb c0 bd
       -0.06974595 0.1392363 0.0907259 -0.09419981
000280 2c 00 41 be 7d d2 83 3d 1f 07 e7 3d 04 c6 2b 3d
       -0.18847722 0.06436632 0.11280655 0.04193689
000290 c8 50 d2 bc ec 66 18 be 62 7b b0 bd f2 1b 45 bc
       -0.025673285 -0.14883012 -0.086172834 -0.012030588
0002a0 b8 7d 84 3d 38 69 03 bd c0 5c 26 3e e5 df 7b bd
       0.064692914 -0.032082766 0.16246319 -0.06149282
0002b0 51 91 bd 3d ba 37 8b bd f5 dc 4f 3d a2 71 0b 3b
       0.092562325 -0.067977384 0.05074783 0.0021277447
0002c0 33 20 e7 bd 9a 3a cf 3d b8 14 1c be 9d 24 94 bd
       -0.112854384 0.10118599 -0.15242279 -0.07233546
0002d0 73 d9 f8 3d 27 d0 b5 b9 bc c6 30 bd 8c cd e5 3d
       0.1215085 -0.00034678096 -0.043158278 0.112208456
0002e0 7d a1 b1 bd 32 46 c2 bc a2 d1 8d bb d4 53 57 bc
       -0.086733796 -0.023715112 -0.0043279687 -0.013142545
0002f0 0c 01 17 bd 93 3b 6d 3d 20 23 0b 3e c5 3b 1b bd
       -0.036866233 0.057918143 0.13587618 -0.037898798
000300 3c 15 b6 3d 9c 71 7d bd fa 2c 0a 3e 16 30 b7 bd
       0.08890769 -0.061875924 0.1349372 -0.089447185
000310 22 7c 7f 3c 78 6b da bd a4 75 c5 3c 29 1c 00 be
       0.01559356 -0.10665029 0.024103947 -0.12510742
000320 e3 75 d7 bb f5 8d a8 3d d3 b9 6c 3d 99 46 e2 3d
       -0.0065753325 0.08230201 0.057794403 0.11048622
000330 e8 ef c9 3d da 0b e6 bd 60 15 e3 bd 59 26 ed bd
       0.098602116 -0.11232729 -0.11088061 -0.1157958
000340 28 c1 87 3d 21 9a 7b 3d d0 cf cb bd d8 66 93 3d
       0.066286385 0.061426286 -0.099517465 0.0719735
000350 dc a9 f2 3d 73 b3 0f bd 87 ec a8 3d 24 97 d5 bd
       0.11848804 -0.035083245 0.08248239 -0.104292184
000360 9b 98 c7 bd e6 1c f2 3c b1 a6 d8 bc e7 e7 d4 3d
       -0.09745904 0.029554795 -0.026446672 0.10395794
000370 b5 a2 96 3d af 5a 13 bb 80 d1 6d bd 61 16 cb bd
       0.07355253 -0.0022484472 -0.058061123 -0.09916378
000380 da 40 0c be 22 ec c7 3c 8b 99 f0 bc 10 64 ad 3d
       -0.13696614 0.02440459 -0.02937009 0.08466351
000390 55 d1 44 bb d3 31 ad bc 24 20 da b9 40 a2 11 be
       -0.0030031998 -0.021141922 -0.00041604147 -0.1422205
0003a0 8c 85 01 bd be 47 bb bd 0d c1 7f 3c 7a 45 13 be
       -0.0316215 -0.09144543 0.015609992 -0.14381972
0003b0 a2 f0 70 bd 2c 27 cd bd 51 61 c1 3d 77 d8 97 bd
       -0.058823235 -0.10017237 0.0944239 -0.07414334
0003c0 08 aa 26 bd d2 56 9a bd e4 62 9c 3c f9 c0 ce 3d
       -0.0406895 -0.07536091 0.019090123 0.100954
0003d0 a2 71 54 bd 56 01 7f bd a9 7e 5a 3d cb 32 12 be
       -0.05186618 -0.062257133 0.05334345 -0.14277188
0003e0 73 36 50 bd 2a 89 c6 bd 58 61 b2 bd 6e 57 76 3d
       -0.050833177 -0.09694131 -0.08709973 0.060141973
0003f0 0b cb ab 3d 9d 54 f5 bd 67 fc 3b 3d 29 b5 6c 3d
       0.08388337 -0.11979029 0.045895007 0.057789955

encoder.4.bias f4 [32]
000000 d3 1b 6f 3d 0e c2 83 bd b2 91 4d 3c 42 79 c5 bd
       0.058376145 -0.06433497 0.0125469435 -0.09642269
000010 63 4e f7 bd 32 a1 92 3d 67 5f 22 bd 8d b2 99 3b
       -0.12075498 0.07159652 -0.039641764 0.0046904744
000020 5d b0 c1 bd 30 56 94 3d 26 a0 94 3d 4e 94 0a 3e
       -0.09457467 0.072430015 0.072571084 0.13533136
000030 49 6f 98 3d 41 a2 58 3c bc f2 22 bd f2 b7 bf bd
       0.07443101 0.013222278 -0.03978227 -0.09361257
000040 57 7c e9 3c 5c bf e3 bd 7e 0e c7 3d 03 6a 83 3d
       0.028501673 -0.11120483 0.09719561 0.064167045
000050 2d 74 0c 3e 03 35 ae bc 45 73 7d 3d 16 2b 50 3d
       0.13716193 -0.021265512 0.061877508 0.05082234
000060 c1 e2 d3 bd 5e 14 3f 3d bd 1f b2 bd 36 72 ef bd
       -0.10345984 0.046650283 -0.0869746 -0.11691706
000070 b8 47 21 3d ed 0b 0a be 6c 82 33 bc d0 67 0d be
       0.039375037 -0.13481112 -0.010956388 -0.13809133

encoder.5.weight f4 [32]
000000 74 fb 81 3f c6 cb 80 3f 85 a2 80 3f 2f f7 83 3f
       1.0154862 1.0062187 1.0049597 1.030981
000010 f9 bf 7f 3f 73 bd 86 3f c3 f1 82 3f 6a 9c 81 3f
       0.999023 1.0526565 1.023003 1.0125859
000020 19 21 81 3f 51 8a 80 3f 9c 05 81 3f a9 48 82 3f
       1.0088226 1.0042211 1.0079837 1.0178424
000030 28 c6 82 3f ba d7 7f 3f 96 99 81 3f a0 97 7e 3f
       1.0216722 0.9993855 1.0124996 0.9945011
000040 61 bb 80 3f 30 1d 7f 3f 3d 56 82 3f c1 9c 7f 3f
       1.0057184 0.9965391 1.0182568 0.9984856
000050 f7 a0 80 3f d3 7f 82 3f 1f 95 81 3f 10 3e 84 3f
       1.0049123 1.0195259 1.0123633 1.033144
000060 b3 aa 82 3f 63 00 81 3f 55 fe 7f 3f 4e 8e 80 3f
       1.0208343 1.0078243 0.99997455 1.0043428
000070 68 4d 84 3f 28 60 82 3f bb fc 7d 3f ee 4e 82 3f
       1.0336123 1.0185595 0.9921376 1.0180337

encoder.5.bias f4 [32]
000000 d2 f7 0b 3c be 98 1e bb eb 74 17 3c f8 14 db 3c
       0.008542972 -0.0024199928 0.009244184 0.026743397
000010 8e 56 90 3c 47 3b d7 3c eb 46 62 3c 6b de b0 3c
       0.017619397 0.026273383 0.0138108535 0.021590432
000020 f0 45 62 3c ac 4b 0d 3c eb 37 72 3c 09 fb 72 3c
       0.01381062 0.008623999 0.01478384 0.014830359
000030 76 7b be 3c 42 8b 09 3c e9 44 a0 3c 27 31 e8 3b
       0.02325223 0.008395018 0.019564109 0.0070859375
000040 32 ec 20 3c ab e8 5d 3c 53 8a 86 3c 74 00 9d 3c
       0.009821938 0.013544242 0.01642338 0.019165255
000050 d1 55 45 3c 4f ac 4d 3c 66 bc 9c 3c ba 17 a7 3c
       0.012044386 0.012553289 0.019132804 0.020397056
000060 62 4d ba 3c ab 5a 0c 3c 26 91 01 3c 72 c9 c3 3b
       0.022741977 0.008566539 0.007908141 0.005974942
000070 e7 9c 5f 3c e7 94 d6 3c 2e 0f d2 3a 93 3a e1 3c
       0.013648248 0.026194049 0.0016026252 0.02749375

encoder.5.running_mean f4 [32]
000000 c0 c8 15 3e 9b e5 f9 3d 1d d7 ba be 36 b2 f9 bd
       0.14627361 0.12201997 -0.36492243 -0.12192194
000010 07 ec 08 bf eb 55 bc 3c ac dc c4 3c d9 26 10 3e
       -0.5348515 0.022990188 0.024031006 0.14077319
000020 e8 8f 99 3d 27 11 cb bd 0b 18 2b 3e 91 96 3d 3e
       0.07498151 -0.09915381 0.1670839 0.18514468
000030 8a 93 0f 3e 8b 60 de 3e cc 9e ce bd 08 36 e0 be
       0.14021125 0.4343303 -0.10088882 -0.43791223
000040 96 f3 25 3d 31 11 bd be 0f 15 c5 3d 00 75 01 3e
       0.040515505 -0.36927179 0.09623157 0.12642288
000050 04 15 b8 3d 53 8d 9a bd 78 11 bc 3c 82 57 1e 3d
       0.089883834 -0.07546487 0.022957548 0.038657673
000060 19 57 87 be e0 c3 dc be a3 ff aa 3d 2c d7 19 3e
       -0.26433638 -0.4311819 0.0834954 0.15023488
000070 4a 70 9b 3e e8 0b 27 bf c0 7f 87 3e de d5 07 bf
       0.30359107 -0.6525254 0.26464653 -0.5306071

encoder.5.running_var f4 [32]
000000 97 fe 12 3e ef ed 1b 3e 62 4b d3 3e bb 81 44 3d
       0.14354931 0.15227483 0.4126845 0.047975283
000010 1c 68 1a 3e 1c cc a7 3d 38 43 ac 3d 95 c5 20 3e
       0.15078777 0.08193228 0.084112585 0.15700372
000020 05 fe 9c 3d e8 49 cc 3d 2e 98 38 3e ac b7 02 3e
       0.07665638 0.09975034 0.18026802 0.12765378
000030 c8 b2 b2 3d a3 33 cb 3e 6a d9 8a 3d ff dd 00 3e
       0.08725506 0.39687833 0.0677975 0.12584685
000040 fe ce d8 3d 1d 37 bb 3e 19 e1 c4 3d ee f3 fe 3d
       0.105863556 0.36565486 0.096132465 0.1244887
000050 93 ad a8 3d 44 ec 2d 3e c7 0b ab 3d 23 51 23 3d
       0.08236232 0.1698466 0.08351856 0.0398723
000060 77 28 86 3d 8a 92 60 3e 0f 46 1a 3e 9a ca 06 3e
       0.06550687 0.219309 0.15065788 0.13163224
000070 b5 90 6d 3d c9 35 04 3e 2f 9a a9 3d 52 5a bd 3d
       0.05799933 0.12911142 0.08281361 0.09245743

classifier.1.weight f4 [32, 320]
000000 a9 43 1b 3d cd 41 c4 b9 bf 94 e3 bc 05 63 d3 ba
       0.037906323 -0.0003743306 -0.027780889 -0.0016127533
000010 27 02 cd 3c cd 0c 16 3d d5 1b 37 bd 6d 24 16 bd
       0.02502544 0.0366333 -0.044704277 -0.036655832
000020 0d a8 0d 3d 40 09 37 3c 82 2d 26 3d ec 2d 53 3d
       0.034584094 0.011171639 0.040570743 0.051557466
000030 2b 43 3d bc 87 b0 f4 3c 8b b0 2e 3d e0 38 00 3d
       -0.011551659 0.029869331 0.042648833 0.03130424
000040 67 a4 bc bc 5b 8a 3a bd 5f 1b 51 3c e7 16 0f 3d
       -0.023027612 -0.045542102 0.012762873 0.03493395
000050 a6 67 f6 3b 51 ee 86 ba 56 f7 05 3d ba 53 c0 bc
       0.00751968 -0.0010294412 0.03270658 -0.023477424
000060 29 cb 4b 3d 5e 25 41 bc 29 c6 08 3d ec ce f0 3a
       0.049754295 -0.011788694 0.033392105 0.0018372214
000070 0e b1 f2 3b 16 25 30 3d fe 8a 94 3c 83 3b ef bb
       0.0074063605 0.043004118 0.018132683 -0.0073007955
000080 bb d3 2b 3d ac 90 87 3d 71 0d d3 3c 4a 86 df 3b
       0.04194997 0.06619391 0.025763245 0.0068214284
000090 e2 d6 e3 bc a3 fb 1a bd d9 b6 61 bd a8 bd 1a 3d
       -0.027812425 -0.037837636 -0.055106018 0.037778527
0000a0 b8 db 96 bc df 27 08 bc 77 d6 28 3d 42 8e 81 3d
       -0.018415317 -0.008310287 0.041220155 0.06325962
0000b0 1f ed 14 bd 08 71 53 bd b7 f5 ce bc 20 9e 1d 3d
       -0.03635895 -0.051621467 -0.02526365 0.038480878
0000c0 9b 54 15 bd 93 6b 7e bc 82 9b bb 3b 0c cf 2d 3d
       -0.03645764 -0.015528577 0.005725325 0.042433783
0000d0 7e a4 2a bb 35 69 d1 3a 9a a1 33 3c a9 3f 0c bd
       -0.0026037986 0.0015976789 0.010963822 -0.0342404
0000e0 f7 eb 53 bb e2 b0 5c 3a 98 21 4f bd 3e 8c b7 3b
       -0.003233669 0.00084186916 -0.050569147 0.005601435
0000f0 9e c7 d4 3c b4 1d 47 3d 13 8c 24 bd ee fb cc bc
       0.025974091 0.04861231 -0.040172648 -0.025022473
000100 70 92 85 bc 79 1f 46 bd 00 db fb bc de 7f e5 3b
       -0.016305178 -0.04836986 -0.030744076 0.0070037683
000110 65 31 e4 3c 2a 18 fb 3c f7 6b 24 3d 73 e4 41 3d
       0.027855584 0.03065117 0.040142026 0.047337007
000120 ab 19 4f 3d 45 d0 3b bd c0 06 b9 3c 4f 36 15 3d
       0.05056159 -0.04585292 0.022586226 0.036428746
000130 32 7b 1b 3d a0 84 38 3d a2 bb b5 3c 11 34 46 3d
       0.037959285 0.045048356 0.022184197 0.0483895
000140 77 c1 5f 3c 00 c1 24 bd 91 2d 11 bd bf d5 1f 3d
       0.013656965 -0.04022312 -0.035443846 0.039022204
000150 ad d6 2e bc a5 54 aa 3c f9 64 4f bd 23 6d 2a bd
       -0.0106713 0.020792315 -0.050633404 -0.041607987
000160 3a c6 1a bc 59 87 08 bb eb f4 01 3d 6e a7 e9 bc
       -0.009446675 -0.0020832627 0.031727713 -0.02852222
000170 15 60 b5 3c 04 43 56 3d a1 1f 06 bd 2c d7 ba 3c
       0.022140542 0.052310005 -0.032745007 0.02280768
000180 0a 30 2c bd 9d a8 b3 3b d5 82 9e 3c ab 83 00 3d
       -0.042038 0.0054827468 0.019349495 0.03137557
000190 41 7b 92 bb c8 38 b8 bc 9d 1d 6c 3c e0 09 41 3d
       -0.0044702594 -0.022488013 0.014411357 0.04712856
0001a0 0f 6d 1a bc f8 10 e1 3c e0 8a b2 3c 01 e6 78 3d
       -0.009425416 0.027473912 0.021794736 0.060766224
0001b0 6e 91 09 bd 23 81 a0 3c 30 30 73 3c d5 7f ba 3c
       -0.03358596 0.019592827 0.014843032 0.022766033
0001c0 21 82 b1 bc fb a0 22 bd 02 8e f9 bb c6 2c 47 3d
       -0.021668496 -0.039704304 -0.0076158056 0.048626684
0001d0 02 66 33 3d 49 d0 0f 3c 81 5b 0e bd 16 d5 71 bc
       0.043798454 0.008777686 -0.034755234 -0.014760276
0001e0 d5 0b f2 3c ad c7 76 3d bc c9 59 3c c5 e6 49 bd
       0.029546658 0.06024902 0.013292726 -0.049292345
0001f0 07 0f 0e bd 14 7e 36 3d 18 38 f0 bb 58 ca fc bc
       -0.0346823 0.04455383 -0.0073309056 -0.030858204
000200 f7 90 b5 bc 6d a2 da 3c 3d 9d e8 bc b8 2b 2a 3d
       -0.022163851 0.026688779 -0.02839529 0.0415456
000210 97 29 19 3d 79 3c 50 bd 24 c6 af bb 6c d1 11 bd
       0.03739318 -0.05083892 -0.0053641964 -0.03560011
000220 fa 9d 11 bd 4c ab a8 bc d2 54 2f bd c9 9c 0e bd
       -0.03555105 -0.020589493 -0.0428055 -0.03481749
000230 cc 8d 5f bd c7 10 cf bc d3 35 23 3d 6d 92 35 3c
       -0.054578587 -0.025276555 0.039846253 0.011082274
000240 eb 23 1c bd 30 75 c5 3b 6b e3 33 3b 2d cc ac 3c
       -0.03812019 0.0060259327 0.0027448784 0.021093452
000250 6b f6 d0 39 58 7d d4 3b 86 04 7d 3a ed 72 c4 bc
       0.00039856447 0.0064846687 0.0009651858 -0.023980582
000260 4d a5 8c bc fa a6 07 bd 7f 33 28 3c 61 dc b2 bb
       -0.017168665 -0.033118226 0.010266184 -0.0054584
000270 6f 18 08 3d 47 ae ef 3c e5 19 a8 3b 1e b7 40 bd
       0.033226427 0.029257907 0.00513004 -0.047049634
000280 f5 4d 53 3d 73 1b d2 3c da 0e f4 3b 91 c1 19 bb
       0.051588017 0.025647854 0.0074480595 -0.0023461322
000290 3a 4e 36 bd e5 11 a0 3b 3c 5a 0c 3d 83 8d 98 bc
       -0.044508196 0.0048849457 0.03426574 -0.018622166
0002a0 2d 83 2c 3d fe ab 57 3d 54 25 11 3d 5e 00 2e 3d
       0.042117286 0.05265426 0.03543599 0.04248082
0002b0 c9 ae d1 3c c0 7f 58 3b 42 78 5f 3d 75 58 15 bd
       0.02559604 0.003303513 0.054558046 -0.036461312
0002c0 33 57 b5 3c 89 1c 12 3d d0 4f b3 3c 00 40 4f 3c
       0.022136306 0.035671744 0.021888644 0.012649536
0002d0 4d d2 1e bc 38 2c ad 3c 36 d5 39 3d a2 6a c3 bc
       -0.009693694 0.02113925 0.04536935 -0.023854557
0002e0 98 48 12 bd c6 8e 71 bb 6c cf 49 bd 77 bc 22 3c
       -0.035713762 -0.0036858781 -0.04927008 0.009932629
0002f0 b9 0f 6b 3c 7a 8f 25 bd ee 31 4b 3d 51 f2 20 bd
       0.01434701 -0.040420033 0.049608164 -0.03929359
000300 48 f7 7f bc 75 c4 64 3c 26 c3 4a bd da f0 5b bd
       -0.015622921 0.013962855 -0.049502514 -0.05369649
000310 b1 1d bb 39 b3 5f e3 3b 1b 31 09 3d 05 c6 0e 3d
       0.0003568954 0.0069388985 0.033494096 0.034856815
000320 06 86 89 3c 9f da 27 bd 55 ff 89 bc 34 c8 dc bc
       0.01678754 -0.040979978 -0.016845385 -0.026950933
000330 41 df e7 3c a7 03 85 3c 08 26 44 3d 6f 7a 58 bd
       0.028304698 0.016237093 0.047887832 -0.052851137
000340 dd 72 3b bd c5 01 1d bd 9a 7b 53 bd e1 f2 4c 3d
       -0.04576384 -0.038331766 -0.051631548 0.050036315
000350 c0 14 cb bb 59 2b 3a 3d 26 9f 26 3d 1b fe 1a bc
       -0.006197542 0.045451496 0.04067912 -0.0094599975
000360 43 eb d9 3c e0 df 13 3d 7c d3 53 3d 29 e4 f2 bc
       0.02660144 0.036102176 0.05171536 -0.02964981
000370 b9 0e b4 3c c5 43 d5 3c cc 7a 97 bc da 1b 3e bd
       0.021979677 0.026033292 -0.018491171 -0.04641328
000380 44 ed d9 3b 6e af 1f bd c4 6f 0e 3d e3 98 2e 3d
       0.0066505987 -0.038985662 0.034774557 0.042626273
000390 b8 56 ef bc 99 05 24 bd 20 4b 15 bc cf 28 d8 bc
       -0.029216155 -0.0400444 -0.0091121495 -0.026386647
0003a0 06 80 fb bc 7e 88 c8 3c 87 30 ea 3c 35 34 0e bd
       -0.030700695 0.024479147 0.028587593 -0.034717757
0003b0 2a 9c f5 bc ca af 94 bb ba e6 94 bc 59 7f 7b bc
       -0.029981691 -0.0045375573 -0.018176425 -0.015350186
0003c0 ef 7d 46 3d 05 7d e4 bc 96 fd 3d 3d fb 18 eb 3a
       0.048459943 -0.027891645 0.046384417 0.0017936522
0003d0 88 38 67 bd 1c 9f 21 bd 48 c5 16 3b 08 9f 36 3c
       -0.056450397 -0.03945838 0.0023005772 0.011146314
0003e0 6a 96 0e bd 0a fd 81 bc 18 59 f7 bc d2 78 94 38
       -0.034811415 -0.015867729 -0.03019385 7.0796945e-05
0003f0 c6 d6 89 3c d9 18 7d 3c 7a 50 6f 3d a6 4f 5f bb
       0.016826045 0.015447819 0.058426358 -0.0034074574

classifier.1.bias f4 [32]
000000 e3 18 51 bc 1f 7f 8b bc 31 93 cf 3c f1 fc 2b 3c
       -0.012762281 -0.01702839 0.025338741 0.010497318
000010 b6 26 43 3d d6 6f 19 3c 9d 1d df ba 5f 53 be 3c
       0.04764434 0.009365043 -0.0017022375 0.023233114
000020 52 fc 41 3d e7 01 eb bc c1 20 73 bc c7 0a 89 3d
       0.047359772 -0.02868743 -0.014839352 0.06691509
000030 42 c1 58 3d 93 9e 61 3d 14 cf 96 3c 32 1c cf 3b
       0.05291868 0.05508287 0.01840929 0.0063205
000040 dd af be bb 39 78 33 bd 3d ed 1e 3d 11 5a 5a 3c
       -0.0058193044 -0.043815825 0.038800467 0.013327138
000050 19 19 56 3d 43 4a ca 3b dd 82 1b 3d 37 bf 25 3c
       0.05227003 0.0061734035 0.037966598 0.01011639
000060 d8 a2 00 3d 8c 6e 85 3c 20 40 c3 3c 0b 9a 83 bc
       0.0314053 0.016288064 0.023834288 -0.016064664
000070 af 76 21 bd 93 86 c9 3c a5 33 89 3d 92 4e 7d 3b
       -0.039419826 0.024600303 0.066993035 0.0038651568

classifier.3.weight f4 [1, 32]
000000 10 69 1f 3e 0d a4 8c be 95 dc fc 3e 8c 19 00 be
       0.15567422 -0.2746891 0.4938704 -0.12509745
000010 6c 58 76 be a9 42 fc bc 84 6b a3 3d 0e c1 85 3d
       -0.24057168 -0.030793505 0.07979491 0.06530963
000020 07 60 da 3c 6b de a3 bd 8d de 7a bd 43 08 bc be
       0.026657118 -0.08001407 -0.061247397 -0.36725053
000030 fb 85 ae be cf be ed be c9 6b c2 3e 26 15 f6 3c
       -0.34086594 -0.46434638 0.3797286 0.030039381
000040 33 c1 cd bd 7b 8c ac 3e 29 a1 73 3e a3 e7 f2 3d
       -0.100466155 0.33700928 0.23791946 0.118605874
000050 f3 18 91 bc 92 fd d6 3e 49 08 1d 3e bb 43 97 be
       -0.017712092 0.41990334 0.15335192 -0.29543862
000060 43 36 8d be 99 74 4b be d8 bc 0a bf 07 38 53 3e
       -0.2758046 -0.19868697 -0.541944 0.20626841
000070 51 5b 2c bc d7 b3 ae bd 4e 70 f0 3e c7 92 2a 3e
       -0.010519818 -0.085303955 0.46960682 0.16657554
