checkpoints/cnn_model/fold_0.pth (torch, 55946 bytes, 15 tensors)

encoder.0.weight f4 [16, 1, 3]
-0.022826258 0.25197363 -0.28843924 -0.35609347 0.52208126 0.56040627 0.21414734 0.30225137
-0.10621145 0.5444477 -0.009284899 0.42711264 0.4234844 0.09816247 0.18059395 0.076460816
-0.31896898 0.1502053 0.54371005 -0.36908072 -0.087282084 0.2776136 0.3310482 -0.5661509
0.005849025 0.54969364 0.06257796 0.108613305 -0.23433003 -0.55309576 -0.40464383 0.14356597
0.21179046 -0.27473477 -0.49351254 0.52304083 0.3050854 0.47204128 0.044905823 0.07410546
-0.022902977 -0.37923598 -0.12664264 -0.20291695 0.43595642 0.48569232 0.23924112 0.15197264
00000000: 22fe babc b002 813e 4fae 93be e251 b6be
00000010: 1ea7 053f c976 0f3f 7149 5b3e b1c0 9a3e
00000020: 6485 d9bd ed60 0b3f b01f 18bc 82ae da3e
00000030: f3d2 d83e 6809 c93d 9fed 383e 7d97 9c3d
00000040: e74f a3be 6bcf 193e 9530 0b3f 26f8 bcbe
00000050: f3c0 b2bd 5f23 8e3e 267f a93e 44ef 10bf
00000060: 2ea9 bf3b b9b8 0c3f e028 803d a770 de3d
00000070: 36f4 6fbe af97 0dbf 7a2d cfbe f502 133e
00000080: 99df 583e 09aa 8cbe adad fcbe 01e6 053f
00000090: 2734 9c3e 65af f13e 2bef 373d 9ac4 973d
000000a0: 069f bbbc 382b c2be 9cae 01be 76c9 4fbe
000000b0: ae35 df3e aaac f83e a0fb 743e b79e 1b3e

encoder.0.bias f4 [16]
0.5512164 0.26465055 -0.44857678 -0.5511126 -0.20835292 -0.3973821 -0.22981404 0.16924654
-0.05364534 -0.54705906 0.18836096 -0.41991842 0.2949397 -0.573054 0.4534767 0.41343778
00000000: 851c 0d3f 4780 873e dbab e5be b715 0dbf
00000010: 785a 55be ab75 cbbe 5f54 6bbe f74e 2d3e
00000020: 37bb 5bbd 100c 0cbf b2e1 403e 8cff d6be
00000030: 5602 973e abb3 12bf 192e e83e 1eae d33e

encoder.1.weight f4 [16]
0.9846059 1.0106736 1.0130324 0.99487 1.0139621 0.9972196 0.99500734 1.003019
0.99740225 0.9903562 0.98965085 0.99547184 0.9980262 0.9919793 0.9826562 1.0016143
00000000: 220f 7c3f c15d 813f 0cab 813f cdaf 7e3f
00000010: 83c9 813f c949 7f3f cdb8 7e3f ed62 803f
00000020: c155 7f3f fc87 7d3f c259 7d3f 3ed7 7e3f
00000030: a57e 7f3f 5bf2 7d3f 5b8f 7b3f e634 803f

encoder.1.bias f4 [16]
-0.006307681 0.008730561 0.01649386 0.002872888 0.01976552 0.0022302985 0.0021955061 0.0018040745
0.0032376999 -0.0024349603 0.0031471981 0.0025417295 0.004388329 0.0018244105 -0.0063345623 0.0100540845
00000000: aab0 cebb a00a 0f3c 221e 873c 1047 3c3b
00000010: 4deb a13c 332a 123b 7be2 0f3b b276 ec3a
00000020: 972f 543b db93 1fbb 3941 4e3b 2593 263b
00000030: f9cb 8f3b 0f21 ef3a 2992 cfbb e3b9 243c

encoder.1.running_mean f4 [16]
0.5500433 0.28470725 -0.43722272 -0.52544165 -0.18945503 -0.40035802 -0.22793938 0.17090842
-0.0363985 -0.5655216 0.18721683 -0.42723814 0.31759787 -0.5818824 0.45603704 0.43727532
00000000: a3cf 0c3f 26c5 913e a8db dfbe 5883 06bf
00000010: 8000 42be bafb ccbe f168 69be 9e02 2f3e
00000020: 9816 15bd 06c6 10bf c5b5 3f3e f5be dabe
00000030: 309c a23e 3ff6 14bf b07d e93e 8de2 df3e

encoder.1.running_var f4 [16]
0.082388125 0.601121 0.15107898 0.6521846 0.32733074 0.07661197 0.24092236 0.2695606
0.33050522 0.3909817 0.12124949 0.343298 0.45750272 0.12426992 0.13631342 0.49433184
00000000: 1bbb a83d 11e3 193f 73b4 1a3e 92f5 263f
00000010: e597 a73e bde6 9c3d 5ab4 763e d903 8a3e
00000020: fb37 a93e c12e c83e a751 f83d c1c4 af3e
00000030: cc3d ea3e 3a81 fe3d bf95 0b3e 1019 fd3e

encoder.4.weight f4 [32, 16, 3]
-0.11592785 -0.043224834 -0.102782756 0.067402855 -0.10928644 -0.09584864 -0.071080826 -0.09590723
-0.13262334 -0.11121821 -0.09767004 -0.08113301 0.13834254 -0.05470576 -0.03581153 0.020100366
-0.0588437 0.018484756 0.10146609 -0.117786646 -0.05377928 0.030141719 -0.1102808 -0.093713626
0.12824236 0.08735701 -0.0504137 -0.12084342 -0.076698974 -0.045826722 0.04454013 0.022023065
-0.05348038 0.05916662 0.06862043 -0.029223394 0.10792759 -0.12155111 -0.118512176 0.14287037
0.09809983 0.009023573 0.05727229 -0.024686666 0.02445647 -0.01629285 -0.053196367 -0.09244795
-0.10428647 0.004539755 -0.1378698 0.030643918 -0.060822915 -0.034519512 -0.086839855 -0.1068966
-0.023034623 -0.07449945 -0.012352913 0.079906546 -0.052349288 0.055223428 -0.05728293 0.004366916
-0.06873094 -0.033251148 -0.055468593 0.11985442 -0.08134744 0.081955515 -0.11048997 0.05972076
0.049284685 -0.10800357 0.013660973 0.0527965 0.09980963 0.028678685 -0.01113163 -0.07595297
0.10526479 0.13984624 -0.019318057 -0.0466645 0.11426942 0.0060162903 -0.066532135 0.012255032
0.037501223 0.054409627 -0.113690406 0.12209825 0.08832588 -0.06443036 -0.0423804 0.12668051
0.06922294 0.06969378 0.048871297 -0.093343 -0.12525246 -0.0762813 -0.1296171 0.039134804
-0.10997886 -0.012913315 0.009323673 -0.108627744 -0.10158552 0.06419904 0.05021734 0.052235425
0.1413466 -0.14538872 -0.07622283 -0.07196448 0.018220095 -0.015849907 0.0062500285 0.043092374
-0.0090105105 0.05118059 -0.09558639 -0.011807776 0.020660253 -0.05886504 0.021498442 0.09418845
0.07337801 0.115641944 -0.12907606 0.08923185 -0.14217597 -0.0051585548 -0.07919084 0.06358212
0.006829232 0.08545956 0.07934566 -0.10484343 -0.036869597 -0.10113798 -0.0781842 -0.123260304
-0.067254975 0.09446868 0.11213828 0.13398868 -0.08176657 -0.071419075 0.078748316 0.034615755
-0.0047490657 -0.068310894 0.13959968 -0.05723408 0.09097658 0.118195206 0.129207 0.08557834
-0.057172246 0.12627263 0.11669973 0.05928135 0.039346423 -0.12369301 0.06484586 -0.11008407
0.073901385 0.04657245 0.07316701 0.021536933 -0.13936134 -0.0028521626 0.025163326 -0.053337883
0.1090495 -0.08646453 0.025598342 -0.11139924 -0.06213517 -0.020683799 -0.05390047 0.06917389
0.097398736 0.04301797 0.11770478 -0.0755372 0.0023469164 -0.1399419 0.0823048 0.12000814
-0.009942595 0.014869788 -0.10424355 0.12152029 0.09822016 0.08902538 -0.09249887 0.14206725
0.088272706 -0.12499205 -0.0050195083 0.034497987 0.004726093 0.07687827 -0.0849478 -0.03588495
-0.14666961 0.123693526 0.0756851 0.032884646 0.087090135 0.083721705 0.051467173 -0.1157125
-0.003847445 0.02317007 0.054844264 0.11475382 -0.11321647 -0.015242464 0.09029853 -0.13939705
0.08327834 0.01984632 0.034804713 -0.08239969 -0.020479903 -0.09469965 0.06127436 -0.05210678
-0.14324811 0.14795105 -0.013942976 0.12907201 -0.11918365 -0.06770627 0.10054838 -0.07295232
0.10317158 0.09281349 0.13858253 -0.0990928 0.11408211 -0.14811094 0.05577672 -0.09605831
0.09419914 0.10050509 0.13244435 -0.017181182 -0.11185161 0.039863028 -0.00786195 -0.06571834
00000000: 956b edbd 860c 31bd c47f d2bd 820a 8a3d
00000010: 92d1 dfbd 4b4c c4bd d392 91bd 036b c4bd
00000020: 6ace 07be 5fc6 e3bd 3b07 c8bd 1029 a6bd
00000030: aba9 0d3e 2613 60bd 1caf 12bd 86a9 a43c
00000040: 1706 71bd 586d 973c 74cd cf3d 203a f1bd
00000050: aa47 5cbd c4eb f63c e6da e1bd eeec bfbd
00000060: f751 033e 3be8 b23d 997e 4ebd c17c f7bd
00000070: 5a14 9dbd cdb4 3bbd b66f 363d b769 b43c
00000080: 3e0e 5bbd b358 723d de88 8c3d e665 efbc
00000090: 2409 dd3d caef f8bd 83b6 f2bd 9c4c 123e
000000a0: 90e8 c83d 9cd7 133c 5996 6a3d b13b cabc
000000b0: ef58 c83c 9578 85bc 6fe4 59bd 5a55 bdbd
000000c0: 2594 d5bd 3ac2 943b be2d 0dbe f408 fb3c
000000d0: 7321 79bd 5564 0dbd 18d9 b1bd 9bec dabd
000000e0: 1bb3 bcbc 2b93 98bd df63 4abc 0ba6 a33d
000000f0: 356c 56bd f631 623d 81a1 6abd 5918 8f3b
00000100: cfc2 8cbd 5b32 08bd 0933 63bd 3c76 f53d
00000110: 7d99 a6bd 4bd8 a73d 9148 e2bd c19d 743d
00000120: bdde 493d fa30 ddbd 46d2 5f3c 2541 583d
00000130: fe68 cc3d 90ef ea3c 7161 36bc 3b8d 9bbd
00000140: 1195 d73d da33 0f3e e740 9ebc 4623 3fbd
00000150: 1606 ea3d 4d24 c53b 0042 88bd 54c9 483c
00000160: e29a 193d a1dc 5e3d 84d6 e8bd a60e fa3d
00000170: 33e4 b43d 11f4 83bd 1297 2dbd 89b8 013e
00000180: c2c4 8d3d 9dbb 8e3d 452d 483d 9d2a bfbd
00000190: 2e42 00be 5f39 9cbd 58ba 04be d14b 203d
000001a0: 993c e1bd 5e92 53bc 52c2 183c 3978 debd
000001b0: 120c d0bd c97a 833d b3b0 4d3d d0f4 553d
000001c0: 2abd 103e c8e0 14be b71a 9cbd 1d62 93bd
000001d0: 4f42 953c aad7 81bc 0acd cc3b a181 303d
000001e0: d2a0 13bc bda2 513d ccc2 c3bd 6775 41bc
000001f0: b13f a93c 781c 71bd 801d b03c e0e5 c03d
00000200: 3647 963d afd5 ec3d 842c 04be 30bf b63d
00000210: 9496 11be 1809 a9bb cf2e a2bd 5837 823d
00000220: c0c7 df3b 6c05 af3d fa7f a23d 27b8 d6bd
00000230: 9304 17bd 6e21 cfbd 0a1f a0bd e66f fcbd
00000240: fabc 89bd cc78 c13d c1a8 e53d 5434 093e
00000250: 3b75 a7bd 2a44 92bd cc46 a13d 40c9 0d3d
00000260: 0d9e 9bbb 95e6 8bbd 38f3 0e3e 486e 6abd
00000270: ee51 ba3d 5410 f23d d74e 043e b243 af3d
00000280: 722d 6abd 9d4d 013e 4500 ef3d 00d1 723d
00000290: b729 213d c352 fdbd e8cd 843d c273 e1bd
000002a0: 9c59 973d c1c2 3e3d 96d8 953d 396e b03c
000002b0: bdb4 0ebe 59eb 3abb 5223 ce3c d378 5abd
000002c0: 5855 df3d 5114 b1bd 9db3 d13c 4925 e4bd
000002d0: 7381 7ebd 1271 a9bc bdc6 5cbd 0aab 8d3d
000002e0: fd78 c73d 9c33 303d 340f f13d 3fb3 9abd
000002f0: b9ce 193b ee4c 0fbe 6b8f a83d d4c6 f53d
00000300: 44e6 22bc 69a0 733c a47d d5bd a1df f83d
00000310: a727 c93d f052 b63d 0c70 bdbd 147a 113e
00000320: 52c8 b43d d5fb ffbd b07a a4bb c34d 0d3d
00000330: 57dd 9a3b 5b72 9d3d 1df9 adbd 19fc 12bd
00000340: 8f30 16be 0853 fd3d ca00 9b3d 0db2 063d
00000350: 505c b23d 4976 ab3d 3ecf 523d adfa ecbd
00000360: 6a25 7cbb 29cf bd3c 61a4 603d 0d04 eb3d
00000370: 09de e7bd 87bb 79bc 70ee b83d 1abe 0ebe
00000380: d68d aa3d c094 a23c 638f 0e3d 2bc1 a8bd
00000390: 78c5 a7bc e4f1 c1bd d3fa 7a3d eb6d 55bd
000003a0: a2af 12be 7b80 173e 1471 64bc 742b 043e
000003b0: 8f16 f4bd 96a9 8abd 4fec cd3d 0768 95bd
000003c0: 9f4b d33d 0015 be3d 94e8 0d3e 2af1 cabd
000003d0: e2a3 e93d 65aa 17be 2176 643d 38ba c4bd
000003e0: 7beb c03d 9dd5 cd3d 7e9f 073e 8dbf 8cbc
000003f0: 7512 e5bd 6a47 233d 69cf 00bc 5697 86bd

encoder.4.bias f4 [32]
0.0041138874 -0.122044556 -0.11303532 0.07103538 0.025187075 0.1009307 0.07839438 0.014228004
-0.011143194 -0.0027894266 -0.10152043 0.04418222 -0.044981502 -0.052586515 -0.10198889 0.032028217
-0.11272351 0.047119956 -0.050405927 -0.08996626 0.10419575 -0.04295848 0.061010927 -0.044199467
-0.08074106 0.09662368 0.08414104 -0.041551594 -0.08649374 -0.018120542 -0.016553441 -0.09306566
00000000: cacd 863b 7ff2 f9bd 107f e7bd ff7a 913d
00000010: 2055 ce3c c1b4 ce3d 3c8d a03d 931c 693c
00000020: f191 36bc d0ce 36bb f1e9 cfbd 6af8 343d
00000030: 863e 38bd f564 57bd 8ddf d0bd 0530 033d
00000040: 95db e6bd db00 413d 7276 4ebd 3b40 b8bd
00000050: 9564 d53d 3bf5 2fbd 98e6 793d 800a 35bd
00000060: 925b a5bd a3e2 c53d 2352 ac3d 0132 2abd
00000070: a123 b1bd 8871 94bc 159b 87bc 3599 bebd

encoder.5.weight f4 [32]
1.0005909 1.0099878 1.0127106 1.0155836 1.0056974 1.0046045 1.0003891 1.0083102
1.0047513 1.0027676 1.011846 1.0146167 1.0101975 1.0075989 1.0117778 1.014766
1.0073026 1.0015692 0.99960905 1.0227973 1.0152476 1.0007377 1.0105562 1.0070593
1.0088145 1.0158875 0.99901116 1.0063757 1.0129069 1.0016774 1.0051814 1.0136055
00000000: 5d13 803f 4847 813f 80a0 813f a5fe 813f
00000010: b1ba 803f e196 803f c00c 803f 4f10 813f
00000020: b19b 803f b05a 803f 2b84 813f f6de 813f
00000030: 274e 813f 00f9 803f ef81 813f dae3 813f
00000040: 4bef 803f 6b33 803f 61e6 7f3f 06eb 823f
00000050: a2f3 813f 2c18 803f e859 813f 52e7 803f
00000060: d520 813f 9a08 823f 32bf 7f3f ebd0 803f
00000070: efa6 813f f736 803f c9a9 803f d3bd 813f

encoder.5.bias f4 [32]
0.0023237122 0.010987689 0.012300528 0.010442734 0.009076946 0.0054346924 0.002776111 0.008975664
0.0057599973 0.0043663117 0.009077062 0.013799462 0.009898965 0.008726683 0.014121603 0.013740548
0.00578007 0.004750407 0.0019706385 0.017414061 0.014418738 -0.0006698549 0.010562017 0.008840614
0.00969879 0.010151435 0.0002109108 0.004478474 0.011204759 0.0017963419 0.0046896758 0.014380715
00000000: 6c49 183b b505 343c 2788 493c 0018 2b3c
00000010: 79b7 143c 8115 b23b 6aef 353b aa0e 133c
00000020: 5cbe bc3b 4713 8f3b f5b7 143c 2317 623c
00000030: 452f 223c 5dfa 0e3c 4c5e 673c 0920 613c
00000040: be66 bd3b 4da9 9b3b d425 013b efa7 8e3c
00000050: 923c 6c3c 3499 2fba 4f0c 2d3c 39d8 103c
00000060: ace7 1e3c 3452 263c f027 5d39 2ac0 923b
00000070: 2a94 373c 3b73 eb3a daab 993b 179d 6b3c

encoder.5.running_mean f4 [32]
-0.66236997 -0.24910206 -0.45105562 0.65136933 0.22574554 0.49953097 -0.44696775 0.49457538
-0.14705606 -0.29028687 -0.4703077 -0.24720937 0.0026077875 0.20643243 -0.04773682 -0.011509064
0.10053008 -0.09240896 -0.00049485476 0.36069447 0.10973535 0.19534412 0.124521494 0.21312688
-0.20661956 0.09294988 -0.4609362 -0.8219001 -0.49854997 -0.600853 -0.14538346 -0.40111667
00000000: 1491 29bf 9c14 7fbe c3f0 e6be 24c0 263f
00000010: d729 673e 86c2 ff3e f5d8 e4be fc38 fd3e
00000020: dd95 16be 7ba0 94be 2ccc f0be 7424 7dbe
00000030: 6ae7 2a3b 0663 533e af87 43bd 8390 3cbc
00000040: b7e2 cd3d e940 bdbd 24b9 01ba f2ac b83e
00000050: edbc e03d 4a08 483e 2005 ff3d ef3d 5a3e
00000060: 1494 53be 825c be3d d4ff ebbe 0c68 52bf
00000070: f141 ffbe 81d1 19bf 67df 14be 2a5f cdbe

encoder.5.running_var f4 [32]
0.32870492 0.10614012 0.5009178 0.22149543 0.119902186 0.29356 0.34111333 0.24061657
0.13244262 0.06966623 0.15612315 0.13823467 0.21831033 0.10451384 0.13533518 0.20858732
0.15487503 0.06960969 0.23150831 0.13919011 0.09381223 0.15722288 0.084062785 0.2621426
0.10221088 0.23250556 0.22763303 0.29639077 0.22518489 0.20878519 0.15632571 0.2701694
00000000: 034c a83e fe5f d93d 263c 003f b3cf 623e
00000010: 478f f53d 7f4d 963e 68a6 ae3e 3164 763e
00000020: 0a9f 073e 2bad 8e3d bfde 1f3e 648d 0d3e
00000030: be8c 5f3e 5a0b d63d 4e95 0a3e ea97 553e
00000040: 8f97 1e3e 868f 8e3d 8410 6d3e da87 0e3e
00000050: a020 c03d 09ff 203e 1c29 ac3d 8e37 863e
00000060: f053 d13d f015 6e3e a218 693e 88c0 973e
00000070: de96 663e c9cb 553e d913 203e a553 8a3e

classifier.1.weight f4 [32, 320]
-0.046883486 -0.017223347 0.026435716 -0.030216496 -0.025597831 -0.0019510438 -0.058081042 0.029411435
0.020545721 -0.049155306 0.040932097 0.0426844 0.013325467 -0.0065916707 0.03282922 0.033678308
0.030698113 0.007055497 -0.06570699 0.00882068 0.055473585 0.048498068 -0.024241263 0.00093020557
0.04815238 -0.0045778723 -0.0003098738 -0.06295733 -0.006509021 -0.062021494 0.064069904 0.0011482382
0.069258325 0.015344732 0.05581608 0.048490673 0.08078167 -0.038227163 0.025112526 0.058846656
0.02241575 0.011153268 -0.03370875 0.019553632 0.026399748 0.052275557 -0.027306037 0.06199741
0.01779264 0.010303547 -0.026473792 0.0504995 0.0020190403 0.027308203 -0.014900111 0.0715029
0.07927733 0.05254947 0.014151894 0.052163765 -0.02361733 -0.033102386 0.046299376 -0.017093023
-0.043148793 0.040793356 -0.036479805 -0.056242023 -0.0023532347 0.02364774 0.018277563 0.034719575
0.04078128 -0.019146623 -0.011956228 -0.022251043 -0.018501967 -0.01585903 0.07126715 0.042948417
-0.005090013 0.045072734 -0.043650635 -0.025781559 -0.0064099687 0.010113931 -0.0032329187 -0.028538318
-0.027319962 0.0027337607 -0.0073591047 0.0015435796 0.02723907 0.052915014 0.026980788 0.015285891
0.021043155 -0.012787847 0.053601723 0.0065664467 -0.02646064 -0.030815622 0.024905672 -0.011344752
0.052782487 -0.032013685 0.036655497 -0.027636785 -0.007926671 -0.0031754486 -0.023200056 0.0002600021
-0.032712977 -0.013665671 0.043912478 -0.010043318 0.0058428324 -0.025088195 -0.043810837 -0.03233609
-0.02568436 -0.05688595 -0.006961849 0.076215774 -0.030146178 0.042416964 -0.034198012 -0.01194909
-0.012734538 -0.022412296 0.06492707 -0.0073009995 0.04001075 -0.02295209 0.039802134 0.021083148
-0.04311518 -0.03911786 0.004959505 0.0192673 -0.033349536 0.037706453 0.067944095 -0.032929692
-0.0032668265 0.04010527 -0.02950266 0.018229572 0.053702988 -0.030150384 0.028686395 -0.0043424987
0.032122586 0.00820678 0.063086845 0.041694835 0.067358494 0.080175504 0.02852509 -0.0049588904
0.05278628 -0.051701613 0.022114493 0.05180956 0.019926677 0.039918166 0.027577473 -0.015436656
-0.033839267 0.015871055 -0.010571051 0.044979885 -0.02059658 0.028193291 0.03606903 -0.023406666
0.052267574 -0.011246025 -0.046843413 -0.04403749 0.013020158 -0.014479147 -0.029035004 -0.031969827
0.004492887 -0.052785773 -0.036086753 -0.0532959 0.011562206 0.051194407 0.03399096 0.048973028
0.0051695933 0.0137588065 -0.07541776 0.06367947 0.016132403 -0.019258479 0.057150662 0.043087345
0.016510075 -0.051747326 -0.03408709 0.040200435 -0.051535778 -0.020819524 0.057291396 0.06754184
0.07989986 -0.02808414 0.05809229 -0.036288317 -0.0047926195 0.040355206 -0.022539506 -0.028615441
0.00817634 0.024477204 0.010842276 0.03311198 0.0048131505 -0.03622389 0.027562583 0.044454757
-0.01329596 0.029960867 0.016784964 0.037637062 0.074365854 0.04556713 -0.049942154 -0.044337388
-0.049168475 -0.035894345 0.0204878 0.014248019 -0.0067222095 0.07869218 0.05572776 -0.036987327
0.044624865 0.03286737 -0.0421466 -0.025724309 0.019075595 -0.00014962979 0.032770902 0.045501325
0.035943124 0.06724164 -0.014636865 -0.02057482 -0.010992155 0.01337163 -0.06130557 0.010631761
00000000: e608 40bd fa17 8dbc b78f d83c 9688 f7bc
00000010: 8bb2 d1bc 2bba ffba 63e6 6dbd 40f0 f03c
00000020: 804f a83c 1357 49bd 6aa8 273d d6d5 2e3d
00000030: 0f53 5a3c f1fe d7bb ef77 063d 44f2 093d
00000040: 9c7a fb3c cc31 e73b 6391 86bd 9d84 103c
00000050: 4538 633d e9a5 463d 9d95 c6bc 0ad9 733a
00000060: 6e3b 453d fa01 96bb 8f76 a2b9 c6ef 80bd
00000070: a049 d5bb 400a 7ebd 1537 833d 7b80 963a
00000080: 4fd7 8d3d 7968 7b3c 679f 643d 289e 463d
00000090: dc70 a53d 1694 1cbd c9b8 cd3c 3109 713d
000000a0: 3ca1 b73c 32bc 363c 3012 0abd f02e a03c
000000b0: 4944 d83c e51e 563d e9b0 dfbc fff0 7d3d
000000c0: dfc1 913c 35d0 283c 91df d8bc 90d8 4e3d
000000d0: e051 043b 74b5 df3c 981f 74bc 1d70 923d
000000e0: 275c a23d 1d3e 573d 58dd 673c aca9 553d
000000f0: 2179 c1bc 5e96 07bd 6aa4 3d3d ab06 8cbc
00000100: cabc 30bd ef16 273d d96b 15bd 095e 66bd
00000110: ba38 1abb e8b8 c13c d4ba 953c 1d36 0e3d
00000120: 450a 273d 61d9 9cbc 0ee4 43bc d247 b6bc
00000130: 7091 97bc ccea 81bc 83f4 913d aeea 2f3d
00000140: 20ca a6bb 309e 383d 02cb 32bd d933 d3bc
00000150: b70a d2bb e7b4 253c 60df 53bb 31c9 e9bc
00000160: 1dce dfbc e528 333b a524 f1bb f051 ca3a
00000170: 7824 df3c 6abd 583d d006 dd3c ac71 7a3c
00000180: b262 ac3c 1e84 51bc 7b8d 5b3d 592b d73b
00000190: fcc3 d8bc 0b71 fcbc fb06 cc3c 57df 39bc
000001a0: 7332 583d c820 03bd 1324 163d 8a66 e2bc
000001b0: dede 01bc 301b 50bb 0b0e bebc e450 8839
000001c0: 0bfe 05bd fbe5 5fbc 92dd 333d bb8c 24bc
000001d0: 3b75 bf3b c285 cdbc fe72 33bd d972 04bd
000001e0: 0268 d2bc 3e01 69bd 3920 e4bb 0417 9c3d
000001f0: 1ef5 f6bc 69bd 2d3d 3713 0cbd 1ec6 43bc
00000200: 86a4 50bc fe99 b7bc 7cf8 843d 393d efbb
00000210: 50e2 233d 0506 bcbc 9007 233d 91b6 ac3c
00000220: 8b99 30bd 0d3a 20bd 5883 a23b 75d6 9d3c
00000230: 8699 08bd 1572 1a3d 4626 8b3d 49e1 06bd
00000240: 4118 56bb 6c45 243d 90af f1bc 2f56 953c
00000250: aaf7 5b3d f0fd f6bc bbff ea3c 854b 8ebb
00000260: f992 033d bb75 063c ad33 813d 34c8 2a3d
00000270: 40f3 893d 0e33 a43d 73ad e93c 307e a2bb
00000280: 6d36 583d 12c5 53bd 7429 b53c 4336 543d
00000290: 453d a33c 3b81 233d 27ea e13c 07ea 7cbc
000002a0: 0b9b 0abd 0404 823c 3432 2dbc d43c 383d
000002b0: 29ba a8bc 9ef5 e63c 1fbd 133d 56bf bfbc
000002c0: 8616 563d 3f41 38bc e1de 3fbd a860 34bd
000002d0: 8052 553c f239 6dbc d1da edbc cbf2 02bd
000002e0: 1139 933b e535 58bd b4cf 13bd cd4c 5abd
000002f0: 686f 3d3c 3ab1 513d 1b3a 0b3d f197 483d
00000300: b165 a93b 9e6c 613c a074 9abd 626a 823d
00000310: 1a28 843c f5c3 9dbc d016 6a3d 5b7c 303d
00000320: 2340 873c 01f5 53bd e89e 0bbd 36a9 243d
00000330: 2e17 53bd b58d aabc 62aa 6a3d 6053 8a3d
00000340: 8aa2 a33d b610 e6bc 2ef2 6d3d 0fa3 14bd
00000350: 680b 9dbb 804b 253d c5a4 b8bc ee6a eabc
00000360: 0ef6 053c 6b84 c83c cda3 313c 6da0 073d
00000370: a2b7 9d3b 805f 14bd edca e13c 3116 363d
00000380: 4cd7 59bc 7e70 f53c 9f80 893c 5229 1a3d
00000390: 204d 983d 99a4 3a3d 2590 4cbd 1f9b 35bd
000003a0: e264 49bd f305 13bd 08d6 a73c 8670 693c
000003b0: fb45 dcbb 5e29 a13d cb42 643d 0680 17bd
000003c0: 90c8 363d ef9f 063d eaa1 2cbd c9bb d2bc
000003d0: 6c44 9c3c f1e5 1cb9 c83a 063d 995f 3a3d
000003e0: 1939 133d fcb5 893d 76cf 6fbc 868c a8bc
000003f0: 7118 34bc ae14 5b3c 8d1b 7bbd d630 2e3c

classifier.1.bias f4 [32]
-0.0028110365 -0.0031993634 0.04256726 -0.035532683 0.007512152 0.05872492 -0.0103794625 -0.040179346
-0.013156492 -0.015845839 0.051643606 0.038352303 -0.006175416 -0.005473923 0.029062964 -0.019610856
-0.025473908 0.01018472 -0.04261721 -0.020959714 -0.041089028 0.030083165 -0.013533796 -0.0165037
-0.008167991 -0.03865405 0.034636054 -0.0073446054 0.0036217242 -0.019589758 -0.03986661 0.042061154
00000000: 5e39 38bb 69ac 51bb 025b 2e3d b88a 11bd
00000010: 8028 f63b 8b89 703d 9f0e 2abc 1993 24bd
00000020: 548e 57bc 22cf 81bc 3f88 533d 4e17 1d3d
00000030: 255b cabb 985e b3bb 7415 ee3c f2a6 a0bc
00000040: a8ae d0bc d0dd 263c 628f 2ebd b5b3 abbc
00000050: f84c 28bd f870 f63c dbbc 5dbc c432 87bc
00000060: 0ad3 05bc b653 1ebd 89de 0d3d 04ab f0bb
00000070: 735a 6d3b b37a a0bc 2c4b 23bd 5148 2c3d

classifier.3.weight f4 [1, 32]
0.32796523 0.18194897 -0.19978204 -0.0052434425 -0.23361668 -0.12152119 -0.056183357 -0.07068596
0.06190155 -0.1016499 -0.10457777 0.11293578 0.107203305 0.34746495 -0.10167776 -0.102746725
-0.07542707 0.35685557 0.21583308 0.0882164 -0.398225 -0.29301518 -0.033104394 0.02226088
0.036597013 0.0152216675 0.20733735 0.028935341 -0.17668474 -0.04069556 0.24091896 -0.119128466
00000000: 0feb a73e d550 3a3e aa93 4cbe 2fd1 abbb
00000010: 3639 6fbe 1ae0 f8bd 8520 66bd cdc3 90bd
00000020: 7b8c 7d3d d32d d0bd df2c d6bd e04a e73d
00000030: 688d db3d ede6 b13e 6e3c d0bd e06c d2bd
00000040: 8279 9abd c6b5 b63e 5903 5d3e cdaa b43d
00000050: 26e4 cbbe 1606 96be 7998 07bd 735c b63c
00000060: c0e6 153d 4d64 793c 3e50 543e cf09 ed3c
00000070: d8ec 34be 63b0 26bd 76b3 763e a0f9 f3bd
