checkpoints/cnn_model/fold_1.pth (torch, 56010 bytes, 15 tensors)

encoder.0.weight f4 [16, 1, 3]
00000000: 94c9 76be e6fc a2be 70a2 abbc 9aa8 e1be
00000010: 8cfa 99bd 9c69 0bbf 072b 0b3d b6b2 7cbe
00000020: 5c72 2bbd d74b e23d 6c8e 163e 68db 9c3e
00000030: a009 a83d 16bb 193d 7f1e 85bd ccd0 8c3e
00000040: c8ee dd3e 1c1a 0f3f 287e debe 4ec8 023f
00000050: 6868 a33e 8e3d a63c 7373 843e 18af babe
00000060: c317 04bf e2c5 033f 30cc fcbc 79a5 d93e
00000070: 2046 bd3c 3290 8cbe 9190 643e d235 fe3c
00000080: f82f 253e b38d 5bbe b098 473e 0e31 e4be
00000090: ca9f 053f e065 87be 8a4f ebbe 41a1 f73e
000000a0: d59a 46bd 5d17 0d3f 3621 263e 3fab 0d3f
000000b0: a0f7 ff3c be10 63be da7d 3ebe 59e2 063f
-0.24100333 -0.3183357 -0.02095148 -0.44073945 -0.07518491 -0.5445802 0.03397658 -0.24677548
-0.04185711 0.110496216 0.14702767 0.30636144 0.08204961 0.037531935 -0.06499957 0.2750305
0.43346238 0.55899215 -0.43455625 0.5108689 0.31915593 0.020293023 0.2586933 -0.3646171
-0.5159876 0.5147382 -0.030859083 0.42509058 0.023104727 -0.27453762 0.22320773 0.031031523
0.1613158 -0.21440773 0.1949184 -0.44568676 0.52196944 -0.26444912 -0.4595912 0.48365214
-0.048487503 0.55113775 0.16223606 0.55339426 0.031246006 -0.22174355 -0.18602696 0.5268913

encoder.0.bias f4 [16]
00000000: b153 acbe 9055 bbbe e059 a5be 50ff 97be
00000010: 1f55 86bc 3b44 e6be 59d3 0ebf 3aae bdbe
00000020: cac7 3bbd c45d 0ebf 29f1 803e 8dd5 9cbe
00000030: 6922 4e3e 5171 e4bd 387e ebbe 37d5 8d3e
-0.336576 -0.36588717 -0.32295132 -0.29686975 -0.01639801 -0.4497393 -0.5579124 -0.37046987
-0.04584483 -0.55611825 0.2518399 -0.30631676 0.20130314 -0.11154426 -0.45994735 0.27701733

encoder.1.weight f4 [16]
00000000: ce78 7e3f f714 803f f40f 803f 0d4c 803f
00000010: 7756 813f eaf2 7d3f 2dc8 7e3f 4efa 7e3f
00000020: 3258 7b3f f809 7e3f 2845 803f 60de 7e3f
00000030: 41dc 7c3f 2bb7 803f 4656 803f 88a6 7d3f
0.99403083 1.0006398 1.0004869 1.0023209 1.0104512 0.9919878 0.99524194 0.99600685
0.9818145 0.9923396 1.0021105 0.9955807 0.9877358 1.0055898 1.0026329 0.9908223

encoder.1.bias f4 [16]
00000000: b8f0 b13b 9957 0a3b b3ef 7c3c 5600 6b3a
00000010: 5787 6a3b 939d a6bb 8259 7e3a 3308 a53b
00000020: 5723 f9ba 3256 efba 0693 5f3a 96b8 cf3b
00000030: e56f 56bb 76e0 de3b 6cc7 8b3a fa60 5239
0.0054303072 0.0021109341 0.015438008 0.00089645886 0.0035786235 -0.0050847023 0.0009702669 0.005036378
-0.0019007724 -0.0018259941 0.0008528683 0.006339143 -0.0032720503 0.00680166 0.0010664291 0.00020063287

encoder.1.running_mean f4 [16]
00000000: 5e8b aabe 98df b7be c781 a4be 17eb 99be
00000010: 01e0 87bc e582 eabe 6ea0 0fbf 9d45 bdbe
00000020: 8f7a 3cbd ed86 0ebf 3443 7f3e 7e40 9bbe
00000030: 4237 503e 8d5c f1bd 7be4 edbe c12d 8d3e
-0.33309454 -0.35912776 -0.32130262 -0.30062172 -0.016586306 -0.4580299 -0.5610417 -0.36967173
-0.04601532 -0.5567463 0.2492798 -0.3032264 0.20333579 -0.11785231 -0.4646338 0.2757397

encoder.1.running_var f4 [16]
00000000: 7058 633e 83b3 413f 7d95 823d 79a3 4c3e
00000010: 5986 f03b ddf5 763f 85b5 be3e d4f3 003e
00000020: ef56 ac3e 97a4 133e 042f ee3d 6e19 8b3e
00000030: 0806 9d3e 5dfc 3b3f 686f d33e 2ad5 503e
0.22201705 0.7566454 0.06376169 0.19984235 0.0073402342 0.9646891 0.37247863 0.12593013
0.33660075 0.14418255 0.11630061 0.2716784 0.30668664 0.7343195 0.41295934 0.20393816

encoder.4.weight f4 [32, 16, 3]
00000000: 347d 0a3d d74d 32bd 071f c03d 28b9 28bd
00000010: 9f06 963d 9234 da3d 5fbd c8bc bec9 14be
00000020: 8964 0abe 701e 2d3c bf5c 023e 19cf 60bd
00000030: 2e80 1ebe 8265 eb3b f294 383d e2a4 a8bd
00000040: d9a5 8bbd 6efe 223e a59c f33d 57e1 91bd
00000050: ca5d 743b 239d 66bd e18f 84bd 2d7a d23b
00000060: fc92 803d 5e56 a23d 8fe2 9fbd 3f89 8b3d
00000070: 34bf dabd 8014 5fbd d323 913d 36a7 01be
00000080: 725f 53bd 6c2d 693d 790b a33d 0387 debd
00000090: b6ef 763d 4a90 91bd 3a5d 633c e03f 0c3e
000000a0: 512f 103e 1433 c23d 91a8 903d e166 ec3d
000000b0: c3e6 eebd deb7 ad3d 2f4d 29bd a839 e8bd
000000c0: c384 00be 8ad9 ddbd 6179 8b3c b304 7abd
000000d0: c549 95bd 9646 efbc 6513 05be 78a0 09bd
000000e0: 78f3 bb3c 2783 563d 5281 04bd d109 043e
000000f0: 251b 8f3d dae8 fabd 5f36 f93d dfad 9d3d
00000100: c3f3 f3bd a3bd d0bd ae38 ba3d 0ba3 85bc
00000110: 0516 48bd 126f a3bd e45a 4abd de70 cabd
00000120: bd75 f43d b649 573d 31a2 07bd 34bb 78bd
00000130: b1c6 d53d 5b56 013e bf76 e3bd a29c 833d
00000140: 4ddb 543c 254a a83d 1adf 9a3d c64d f73d
00000150: 4f8d c3bb b4a3 ba3d 0636 4bbd b0d5 83bc
00000160: 72f4 a3bd 0c4f 033e c277 703d d587 b73c
00000170: ea99 acbd 9877 abbd 5846 adbb 6925 ef3d
00000180: ec3e b4bd 8e92 37bd d297 023e beec 843d
00000190: 10c5 a4bd 55c3 b03d 350c 933d 4422 f43d
000001a0: 80b2 9abc 0d53 f13c 827f babd 0988 e3bd
000001b0: 3a88 71bd 4e1e e0bd c801 e1bd 9a3a fabd
000001c0: 430c f43d a28e d6bc 2218 083e a409 2f3b
000001d0: 7164 61bd 45e0 edbd 0a31 c33d b9bc bbbd
000001e0: 67de a73d afa1 e2bb e4fe 703d 8b3d 9a3d
000001f0: d6fa bfbd 3d63 d33d 13c2 6a3d 4cca 093b
00000200: 3854 bbbd 3e51 a13d 4adb 30bd 4467 cb3d
00000210: 8066 8d3c 3e34 afbd ba61 babc 38b5 48bd
00000220: bc5b b9bd 3aae 253d 96f6 febc 14ca 023e
00000230: 16da c33d 628e 11be 5758 9cbd 4ff9 c7bd
00000240: 3127 693c c793 dbbd 18b4 0d3e 4a9f eabd
00000250: 04fb 913d efdc 093e 20e8 82bd 6e12 153a
00000260: 21ce 10bd 0ea9 16bd 3ac0 b53d 6215 593d
00000270: b369 843d 0227 ce3d ae19 b4bc 0180 993d
00000280: 85a7 33bd 7169 11be 133a a93d 35d2 74bd
00000290: c40f 3b3c 682f 00be 2155 30bd 8985 453d
000002a0: 13a4 9abd 1397 dcbc 61c4 7d3d d342 17be
000002b0: dd12 043e 5875 003e 95f8 7a3c 8d2a f83d
000002c0: 903f 083e 07ce d03d c583 14be a364 f3bd
000002d0: 778a a2bd 53ea a43d 9786 a9bc 99e8 1cbe
000002e0: f118 643d 0277 c73d 66e6 cabd 7033 ef3d
000002f0: e421 f23d f09c fa3d 5d75 aebc 6f39 7b3d
00000300: e409 babc 0045 973d b7d8 093e 0001 6fbc
00000310: 2ff4 ccbd 8641 3b3d f569 cd3d 57ab a83d
00000320: bfa9 3ebd 4a0a b9bd fac5 503d 8234 d3bd
00000330: a5f8 14be 9f35 6e3d b324 05be 0ab1 ed3d
00000340: fad0 1ebe 26c6 d33d 5685 093e 40cb 083e
00000350: 0b50 77bd 89c0 ef3d 53d8 683d 641b 893d
00000360: f299 dfbd 0e7e 0bbe aa91 aa3d 5219 d23d
00000370: a92e 94bd 0ece b5bc 3d96 ce3d 450d 1dbe
00000380: 4c43 9fbc 7759 b6bd c59d 84bd 83d2 e13d
00000390: a7ea f9bd ad91 933d 9741 d1bd 22e0 aa3d
000003a0: 63a0 2a3b 5d8a f8bc 4185 813b 4c48 6c3d
000003b0: bcee 4b3d 7cfd b83d 88c7 9cbd 545e ffbc
000003c0: d733 11be d0c8 e93d 1aff 053e 6eb2 683c
000003d0: c58b 88bd 3db7 9fbd ea30 1abe 2f4f ecbd
000003e0: 8be8 523d 152b 563d 7448 b5bd 0df0 853d
000003f0: 556b 703c 9301 c4bc a588 453c 2069 e3bd
0.03381081 -0.043531265 0.09380918 -0.041192204 0.073254816 0.10654558 -0.024504362 -0.14530084
-0.13514914 0.010566339 0.12730692 -0.054885004 -0.15478584 0.0071837315 0.04506392 -0.08234574
-0.06818742 0.1591737 0.11895112 -0.07123058 0.0037287348 -0.0563022 -0.06472755 0.006423256
0.06278035 0.079266295 -0.078068845 0.06813287 -0.10681 -0.05446291 0.07086911 -0.12661442
-0.051604696 0.056928083 0.079611726 -0.10865595 0.0602872 -0.07107599 0.013877207 0.13696241
0.1408055 0.09482399 0.070634015 0.1154306 -0.11665108 0.084823355 -0.041333374 -0.11339122
-0.12550645 -0.10832508 0.017025651 -0.061039638 -0.07289461 -0.029208463 -0.1299568 -0.0336003
0.022943243 0.05237117 -0.032349892 0.1289437 0.06987599 -0.12251444 0.121685736 0.07699179
-0.11911728 -0.1019242 0.09092842 -0.016313097 -0.048849124 -0.07980169 -0.049403086 -0.09884809
0.11936519 0.05256053 -0.033113662 -0.060725406 0.10438288 0.12630598 -0.111066334 0.0642636
0.0129917385 0.08217267 0.075620845 0.12075381 -0.005967773 0.09113255 -0.049612068 -0.016093105
-0.080056086 0.12823123 0.05870796 0.022403637 -0.08427794 -0.0837242 -0.0052879266 0.11677057
-0.08801064 -0.0448175 0.12753227 0.064904675 -0.08045399 0.08631007 0.07180063 0.11920598
-0.018883944 0.029458547 -0.091063514 -0.11109931 -0.058967806 -0.1094328 -0.10986668 -0.122182086
0.11916401 -0.02619106 0.13290456 0.0026708627 -0.05502743 -0.11615042 0.09530838 -0.09166855
0.08196717 -0.006916247 0.058836833 0.0753127 -0.09374015 0.103216626 0.05731399 0.002102512
-0.09146923 0.07876824 -0.04317788 0.09931806 0.01726079 -0.08554886 -0.022751678 -0.04900095
-0.090507 0.04044936 -0.03112344 0.12772399 0.09563081 -0.14214471 -0.07634037 -0.09764349
0.014230535 -0.10721546 0.13838232 -0.11456163 0.071279556 0.13463186 -0.063919306 0.0005686645
-0.03535283 -0.036782317 0.08874555 0.052998908 0.06465473 0.10066034 -0.021984901 0.07495118
-0.04386093 -0.14200379 0.0826303 -0.05977078 0.011417333 -0.12518084 -0.043049935 0.048223052
-0.07550826 -0.026927507 0.06195486 -0.14771585 0.12897821 0.12544763 0.015318056 0.12117491
0.13305497 0.101955466 -0.14503391 -0.11884429 -0.07936566 0.08052506 -0.02069406 -0.15323104
0.05568785 0.09739496 -0.09907226 0.11679733 0.118228704 0.12236965 -0.021296198 0.06133407
-0.022709794 0.073862076 0.13461576 -0.014587641 -0.10007512 0.045716785 0.10029975 0.082358055
-0.0465486 -0.090351656 0.050970055 -0.103127494 -0.14547975 0.058156606 -0.13002281 0.11606033
-0.15509406 0.10340528 0.1342977 0.13358784 -0.06037907 0.11706645 0.056846928 0.066946775
-0.109180346 -0.13622305 0.083285645 0.10258736 -0.07235462 -0.022192981 0.100872494 -0.15337093
-0.01944127 -0.08903783 -0.06475405 0.1102648 -0.122029595 0.0720552 -0.102175884 0.08343531
0.002603554 -0.030339414 0.0039526527 0.057686135 0.04978822 0.09032723 -0.07655245 -0.031172909
-0.14179932 0.11415255 0.13085595 0.014202697 -0.06667284 -0.07798622 -0.15057722 -0.115385406
0.0514913 0.05228718 -0.0885171 0.06539927 0.014674027 -0.023926532 0.012056504 -0.111040354

encoder.4.bias f4 [32]
00000000: 5b9f 873d 3df1 b53d 0069 8fbd 4450 043e
00000010: 39d2 a33d a89a 013e 8088 283d 3932 323d
00000020: 2337 77bd 5e90 ae3d cca0 3fbb 01c7 0abe
00000030: ec28 81bc 46eb b3bd 8f04 02be 90e7 9cbd
00000040: a700 06be 8fda 87bd 2d50 9ebd aa30 dc3d
00000050: f8dd 5a3d 41a6 023e ba33 f1bd 7f62 fb3c
00000060: b890 8c3d aab5 103e d0c5 103d 37d2 9dba
00000070: fa88 1fbd 1c38 4fbd 95b3 84bd d5a0 e23d
0.066221915 0.08883903 -0.07002449 0.12921244 0.07999081 0.12656653 0.0411458 0.043504927
-0.060355317 0.085236296 -0.002924013 -0.13552476 -0.015766583 -0.08785109 -0.12697051 -0.076613545
-0.13086186 -0.066334836 -0.07730136 0.107514694 0.053434342 0.12758733 -0.11777444 0.030686615
0.068635404 0.141318 0.0353449 -0.0012040798 -0.03894899 -0.05059062 -0.06479565 0.110658325

encoder.5.weight f4 [32]
00000000: d1d3 803f ad8b 7f3f 5f73 813f 73ab 823f
00000010: f86a 813f 7dc5 803f 9b25 813f ceac 803f
00000020: 2e17 813f cee7 803f fe37 823f 524b 823f
00000030: 205b 823f a5ca 803f 7e48 803f 32a8 803f
00000040: 9076 803f 099f 803f efe2 803f d988 803f
00000050: 8881 823f 54dd 803f a469 803f 3504 803f
00000060: 2ead 803f fd48 813f 5824 813f f6ac 813f
00000070: 7d33 823f c792 813f 3ef2 813f 2a4e 813f
1.0064641 0.99822503 1.0113333 1.0208572 1.0110769 1.0060269 1.0089601 1.0052736
1.0085199 1.0070741 1.0173337 1.0179236 1.0184059 1.0061842 1.0022123 1.0051329
1.0036182 1.0048534 1.0069255 1.0041763 1.019578 1.0067544 1.0032239 1.0001284
1.005285 1.0100399 1.0089216 1.0130908 1.0171963 1.0122918 1.0152051 1.0101979

encoder.5.bias f4 [32]
00000000: 16f5 d43b c580 59b9 7b7a 2b3c f145 933c
00000010: 19df 553c 3991 1b3c 5618 043c 462c 703b
00000020: f3fd 2a3c 6dc2 d53b 9a31 aa3c ef26 7a3c
00000030: 024d 753c cada 1c3b e586 413b 2a34 d63b
00000040: 85fe a83b 8413 c13b 64cc b53b 5143 683b
00000050: 3310 703c e2cd d83b 9f6e 473b 70b8 5a3a
00000060: 1a2d 1a3c 48a4 243c ff82 d03b 3e1c 343c
00000070: 9e85 5e3c f276 023c 1c22 3b3c 2930 243c
0.006498943 -0.00020742703 0.010466213 0.017977687 0.013053679 0.009495073 0.008062443 0.0036647483
0.010436523 0.0065234215 0.020775605 0.015268072 0.014971973 0.002393412 0.0029529866 0.00653698
0.005157294 0.005892219 0.005548047 0.0035440514 0.0146523 0.00661634 0.0030430926 0.00083435234
0.009410167 0.010048933 0.006363272 0.010993062 0.0135816615 0.007962929 0.0114217065 0.010021248

encoder.5.running_mean f4 [32]
00000000: 9f00 cc3d 7a12 073e 01c5 71be 6985 d83e
00000010: eeaa 103e 044c 5a3e 0662 153e 86ee 823e
00000020: 045e 993d c76b 143d 0fba fbbe f229 56bc
00000030: e0f7 8cbe 6e2e a33e aba9 ccbe ba42 303f
00000040: 0466 b8be 781b 01bf c1b3 3dbe c978 f2be
00000050: c137 f03b 122b 7abc b327 8d3d e125 743e
00000060: b1fd 073f b73d 853e ce55 6e3e 94e6 473e
00000070: 77f2 813e 00cc d53d f8f6 08be 64b5 413e
0.09961056 0.13190642 -0.23610307 0.42289284 0.14127705 0.2131806 0.14588174 0.25572604
0.07488635 0.036235597 -0.4916539 -0.013071524 -0.27532864 0.3187136 -0.39973196 0.68851817
-0.36015332 -0.5043254 -0.18525602 -0.47357777 0.007330865 -0.015269058 0.06892338 0.23842575
0.5312148 0.26023647 0.2327492 0.19521552 0.25380298 0.104393005 -0.13375461 0.18916851

encoder.5.running_var f4 [32]
00000000: 54b6 f03d 6d0f cf3d 3b9a 013e 16ba a63e
00000010: 69f0 b93d fefc a33d 0650 063e 56d7 0c3e
00000020: 60cb 013e ecde 513e 0f78 313e 1f81 783d
00000030: 68f6 8a3e 521f a03d 5954 e13d b56e bb3e
00000040: 5124 433e 844e d13d 346f 693e 2376 d53d
00000050: 47e3 ba3d d1a7 d13e f8c1 003e 4a48 b03d
00000060: 7471 603e 909c d53d 65f8 f03d 35e0 1a3e
00000070: 2b76 b63d 8905 393e 86c3 873e 223c 223e
0.11753526 0.10110364 0.1265649 0.32563847 0.09079058 0.08007239 0.13116464 0.13754019
0.12675238 0.20495194 0.17330955 0.060670014 0.27141118 0.07818474 0.11002416 0.366079
0.19056822 0.10220054 0.22796327 0.104229234 0.09125381 0.40948346 0.12573993 0.08607538
0.21918279 0.104302526 0.117661275 0.1512459 0.089092575 0.18068518 0.2651636 0.15843251

classifier.1.weight f4 [32, 320]
00000000: 6818 243b 22ba 3bbc 3e18 e3bc e8a6 54bc
00000010: 2eda f7bc 589d 173d 0a35 403d edab 63bc
00000020: 23d1 cd3a aa19 17bd fa66 86bc bf27 5d3c
00000030: e0da 203d 0026 14bd b76e aebc 8bcc f53c
00000040: 4504 2abc e046 01bd fe58 6d3c ba36 143d
00000050: eadc 7fbc f539 43bc 4cc3 b03b 025d a63c
00000060: 9bde d5bc 1179 abbc b5d0 02bd f862 11bd
00000070: eaf8 fdbc 505c 1c3d 9421 da3c 68d9 adbc
00000080: 2cf0 883c ad8a b8bc 9894 613d cf58 6fbc
00000090: 73bc 853d c403 cebb 94c6 923d 960c c93c
000000a0: 642d 22bc 99c4 293d 38e3 413d a6ee 293c
000000b0: a7a0 8539 afba 3b3d 58f0 e3bb 3a6b 06bb
000000c0: 47a7 c33c c0ca f4bc 637f 16bd 735e 0bbd
000000d0: 26ea 033d c40a 143d a08d 103d 9dd0 4d3d
000000e0: 8552 0b3d 0688 2cbd cbe6 b6bb ca1c d23c
000000f0: ed50 c83b a632 013d 030a d43b 1d92 ed3c
00000100: 7565 29bc c873 0bbc 5666 0ebc 6e68 0c3d
00000110: f504 b53c 83e1 563d b1e8 073d 2203 e23c
00000120: 8dc0 dfbc 2725 9cbc dfbc 47bd 7eb8 123c
00000130: a38c 343c 0bc1 32bd d6e0 013d 316c b0bc
00000140: adf1 90bb 7a07 3f3d 987e 83bc cf88 ea3c
00000150: 05aa b03c aef2 f43a b5bd 173d fb2c 4ebc
00000160: 4602 ae3c bb75 23bb a642 983c 43f1 0fbc
00000170: dce9 cbbc 9bfc 1bbc ccf3 45bd 4edc 0f3d
00000180: f387 ea3c 173d 253d 7ae1 e83c 3051 9f3c
00000190: 557a 7e3a 7233 41bd 9364 55bd 5e4e 61bd
000001a0: 1649 0fbd 186b eabc 9261 57bd 5cf8 673b
000001b0: ab66 3dbd 77fa e93b 55d4 473d fad3 493d
000001c0: 0949 41bd 530d b33c 669a e7bc df83 033d
000001d0: a98c a73c bed9 2a3d 4f5d fc3c e5e1 953c
000001e0: abc4 7d3d cda2 cabc fee2 ea3c 4481 4abd
000001f0: 17cb 553d eeb6 053d dc7e 7fbd bb60 4d3c
00000200: e4b9 99bc 4b90 03bd 69f4 3a3d 9ef5 28bd
00000210: 07f6 473d 4db3 2fbd 6be2 42bd 737a b5bc
00000220: 2664 73bb 0973 593d f5cd febc cf91 d0bc
00000230: 049c 68bd eb1d fbbc 992b a73c ce4d 57bc
00000240: 7617 b93b 77e8 c43c cd36 a23c 2f6f 90bc
00000250: 932f 633c b73e 3e3d d83a 2d3d d12e f03b
00000260: 2bdc 1dbd 4e37 edbc 3355 f2bb 645f 113d
00000270: 0b49 43bd 09a4 a63b 13fc 0abd ba52 e1bc
00000280: 2f6f 12bd 5870 233d c8ac 12bd 4cb2 d6bc
00000290: 60ac b1bc 262c 11bb 32f0 d43c 425c 26bd
000002a0: ee4d 863d 2d8f c93c 0679 e1bb 2ee4 383d
000002b0: 1ca5 6d3d b011 213d 57cc f6bc 7200 c93c
000002c0: ae68 433d 535d 333d 3ceb 49bc 1624 0cbd
000002d0: a597 f7bc b3d7 273d 1506 b63c bab0 0fbc
000002e0: 5d82 133c c02b 253d c3bb 14bd f5d1 9239
000002f0: 1cb8 583d 239a 73ba 0097 c83c 9c5b 4abd
00000300: cdd7 15bd 5c2a 5f3d 0df1 2fbd 799b a839
00000310: 6d32 193d f8a1 ae3c 7b91 403d ac35 37bd
00000320: 9596 af3c 321c 8b3c f05c 043d 539a ea3c
00000330: b3bf 27bd cc83 ef3c 6573 6cbd 24e3 2f3b
00000340: 55fe bdbc 3890 623d 4fdd 7abc 6f9b 903c
00000350: 7573 2abd 4d2c 70bd 5bb2 0b3d 4f4b 243d
00000360: c22f 843d 993a 7ebc 1f7d 0fbd b497 35bd
00000370: 6be0 d63c 3c94 f03b d2b6 0bbd 7f9c 04bb
00000380: 91db d33b 4dc6 fd3c 6034 1b3d 75a8 383c
00000390: ded7 f13b d324 ea3c faef a3bc 927f 48bd
000003a0: 5ae3 2bbd 20de 093c 64e3 ebbb 5a91 ccba
000003b0: dba3 a33c 0d40 1fbd 3014 1b3d 4be7 20bd
000003c0: bb58 2e3d 522d 393c 2bc1 1b3d f226 beba
000003d0: 5e45 a53c a81c 073d acfe 7c3d 71b8 443d
000003e0: 3b8d 6f3c eb5f 453a e33b 513b ce46 6abd
000003f0: 2065 3c3d 5263 17bd 5c6c f1bc 3e35 103d
0.0025038961 -0.011457952 -0.02772152 -0.012979247 -0.030255403 0.03701529 0.046925582 -0.013895971
0.0015702586 -0.03688971 -0.016406525 0.013498246 0.039271235 -0.036169052 -0.021293027 0.03000476
-0.0103769945 -0.031561732 0.014486549 0.036185004 -0.015616635 -0.0119156735 0.005394375 0.020308021
-0.026107123 -0.020931752 -0.03193732 -0.035494775 -0.03100248 0.038173974 0.02662734 -0.021221831
0.016716085 -0.022527063 0.05507335 -0.014608576 0.065300845 -0.00628707 0.07166782 0.024542134
-0.009898517 0.041447256 0.047335833 0.01037184 0.00025487432 0.045832332 -0.0069561414 -0.002051069
0.023883475 -0.029881835 -0.03674258 -0.03402562 0.032205723 0.03614308 0.035291314 0.050247777
0.034014244 -0.04212191 -0.005581712 0.025648493 0.0061131627 0.031542443 0.00647092 0.029000336
-0.010339131 -0.008511491 -0.008691391 0.03427928 0.02209709 0.05246116 0.033180896 0.027589384
-0.027313495 -0.019060684 -0.048764106 0.008955119 0.0110198585 -0.04364113 0.03170856 -0.021535965
-0.0044233412 0.04663799 -0.016051576 0.028629689 0.021565447 0.0018688047 0.037046153 -0.012583966
0.021241318 -0.0024942 0.018586468 -0.008785549 -0.024891786 -0.009520675 -0.048328206 0.03512221
0.028629279 0.040341463 0.028427828 0.019447893 0.000970756 -0.047168203 -0.05209787 -0.055006377
-0.03498181 -0.02861552 -0.052583285 0.0035395836 -0.04624049 0.0071404534 0.04878648 0.049274422
-0.047188792 0.02185694 -0.028271865 0.032108184 0.020452814 0.04171156 0.030806212 0.018296191
0.061955135 -0.024735833 0.028672691 -0.049439684 0.052195635 0.03264516 -0.062376842 0.012535269
-0.018765397 -0.03212003 0.045643244 -0.041249864 0.048818614 -0.042895604 -0.04757921 -0.022153115
-0.003713855 0.05308822 -0.031104067 -0.025460152 -0.056789413 -0.030653914 0.020406531 -0.013141109
0.0056485487 0.02403663 0.019801522 -0.017631141 0.013866323 0.04644653 0.042292446 0.0073297997
-0.038540047 -0.028957035 -0.0073954104 0.035491362 -0.04767708 0.0050854725 -0.033931803 -0.027505267
-0.035750564 0.03990206 -0.03580931 -0.026208065 -0.02168864 -0.0022151559 0.02599344 -0.040615328
0.06557833 0.024604404 -0.006880882 0.045139484 0.05801879 0.03932351 -0.030126734 0.024536345
0.047707252 0.043790173 -0.012324151 -0.0342141 -0.030223677 0.04097719 0.022219697 -0.008770162
0.009003249 0.040324926 -0.036311876 0.0002800372 0.052909955 -0.00092926825 0.024486065 -0.04940377
-0.036582757 0.054483756 -0.042954493 0.00032159293 0.037401605 0.021317467 0.04701374 -0.04472892
0.021434108 0.016981218 0.032315195 0.02863804 -0.040954303 0.02923765 -0.057727236 0.0026838267
-0.023192564 0.05531332 -0.015311553 0.017652242 -0.041614015 -0.058636 0.03410564 0.040110882
0.064544216 -0.0155169 -0.035031434 -0.04433413 0.026230058 0.0073418897 -0.034109898 -0.002023488
0.0064653833 0.030978346 0.037891746 0.011270632 0.0073804697 0.028582012 -0.02001189 -0.048949786
-0.041964866 0.008414775 -0.007198738 -0.0015607283 0.019975593 -0.038879443 0.03786105 -0.03928308
0.04256509 0.011302309 0.038026016 -0.0014507456 0.020174678 0.032986313 0.06176631 0.04802746
0.014621074 0.00075292465 0.0031926564 -0.05719643 0.045994878 -0.036959954 -0.029470615 0.035207026

classifier.1.bias f4 [32]
00000000: 39a3 453d ed77 a1bc 0194 543d 9b51 8a3c
00000010: 74f4 12bc caab cb3b ae17 02bc eb86 40bd
00000020: 4f2c 9f3a 37b8 5abd 10c4 573b 7bad 363c
00000030: bb9b 58bd a12f 4c3d 3dd0 21bd a0b9 0dbd
00000040: c4b0 05bd 9231 38bd e049 c93b fe2d 3f3b
00000050: 90d3 013d e79e 4ebb 44d6 81bc 6407 373a
00000060: 12ef 413c a4be 16bd 8f88 1a3d 5a91 febc
00000070: 75fd 943c 8466 ce3a aa26 363d 0c3e 193d
0.048251364 -0.019710505 0.05189896 0.016884616 -0.008969415 0.006215547 -0.007940216 -0.047003668
0.0012143942 -0.053398337 0.003292326 0.011149759 -0.05288289 0.04985011 -0.039505232 -0.034600854
-0.03263928 -0.04496915 0.00614284 0.00291717 0.031695902 -0.0031527819 -0.01584924 0.0006981997
0.011836784 -0.036802903 0.03772789 -0.031075168 0.018187264 0.0015747105 0.044470467 0.037412688

classifier.3.weight f4 [1, 32]
00000000: ab0e 2f3e 99d3 193c 53a3 96be 047f afbe
00000010: 504d a0be 2cb5 e4bc 352d 003d 3d03 b53e
00000020: d2d6 23be 9757 60bc 53fe 41be de36 fd3d
00000030: 6a7a 81bc cfc6 cabd d836 23be 0452 1f3e
00000040: 833b c43d 03cb 7dbd 5992 86be 1baf f43e
00000050: 7bfa 973d acd6 2cbe 61be 443e b90c f73d
00000060: f8f9 a73d 8ad6 bfbb d215 023e 9fb1 49bd
00000070: 6ab9 233e 2ac9 0abe fdc1 563c 2ad0 1fbe
0.17095439 0.009388828 -0.29421481 -0.34276593 -0.31308985 -0.02791842 0.031293113 0.35354033
-0.15999916 -0.013692758 -0.18944673 0.12363981 -0.015805442 -0.09901201 -0.1593889 0.1555863
0.095816635 -0.061961185 -0.2628353 0.47789845 0.07420822 -0.16878766 0.19213249 0.120629735
0.08201975 -0.0058544325 0.12703636 -0.04924166 0.15988699 -0.135533 0.013107774 -0.15606752
