checkpoints/cnn_model/fold_0.pth (torch, 56010 bytes, 15 tensors)

encoder.0.weight f4 [16, 1, 3]
000000 12 86 80 3e d7 4d 01 3f 18 de 49 3e 59 4e a8 bd
       0.25102288 0.505094 0.19713628 -0.08218069
000010 22 f2 1d 3e 52 8f 12 3f 1a af f0 b9 58 a0 b9 bd
       0.15424398 0.5724994 -0.00045906828 -0.09063786
000020 3a 75 ec bd 6c 4c 37 3e 04 4e d1 be 9d ff 83 be
       -0.11545797 0.17900246 -0.40879834 -0.25780955
000030 4c 4e 32 be 76 cb 94 bd ba a4 53 3c 1d 4b 76 be
       -0.1741268 -0.072653696 0.012917692 -0.24052091
000040 2e 45 37 3e 44 fd 0d 3f 31 e2 ac be 65 7d 02 be
       0.17897484 0.5546458 -0.3376632 -0.12743147
000050 04 8f a0 3e 81 3a 59 be 80 07 af be 46 57 2e bc
       0.31359112 -0.21213724 -0.3418541 -0.010640925
000060 b2 ac 04 3f c4 33 e8 3e a6 1e a9 bd 08 00 49 3e
       0.5182601 0.45351994 -0.08257799 0.19628918
000070 68 89 06 bf 67 b8 3c bd c7 48 07 bf 6f 2c 21 3e
       -0.52553415 -0.046074297 -0.52845424 0.15739606
000080 63 a3 0f be 1f 57 67 3e 12 3e b4 bd f0 c3 e2 3e
       -0.14027171 0.22591828 -0.088009015 0.44290113
000090 b7 92 d6 3a 3e 44 ef bd 15 70 88 bd 28 f8 94 3d
       0.0016370629 -0.11682938 -0.06662003 0.072738945
0000a0 42 d9 c9 3e 71 db d1 be 31 0a 05 bf a0 1d cd be
       0.39423567 -0.40987733 -0.51968676 -0.40061665
0000b0 54 a3 0a bf 0a 3b 2a 3e f7 3f 75 3e 65 81 06 bf
       -0.5415547 0.16624084 0.23950182 -0.5254119

encoder.0.bias f4 [16]
000000 d6 88 f1 bd a3 59 e4 3e 49 bd 1d 3e bb 3b cb 3e
       -0.117936775 0.44599637 0.15404238 0.39694008
000010 d0 90 b7 3d a2 94 01 bf 6d 43 50 3e e2 63 91 bd
       0.08963168 -0.5061742 0.20338221 -0.07099129
000020 1c 46 31 3e d6 2d 83 bd 24 d1 0a bf 50 6b 16 3b
       0.17311901 -0.06405227 -0.54225373 0.0022952147
000030 f8 b5 9b bd 9a 31 d7 3e 27 f6 5b 3e 70 03 3b be
       -0.07603067 0.4203003 0.21480618 -0.1826303

encoder.1.weight f4 [16]
000000 bb 04 81 3f fa 3d 7f 3f 50 8e 80 3f 43 26 7d 3f
       1.0079569 0.99703944 1.004343 0.9888651
000010 0a 02 80 3f ed e5 80 3f 94 30 7c 3f 24 2c 80 3f
       1.0000622 1.0070168 0.98511624 1.0013471
000020 b5 2b 80 3f 1a 40 7c 3f 1f 12 7d 3f 77 18 81 3f
       1.0013338 0.9853531 0.98855776 1.0085591
000030 1a 7e 7e 3f 9a d0 7d 3f 53 ed 80 3f 0a d3 7d 3f
       0.99411166 0.99146426 1.0072426 0.99150145

encoder.1.bias f4 [16]
000000 fa 0f c1 3b a2 b2 9e 36 53 b2 df 39 a9 13 fe 3a
       0.005891797 4.7295625e-06 0.00042666736 0.0019384521
000010 e8 bd f2 3b b4 30 86 3b c8 c0 27 bb a8 b8 49 3b
       0.0074078925 0.0040951613 -0.0025597084 0.003078023
000020 27 e8 e1 38 42 fa d6 3b 3f 35 90 ba 0a 71 04 3c
       0.00010772078 0.006560595 -0.0011002197 0.008083591
000030 81 34 0b ba 35 48 70 bb 8c ac 89 3c 02 a2 69 ba
       -0.0005310253 -0.0036664132 0.01680591 -0.00089123857

encoder.1.running_mean f4 [16]
000000 7c 43 f6 bd 82 33 e3 3e 02 67 1e 3e 2c 1a cc 3e
       -0.120245904 0.44375235 0.15468982 0.39863718
000010 04 5d b8 3d fa 1e 02 bf 49 f6 4f 3e cc fc 8e bd
       0.09002116 -0.50828516 0.20308794 -0.06981811
000020 da b0 2f 3e 40 cc 80 bd 82 9b 0a bf 39 67 21 3a
       0.17157307 -0.062889576 -0.54143536 0.0006157044
000030 4f a9 9a bd 6f 69 d7 3e 37 b8 5f 3e 2a f9 39 be
       -0.07551824 0.42072627 0.21847616 -0.18161455

encoder.1.running_var f4 [16]
000000 b9 88 17 3f 47 41 bd 3e 9b f9 f7 3c 60 de 7b 3e
       0.59193 0.36963865 0.030270388 0.24596548
000010 74 9f 2e 3d 1b d2 9f 3e 91 f8 01 3e a1 68 68 3e
       0.042632535 0.31214985 0.12692477 0.22696163
000020 a3 d6 19 3f d9 b4 71 3e b3 b0 93 3e c0 7a 92 3e
       0.60093135 0.23604144 0.28845748 0.28609276
000030 79 59 c7 3c 18 7f 36 3e 29 f8 a9 3f 95 44 48 3e
       0.024334656 0.1782192 1.3278857 0.19557412

encoder.4.weight f4 [32, 16, 3]
000000 c0 e1 ed 3d 90 05 6e 3c 1d 90 d2 bd 34 16 0f 3e
       0.11615324 0.014527693 -0.10281394 0.13973314
000010 9b a3 03 3e 89 71 fe 3d 01 2d 5d bd 2d 28 fc 3d
       0.1285538 0.12423999 -0.053997997 0.123123504
000020 ec 86 7e 3d 92 9a c3 bc 85 f6 fe bd e7 51 d4 3c
       0.06214039 -0.023877416 -0.124493636 0.02591796
000030 a1 39 8d 3d f5 b8 82 3c 4d 2c d9 3d 9a 98 0d be
       0.068957575 0.015957335 0.10604153 -0.13827744
000040 6d fd ef bd 7d 43 12 3d f4 bc 1c bb 4d d1 6d 3d
       -0.11718259 0.035708893 -0.0023916336 0.058060933
000050 b8 57 74 3c 96 b8 10 be 49 a9 ff 3c 14 4b b2 3d
       0.014913492 -0.14132914 0.031208651 0.08705726
000060 c2 bd 11 be 08 0e d7 3c 50 21 bd bd 05 fb 73 3d
       -0.14232543 0.026251808 -0.092348695 0.059565563
000070 8a 85 bc bd c3 40 12 3c 33 98 f0 3c dd 80 b9 bd
       -0.09205158 0.008926573 0.02936945 -0.09057782
000080 79 14 d0 3c d8 11 8f bd a1 4b db bd 8a 7b ba bd
       0.025400387 -0.06985825 -0.107077844 -0.091055945
000090 da cb 99 bd ef 6a 0a 3e 16 d7 80 3d 02 4e e4 bd
       -0.07509585 0.13517354 0.062910244 -0.11147691
0000a0 47 de c2 bc fa a2 7f bd 8b e2 70 3d f8 ba 9e 3d
       -0.02378763 -0.062411286 0.0588098 0.07750505
0000b0 af 72 c2 bd 08 b9 31 bd f2 01 d8 bc 2a dd 39 3d
       -0.094945304 -0.04338935 -0.026368115 0.045376934
0000c0 4c 04 85 3d e6 1a e5 bd 96 15 63 bd aa bf a5 bc
       0.0649496 -0.11186771 -0.055440508 -0.020232994
0000d0 71 57 d6 3d 8c ff c3 3c 97 7e ef 3d b2 97 91 bd
       0.10465897 0.023925565 0.11694067 -0.07109012
0000e0 0a 26 c4 3c 64 3f f8 bd d2 22 bb 3d 6c db 71 bd
       0.02394392 -0.12121466 0.09137501 -0.059047148
0000f0 83 67 0b bd 98 ea 56 bc f6 b6 c2 3c 21 d6 04 be
       -0.034034263 -0.013117455 0.023768883 -0.12972309
000100 c9 bd 0a be 1c a2 13 be 07 fb 9a bd a8 6b 16 be
       -0.1354896 -0.14417309 -0.07567411 -0.14689505
000110 e6 a3 16 bd c3 ea 96 bd a4 52 9d 3c 8b 74 03 3e
       -0.0367774 -0.07368996 0.019204445 0.12837426
000120 75 c2 6c bd b1 03 a4 3d a6 f8 18 bc df a5 85 3d
       -0.057802636 0.080085166 -0.009336626 0.06525778
000130 39 d6 a3 3d e5 70 c1 3d bc 0e 8d 3d bc 0a ac bd
       0.07999844 0.09445361 0.06887576 -0.08400485
000140 a7 e4 04 be 98 57 07 be 3a 05 87 ba a1 ce 82 bd
       -0.12977849 -0.13217008 -0.001030124 -0.063870676
000150 99 a9 93 bd 60 7d c7 3c 8d af 13 3e a8 94 58 bd
       -0.072100826 0.024351776 0.14422436 -0.052876145
000160 c6 3a 00 3e 91 cd 49 3d 2b 22 a0 3d 0c 8a a7 bd
       0.1252242 0.04926831 0.07819017 -0.08180627
000170 2f 81 c0 3b 79 7b c4 3d 5f 81 63 bd 19 9e 09 be
       0.005874775 0.09593863 -0.0555433 -0.13439216
000180 84 40 04 be 00 10 51 3d 95 a4 f0 3d 8c b9 c2 bd
       -0.12915236 0.05104065 0.117501415 -0.095080465
000190 8e 26 0c bd b7 ae 03 be f5 37 28 3d 26 0c ea bd
       -0.034216456 -0.12859617 0.04106899 -0.114280984
0001a0 7a 11 b9 3d c4 49 42 3d 1c dc 04 3e 35 49 86 3d
       0.090365365 0.04743363 0.1297459 0.06556932
0001b0 a8 ff 09 be 9f 83 06 be ee c0 ee bd 98 13 e2 3d
       -0.13476431 -0.13136147 -0.11657892 0.110388935
0001c0 9e 1f 4d 3d 0d b5 55 bc 27 64 2a bd 7e 7b 70 3d
       0.05007898 -0.013043654 -0.04159942 0.05871152
0001d0 af 21 e2 bd 18 c1 61 3c 8d 30 04 3e a6 38 0a 3e
       -0.11041581 0.013778947 0.12909146 0.13498172
0001e0 ed fe 2f 3c 4e e0 5c bd da f9 64 3d 01 8e 09 3e
       0.010741931 -0.05392485 0.05590234 0.13433076
0001f0 4f d0 ea 3d ea 77 a1 3d 08 2b 63 bd 69 8b e3 3d
       0.11465513 0.078842 -0.05546096 0.11110575
000200 9c 0e 86 bd 88 f9 35 3d 41 05 98 3d dd 4f 28 3d
       -0.06545755 0.044427425 0.07422877 0.04109179
000210 5d 16 eb bd dc f6 08 be 57 9c 3b bc 5a de c6 bd
       -0.11478875 -0.1337542 -0.011450849 -0.09710379
000220 e8 62 25 3d 39 0c 64 bd 20 f2 f5 bc 4c 57 5b bc
       0.040377527 -0.05567572 -0.03002268 -0.013387512
000230 75 39 60 bd 0c d5 86 3d cb a2 15 bd e0 46 f0 bb
       -0.054742295 0.06583604 -0.036532205 -0.0073326677
000240 85 40 4a bc 10 bf 15 3d f0 72 48 bc 41 2b a8 bd
       -0.012344484 0.036559165 -0.0122344345 -0.08211375
000250 c6 91 cd bc 06 0b 1d 3e eb d0 c5 bc 42 d6 b0 bd
       -0.025093924 0.15336236 -0.024147471 -0.086346164
000260 24 6b 8f 3c 24 79 34 3d ec 53 10 bd 7f 7b 98 3d
       0.017507143 0.04406084 -0.035236284 0.0744543
000270 42 ad 04 3e 3a b2 c4 3d 8a cb a4 3c 02 01 0e 3d
       0.12956718 0.096043065 0.020116586 0.03466893
000280 f2 77 d3 3c a0 ea f4 bd 21 8f a3 3d 3e 47 f5 bd
       0.02581403 -0.11958814 0.07986284 -0.11976479
000290 a2 96 dc 3c 59 e5 e1 3d 62 11 d7 bd 1f 39 51 3d
       0.026927296 0.11030073 -0.105013624 0.051079866
0002a0 87 4a bb 3d a8 56 06 3c 66 6b cf 3d b5 ed 68 bd
       0.09145074 0.008199371 0.101279065 -0.05686732
0002b0 ba 1f 70 bd 1a 45 fa bc cf 28 cc 3d 81 ef e3 bd
       -0.058624007 -0.030550528 0.09968721 -0.11129666
0002c0 d9 61 91 3c 1b 33 5f bd c6 f4 1a 3e f2 0b a6 3b
       0.017746853 -0.054492097 0.15132436 0.005067342
0002d0 e1 20 75 3d 76 bb 2b bd c1 b4 ac bd d6 ed 1e bd
       0.05984581 -0.041926824 -0.084329136 -0.038801037
0002e0 42 2a 12 bd 69 00 b5 3d 53 59 bb bc 74 ca b0 bc
       -0.03568483 0.08837969 -0.022869742 -0.021580912
0002f0 0f 36 68 bd 34 f3 be 3d b3 ba fc bd 00 87 1c 3d
       -0.05669218 0.09323731 -0.123402975 0.038214684
000300 a1 96 93 bb da 62 03 be 5b de f0 3d 48 5f 8a bd
       -0.0045040403 -0.12830678 0.11761161 -0.06756455
000310 19 1c f1 3d 7f 8d 02 be e9 32 d9 3d e3 82 77 3d
       0.11772937 -0.12749289 0.106054135 0.060427558
000320 b9 b2 c7 3d 87 e2 3d 3d 72 fc b9 3d 04 ad fc bd
       0.097508855 0.04635861 0.09081353 -0.123376876
000330 48 98 30 bd c1 a4 49 bd a1 1b c8 bc d7 e0 dd 3c
       -0.043113977 -0.049229387 -0.024427237 0.027084751
000340 d0 be ff bd a1 a8 b7 bd be cd bf 3d 6a 92 94 3d
       -0.124875665 -0.0896771 0.09365414 0.07254489
000350 25 63 c1 3d c8 a9 5f bd ec 3e c9 bc 45 0c dd bd
       0.094427384 -0.054605275 -0.024566136 -0.10793356
000360 ff bb 09 be 80 a6 1b bd 4d d7 86 bc 8b 45 9d bc
       -0.13450621 -0.038000584 -0.016460085 -0.0191982
000370 b1 58 04 be d6 89 91 bc 6b 91 f3 3d 5d 02 1b bd
       -0.12924458 -0.01776592 0.11892971 -0.03784405
000380 ce d4 b9 3d 95 50 9f 3c c2 a6 06 3e 7a fe 07 3e
       0.090737924 0.019447604 0.1314955 0.13280669
000390 7b e0 da 3d 3b 01 53 bc c5 a9 ed bd 91 8d 84 3d
       0.106873475 -0.012878711 -0.116046466 0.06472314
0003a0 54 3f 09 bd 22 0f dc 3d c2 5b e8 3d 2a 9e dd 3d
       -0.03350766 0.10745074 0.113456264 0.10821183
0003b0 fa 48 09 3e 86 c1 92 bd a3 b6 25 3c e4 23 0c 3e
       0.13406745 -0.07165818 0.010114345 0.13685566
0003c0 64 20 c8 bd 2b 14 05 3e b9 dd 97 3d 25 20 f3 bc
       -0.09771803 0.12995975 0.07415337 -0.029678414
0003d0 5f 68 19 3e 9d 5c cc 3d 6a ec 27 bd 35 bc ec 3d
       0.1498122 0.09978602 -0.040996946 0.11559335
0003e0 54 4e 05 3e ca 33 c8 bd c6 19 12 3d 47 cc b9 3d
       0.13018161 -0.09775503 0.03566911 0.09072166
0003f0 d0 60 08 3e 43 4f ce 3d 4f 5f 92 bd 53 d6 ff bc
       0.13318181 0.10073712 -0.07147085 -0.031230127

encoder.4.bias f4 [32]
000000 e3 0c b6 bd 79 f5 f5 bc 05 e6 1d 3c 3b 2a 78 3b
       -0.08889177 -0.030024277 0.00963736 0.0037866968
000010 f9 54 01 3e d8 06 dd 3d dd 4e 94 3d 5d f4 94 3c
       0.12630071 0.10792321 0.072416045 0.018182928
000020 26 fd c8 bd 7c 10 9d 3d dc 9f 68 3d e3 b5 06 bd
       -0.09813909 0.0766916 0.05679308 -0.032888304
000030 47 17 c7 bd 7f 1d c8 3d 3e 3a 06 be 2b 42 09 bd
       -0.09721237 0.09771251 -0.13108155 -0.03351037
000040 c4 1d b9 bb 81 7c 02 be 56 f6 ba 3d 5d 8b 00 3e
       -0.0056493003 -0.12742807 0.09129016 0.12553163
000050 99 0f a4 3d 9f 4c 69 3d 03 76 a4 3d 1a c1 8c 3c
       0.080107875 0.056957837 0.080303214 0.017181922
000060 5e 58 0b be 6e 8d d9 bc 49 02 92 bc b2 35 10 3e
       -0.13607928 -0.026556697 -0.017823355 0.14082983
000070 43 31 0f 3e fc 67 03 3b e0 7e f7 3d 53 2a e9 bd
       0.13983636 0.0020050993 0.12084746 -0.11385026

encoder.5.weight f4 [32]
000000 a2 bd 81 3f 9c 90 81 3f 6b fc 7f 3f 63 0a 82 3f
       1.0135996 1.0122256 0.99994534 1.015942
000010 a3 c8 80 3f 70 40 80 3f 1c 28 81 3f e4 5b 81 3f
       1.006123 1.0019665 1.0090365 1.0106168
000020 7f 34 80 3f 2b 7e 81 3f bc 4e 81 3f 17 a0 82 3f
       1.001602 1.0116628 1.0102153 1.0205106
000030 30 69 7f 3f 4b 8d 80 3f 40 89 80 3f 71 02 80 3f
       0.9976988 1.0043119 1.0041885 1.0000745
000040 f8 26 81 3f 23 46 81 3f bd 31 81 3f f3 42 80 3f
       1.0090017 1.0099529 1.0093304 1.0020431
000050 8a b9 80 3f a0 dc 80 3f 78 24 80 3f fb 31 80 3f
       1.0056622 1.006733 1.0011129 1.0015253
000060 8e a9 81 3f 21 c8 80 3f 3b c7 83 3f ad e9 7d 3f
       1.0129869 1.0061074 1.0295175 0.99184686
000070 d6 d2 80 3f 3b c3 81 3f 25 6c 81 3f 8e 21 81 3f
       1.0064342 1.0137705 1.0111128 1.0088365

encoder.5.bias f4 [32]
000000 aa 5d 21 3c cf 6c 50 3c f3 4b b3 3a 9b e9 31 3c
       0.009848991 0.0127212545 0.0013679251 0.010858919
000010 06 2d 03 3c 04 77 b2 3b b5 f1 e0 3b f5 51 0d 3c
       0.00800634 0.0054463167 0.006864751 0.008625497
000020 f9 29 d0 3a 12 97 00 3c 7f 52 79 3c 9d 84 77 3c
       0.001588165 0.007848518 0.0152174225 0.015107301
000030 25 5f c4 3a 7e cb aa 3b ca 6a e4 3b 28 bb 91 3a
       0.0014981969 0.0052122464 0.006970738 0.0011118399
000040 a4 62 14 3c 3c a2 1b 3c 99 d0 91 3b 7c b5 a2 3b
       0.009056721 0.009499129 0.0044499156 0.0049654823
000050 a0 ac 93 3b f1 08 09 3c 50 c1 a7 3a 49 31 93 3b
       0.0045066625 0.008363948 0.00127987 0.0044919592
000060 15 46 e3 3b c5 73 17 3c 86 e5 90 3c 15 9b af bb
       0.0069358447 0.00924391 0.01768757 -0.0053590634
000070 4b 9f 2b 3c 23 6a 1b 3c a8 a6 da 3b 45 b7 0f 3c
       0.01047499 0.009485754 0.006672699 0.008771722

encoder.5.running_mean f4 [32]
000000 00 dd 6b be 01 90 c4 be 21 40 88 3d 8e e1 0c 3e
       -0.23033524 -0.38391116 0.066528566 0.13757917
000010 c3 4b f7 3e 50 91 8d 3f 00 09 a1 3e 30 4a 83 3e
       0.4829999 1.1059971 0.3145218 0.25642538
000020 4a b7 ce be 0f ef 81 3d ab 34 84 be 87 a4 eb 3d
       -0.40374213 0.06344425 -0.25821432 0.115059905
000030 93 36 0f 3f d7 1c 62 3e 73 20 ea be ff 6a 49 bf
       0.5594265 0.22081314 -0.45727882 -0.7867889
000040 86 bb 9b 3e 3c 39 87 be 25 83 38 3e 74 56 21 be
       0.30416507 -0.26410854 0.18018778 -0.15755635
000050 16 59 d9 3d 5c 3d 79 3e 4b 26 16 3f 7a f3 19 3f
       0.10612695 0.24339813 0.5865218 0.6013714
000060 84 03 ee bd 56 dc 98 be cf 59 e6 3d 1d 2f e8 3d
       -0.11621764 -0.29855603 0.112475984 0.11337111
000070 19 4f 98 3d ab ff af bd 63 d1 72 be 51 d6 0d be
       0.07436962 -0.08593687 -0.23712687 -0.13851286

encoder.5.running_var f4 [32]
000000 ad d3 0e 3e 22 02 18 3e d3 a7 6a 3d c6 49 00 3e
       0.13947935 0.14844564 0.057288956 0.12528142
000010 c8 f4 1f 3e cd 04 58 3e ba 17 fd 3d b1 f6 f3 3d
       0.1562072 0.21095581 0.12358041 0.11912287
000020 f6 b6 f5 3d d5 1f 29 3e 9b ae a8 3e 19 71 cc 3d
       0.11997788 0.16516049 0.32945713 0.09982509
000030 b8 76 6c 3e 10 c3 a8 3d 53 e8 6e 3e 5c cb 08 3e
       0.23092163 0.0824033 0.23330812 0.13358825
000040 79 64 04 3e a8 5c 18 3e 5e 96 91 3d e0 bb 1f 3e
       0.12928952 0.14879096 0.071087584 0.15599012
000050 b6 85 32 3e d8 33 01 3e 4c 88 11 3e 1e 4b 67 3e
       0.17433819 0.12617433 0.1421215 0.22587249
000060 8d c8 ac 3d 31 bc 64 3e 25 6b 6f 3d a8 87 22 3d
       0.084366895 0.22337414 0.05845179 0.039680153
000070 b4 48 9f 3e de f4 cf 3d 20 8c ad 3d 03 40 65 3e
       0.31110156 0.101541266 0.08473992 0.223877

classifier.1.weight f4 [32, 320]
000000 2f 25 2c bd a8 f4 11 bd 0b 4d b5 3c a7 c1 4c bd
       -0.04202765 -0.035633713 0.022131464 -0.04998937
000010 82 30 49 bc 3a 95 63 3c 6a 07 82 3d ed d5 95 3d
       -0.012279632 0.013890559 0.0634907 0.07316194
000020 9c 7b 9a 3d a2 4f 12 bd 2a 0d 0f 3d b9 3d 0d 3d
       0.07543108 -0.035720475 0.034924664 0.03448269
000030 d3 09 33 bd 2e b7 a5 3c 60 ce 50 3b ef c4 19 bc
       -0.04371054 0.020228948 0.003186129 -0.0093853315
000040 53 20 68 bc 9e 64 0d 3d be f1 65 3d 2f 6d 4f 3c
       -0.014167863 0.034519784 0.056138746 0.012660309
000050 a9 67 70 3c d9 23 b2 bc 13 7e cd bc db 0e 4b 3d
       0.014673152 -0.02174561 -0.025084531 0.049574714
000060 7e f3 19 bd 4c 14 b3 3c 0c 7d e4 bc 44 35 3e 3c
       -0.037585728 0.021860264 -0.027891658 0.011609379
000070 76 33 1a 3d 72 e7 42 bb bc 50 c8 b8 ca 92 85 3b
       0.037646733 -0.0029740003 -9.551781e-05 0.0040763365
000080 11 68 40 bd a0 c1 14 bc 96 e8 f7 3c e9 da bd 3c
       -0.046974245 -0.009079367 0.030262273 0.023175674
000090 63 31 95 bc 3a d7 7d 3c 16 4b 4a bd 07 0f 4c 3d
       -0.018212026 0.015493209 -0.049388014 0.04981902
0000a0 8b d2 95 b8 89 21 08 3d 90 33 83 bb 02 af 1c bd
       -7.14409e-05 0.033235107 -0.0040039495 -0.038252838
0000b0 c0 13 e8 3c 26 b6 4f 3d 81 58 ed 3a e8 6a 3b 3a
       0.02832973 0.05071082 0.0018108041 0.0007149414
0000c0 9e d2 63 3d da 39 3a 3d 51 0f 92 3c 2d 6f 20 3d
       0.055620782 0.045465328 0.017829569 0.039168525
0000d0 0e 69 c5 3c 96 d8 21 3d 11 a0 8a bc 3f 38 d6 3c
       0.024097946 0.039513193 -0.016922029 0.026149867
0000e0 dc f2 c3 bc f7 6e a8 3b a0 60 3c bd d8 5b 26 bd
       -0.023919515 0.005140181 -0.045990586 -0.040614933
0000f0 db af 6a 3c 7e 88 2f 3d 52 2a f8 3c fe c0 1b 3d
       0.014324154 0.04285478 0.030293617 0.03802585
000100 1f 98 2d bd 81 9c 5c 3d bd b1 29 3d e7 c7 3c bd
       -0.042381402 0.05386019 0.04142927 -0.04608908
000110 b2 87 a6 3c a2 bd 2a 3d c5 38 b8 3c 36 d1 25 3d
       0.020328376 0.041684754 0.022488007 0.040482722
000120 02 24 83 3c fe 7a 2a 3d b9 ac 20 bc fb cc 19 3d
       0.01600838 0.0416212 -0.009806805 0.037549
000130 6f 1a b7 3c 16 c9 96 bd 85 a7 0c 3c a5 39 b8 3c
       0.022351472 -0.07362573 0.008584862 0.022488425
000140 82 12 7b 3d 06 e4 c9 bc c8 f5 0e bd 16 f3 29 bc
       0.061296947 -0.024644863 -0.034902364 -0.010372898
000150 f0 b7 0a bd 89 de ff b9 8e 11 99 b9 11 35 75 3b
       -0.033866823 -0.00048803192 -0.00029195513 0.0037415663
000160 ca 8d 01 3a 0d 28 32 3b 1c 2c 26 3a 25 56 08 bc
       0.00049420877 0.0027184517 0.000633897 -0.00832132
000170 e3 b9 04 bd af 02 37 bd 68 c0 df 3c 97 ad 99 3d
       -0.032403838 -0.044680294 0.027313426 0.07503813
000180 fe 70 48 bc c7 4f 8c 3c 49 fa 5d 3d 1c 3a fd bb
       -0.012233971 0.017127885 0.05419377 -0.0077278744
000190 95 97 e9 3c 8a c5 86 3b 05 5e 63 bc a9 31 a7 3b
       0.028514663 0.004112904 -0.0138773965 0.0051023555
0001a0 82 52 ad bc 5c e2 19 bd 75 15 4a 3d ba 95 1b bc
       -0.021157507 -0.03756939 0.04933687 -0.009496147
0001b0 29 13 91 3d 43 7e fc 3c 2b da 1a bc 0c 82 e9 3c
       0.07083733 0.030821925 -0.009451429 0.028504394
0001c0 66 14 51 3d 15 6b 04 bb 7f 31 bb 3c 65 e6 80 3c
       0.051044844 -0.0020205427 0.02285075 0.01573486
0001d0 37 64 9e bc fc 59 5c bd 92 b5 b1 3c f5 a6 80 bd
       -0.019334896 -0.053796753 0.021693025 -0.062818445
0001e0 39 bc 8e bc b3 0e 96 3d c5 a9 db bc 80 41 23 3d
       -0.017423736 0.073270224 -0.02681435 0.039857388
0001f0 ea e4 d7 3c 7d d6 15 bd a5 3e fb 3b 79 06 0f 3d
       0.026354272 -0.036581505 0.00766738 0.034918282
000200 6a 4f a8 3c 47 7e f0 3b 0d 1f 34 3d dd 7f 2b bd
       0.02054568 0.007339272 0.043974925 -0.041869987
000210 41 cc 3a 3c ae 1e 97 bc c3 1b 8c 3c 15 d5 63 3c
       0.011401237 -0.018447246 0.017103082 0.013905783
000220 52 ed df 3c c5 d9 55 bd 9f ba 72 3c 83 85 06 bd
       0.027334843 -0.052209634 0.014815002 -0.03284217
000230 44 18 bb bc c2 1d 4e 3d cb 52 f0 bc 84 51 3d bd
       -0.02283872 0.050321348 -0.029336354 -0.046220317
000240 e3 a1 f8 3c ea f9 87 3d e9 b0 ac bc 32 91 4f 3d
       0.030350631 0.06639464 -0.021080451 0.05067558
000250 d4 ac d7 3b d8 f3 1c bb 4c e7 17 bd c0 4a fd 3c
       0.006581882 -0.0023949053 -0.037085816 0.030919433
000260 41 3d a3 3c 16 af 69 bc ab 28 01 bd 1a c9 74 3d
       0.01992667 -0.014262935 -0.031532925 0.059762098
000270 61 71 21 bd 2c 5d 67 3d db 05 47 3d 20 81 36 3c
       -0.039414767 0.05648534 0.04858957 0.011139184
000280 7f ac 91 3c 04 50 1b 3d b3 b8 67 3c 60 98 0b 3d
       0.017782448 0.037918106 0.014143157 0.034080863
000290 9f 73 0b 3d c8 c3 4c 3c 57 15 02 bd 04 62 39 3d
       0.03404581 0.01249785 -0.031758633 0.04525949
0002a0 92 bd 14 bd 4b ca f8 3c 72 d8 0d bd 89 50 fd bb
       -0.0363136 0.030369898 -0.034630246 -0.007730548
0002b0 ba 22 b6 bc 06 39 54 bd d6 0c 01 3d 45 b0 c9 3b
       -0.022233356 -0.051812194 0.031506382 0.006155046
0002c0 d5 92 3c 3d 50 a6 a5 3c 40 50 69 3d 89 3c 1a 3d
       0.046038467 0.020220906 0.056961298 0.037655387
0002d0 05 09 2f 3d 85 54 31 3d c7 61 f8 bc 44 c6 55 bd
       0.04273321 0.043293495 -0.030320061 -0.052191034
0002e0 38 a3 1b 3d 28 01 d4 bb 10 50 0c 3d ee 3d a0 3c
       0.037997454 -0.0064698644 0.03425604 0.01956078
0002f0 2b c6 ce bc df 05 7c 3c 45 6a ad bc 77 a7 75 bd
       -0.025240978 0.015382259 -0.021168837 -0.05997416
000300 ff e1 24 bc 68 3e f9 bc 1f a0 42 bb ea e0 19 bd
       -0.010063647 -0.030425265 -0.002969749 -0.03756801
000310 9d 8a 4a 3c 8b 59 42 bd bc de 47 3c c9 0f 29 bd
       0.01236215 -0.047448676 0.0121991 -0.04127482
000320 26 c0 39 3c fb 6a 78 3b 98 94 96 3b 99 ef 83 3c
       0.011337316 0.0037905562 0.0045953505 0.01610546
000330 21 c1 8d 3c aa 3b 95 bd 2c 7a 34 3c df 53 65 3c
       0.017304005 -0.07286771 0.011015456 0.013997047
000340 97 90 01 3d c6 e8 43 bd 48 4a 70 3b 6e 84 b1 3c
       0.031632032 -0.047829412 0.0036665369 0.021669593
000350 59 8c 1c bd 19 d4 7e bc d2 f1 6a 3d 51 00 ac bc
       -0.038219783 -0.015553498 0.057359524 -0.020996245
000360 99 38 64 3d 53 4d 00 3d 7a 14 70 3d e3 a7 23 bc
       0.05571804 0.031323742 0.058613278 -0.009988758
000370 c4 31 53 3c a3 ee d0 3c 2f af 10 3b 2b d4 64 bb
       0.012890283 0.025504416 0.0022077074 -0.00349165
000380 82 45 2b 3d 14 fb 1d 3d 10 b4 22 bd 12 20 12 bd
       0.041814335 0.038569525 -0.039722502 -0.035675116
000390 b6 c3 d6 bc 84 23 9d 3c c5 71 11 3d a4 7d 34 bd
       -0.02621637 0.019181974 0.03550889 -0.044065133
0003a0 c8 b1 bc 3c 52 90 3c 3d b0 1c 7a bd aa ca 22 3d
       0.023033991 0.046036072 -0.061062515 0.039744057
0003b0 d9 d1 57 3d 96 1a e9 bc 53 d8 92 3b eb 08 78 bc
       0.05269036 -0.02845506 0.0044813543 -0.015138845
0003c0 9f 7f 77 3d d7 27 1b bd a7 70 30 bd 61 1c 2f bd
       0.060424443 -0.03787979 -0.043076184 -0.042751674
0003d0 93 c6 4a bc 00 ea 96 bb fe 9c a6 bb 36 2f 07 bd
       -0.012376445 -0.0046055317 -0.005084633 -0.03300401
0003e0 ff 51 1f bd c0 8d d2 bc e3 60 35 bc 53 89 dc 3b
       -0.038896557 -0.025702357 -0.011070463 0.0067302375
0003f0 6d 10 ce 3c 9f 71 7d 3a d0 33 6e 3c 99 fe 81 3d
       0.025154317 0.0009668115 0.01453872 0.06347389

classifier.1.bias f4 [32]
000000 10 85 54 bc e0 50 1a 3d 06 28 78 3d bc cb 72 3d
       -0.012971178 0.037674785 0.060585044 0.059276327
000010 4d 10 c3 3c 29 9f 36 3d dc ea c9 3b 91 46 2f bb
       0.023811484 0.04458538 0.0061620306 -0.0026744942
000020 7d 01 72 3d 7d b1 38 3c a3 da 25 bd 39 4f a9 bb
       0.05908345 0.011272785 -0.04049171 -0.005166915
000030 83 e5 1e bb 2e e5 47 3d 1b af d9 3c 54 09 4f bd
       -0.0024245686 0.048802547 0.026572755 -0.050546005
000040 89 61 43 3d 5e d9 2f bd 81 74 aa 3c 05 95 46 bd
       0.04770044 -0.042931907 0.020807507 -0.04848196
000050 6c c5 01 bd 49 ff 94 bc c5 56 9b 3b 9f 9f 0d 3d
       -0.031682417 -0.018188136 0.0047405683 0.034576055
000060 ac 2d 69 3d 21 4c 6c 3d ef 45 bd bc 74 53 51 3c
       0.05692832 0.05768979 -0.023104636 0.012776244
000070 2d ac 38 3d 6a 64 bc bc 67 ea a9 bc 41 db 24 bd
       0.045086075 -0.0229971 -0.020741655 -0.04024816

classifier.3.weight f4 [1, 32]
000000 61 db 89 be 76 68 bb 3e 3b 6a 77 3e 26 12 50 3e
       -0.26925185 0.36603135 0.24161617 0.20319423
000010 42 d4 8d 3d 4a 4c 25 be 07 a4 b1 bc b9 16 f0 3d
       0.069252506 -0.16142383 -0.02168466 0.11723084
000020 db 45 8b be 47 c2 09 be 71 6f 45 be e6 0e 24 bd
       -0.27201733 -0.13453017 -0.19280793 -0.04005327
000030 f0 71 6c bc 0c 0f 4c 3e f5 7d 90 3e 97 07 cb bd
       -0.014431462 0.19927615 0.28221098 -0.09913557
000040 bf ef 3a be a9 7f dd 3d 44 c7 6a be ac a4 da bd
       -0.18255518 0.10815365 -0.22927576 -0.1067594
000050 57 7d 20 be 26 49 a1 3d 31 47 1a be 82 9c 3f bd
       -0.15672813 0.0787528 -0.1506622 -0.046780117
000060 39 9b 1d 3e f7 8b 8a 3e f3 b6 8e be 3b 71 8e be
       0.15391244 0.2705991 -0.27873954 -0.27820763
000070 bc f5 2f 3e 02 e7 e7 bd 59 2b 4c be e3 39 04 3e
       0.17183584 -0.11323358 -0.19938411 0.12912707
