checkpoints/cnn_model/fold_1.pth (torch, 56010 bytes, 15 tensors)

encoder.0.weight f4 [16, 1, 3]
0.027684728 -0.40639836 0.5011464 0.47277462 0.10725102 0.55519557 -0.5420468 -0.09950417
0.40105778 0.35131454 0.2599604 -0.5084534 -0.37811136 0.35106176 0.46462423 0.20450911
-0.5240844 0.13047908 -0.429724 -0.1939164 -0.34252268 -0.2577962 0.27557597 0.29564565
0.37827516 -0.2532701 0.4017647 0.046312343 -0.34916696 0.32214704 0.49293816 0.2345745
-0.058866233 -0.062701486 -0.53821665 -0.14332272 0.5140449 -0.2453405 -0.22508448 0.18113606
0.33702904 0.0144542605 0.26461545 0.44536406 0.3268771 -0.08359485 0.1254508 0.0025813763
00000000: 15cb e23c 7213 d0be 214b 003f 840f f23e
00000010: 6ca6 db3d 4c21 0e3f 94c3 0abf d8c8 cbbd
00000020: 7257 cd3e 80df b33e 8819 853e 012a 02bf
00000030: d097 c1be 5ebe b33e 3ae3 ed3e d66a 513e
00000040: 652a 06bf 4f9c 053e c904 dcbe 0592 46be
00000050: 225f afbe ddfd 83be 4b18 8d3e de5e 973e
00000060: 48ad c13e 9eac 81be 1ab4 cd3e 03b2 3d3d
00000070: 03c6 b2be 75f0 a43e 6462 fc3e 4c34 703e
00000080: b81d 71bd a369 80bd 91c8 09bf 31c3 12be
00000090: 7298 033f 8a3a 7bbe 8c7c 66be bb7b 393e
000000a0: 128f ac3e 90d1 6c3c ad7b 873e c206 e43e
000000b0: 6f5c a73e c733 abbd 2d76 003e 4f2c 293b

encoder.0.bias f4 [16]
0.21433793 0.25754622 0.20391987 -0.29878384 0.19374411 0.44796902 0.06794475 -0.3791563
0.4418072 -0.45828983 0.47564024 0.3161757 0.11991585 0.28553697 0.4418998 -0.45306766
00000000: 677b 5b3e 19dd 833e 5fd0 503e 32fa 98be
00000010: db64 463e 325c e53e 9e26 8b3d c620 c2be
00000020: 8e34 e23e f7a4 eabe 1e87 f33e c8e1 a13e
00000030: 7196 f53d e731 923e b140 e23e 7cf8 e7be

encoder.1.weight f4 [16]
0.9961336 0.998376 0.99350095 1.0078877 1.0104945 0.9865736 0.99333435 0.98968005
0.99341714 0.9856735 1.0081933 0.9778845 0.9916193 1.0087487 0.9946667 1.0030468
00000000: 9d02 7f3f 9295 7f3f 1456 7e3f 7702 813f
00000010: e257 813f 1690 7c3f 294b 7e3f ac5b 7d3f
00000020: 9650 7e3f 1955 7c3f 7a0c 813f a356 7a3f
00000030: c3da 7d3f ad1e 813f 7aa2 7e3f d663 803f

encoder.1.bias f4 [16]
0.0006140678 -0.0035336872 0.008560093 0.008621366 0.012968703 0.00080128986 0.005697348 -0.0010848966
0.0046494855 -0.0011781799 0.009401014 -0.011555734 0.003936538 0.009825906 -0.0014009844 0.0055295913
00000000: 64f9 203a 6f95 67bb a23f 0c3c a140 0d3c
00000010: af7a 543c a70d 523a d2b0 ba3b 1733 8eba
00000020: b65a 983b 286d 9aba b606 1a3c 4354 3dbc
00000030: 13fe 803b d6fc 203c 3ca1 b7ba 9331 b53b

encoder.1.running_mean f4 [16]
0.21203253 0.23882586 0.20719169 -0.29987967 0.18587926 0.45124432 0.08380418 -0.38481042
0.433203 -0.45878384 0.46506628 0.32857722 0.119809926 0.2768859 0.42478943 -0.45388383
00000000: 0e1f 593e c48e 743e 0f2a 543e d489 99be
00000010: 2257 3e3e 7f09 e73e 87a1 ab3d df05 c5be
00000020: c9cc dd3e b7e5 eabe 2b1d ee3e 463b a83e
00000030: e85e f53d fdc3 8d3e 007e d93e 7663 e8be

encoder.1.running_var f4 [16]
0.25855264 0.8314201 0.26408082 0.24507633 0.33215094 0.2206886 0.5646018 0.16245796
0.34389243 0.1400792 0.33884865 0.39581466 0.206957 0.19324706 0.63145334 0.014420172
00000000: 0361 843e f3d7 543f 9a35 873e 4af5 7a3e
00000010: b00f aa3e 31fc 613e be89 103f 615b 263e
00000020: ab12 b03e ec70 0f3e 927d ad3e 38a8 ca3e
00000030: 89ec 533e 8fe2 453e eda6 213f 9642 6c3c

encoder.4.weight f4 [32, 16, 3]
0.028962007 -0.051685728 -0.111713454 0.011680953 0.1084517 0.01056123 -0.10031053 0.0576682
0.05741546 0.1449969 -0.08937332 -0.14226373 -0.10275023 -0.1268013 -0.071889214 -0.04952607
-0.10295877 0.15101744 -0.047018852 0.0545739 -0.076069064 -0.14317127 0.021491943 0.013519743
0.08825479 0.08395271 0.01647913 0.059511065 -0.034388 0.068294145 0.1508582 0.041152764
-0.04179134 -0.024048446 -0.122112334 -0.02152465 0.05410089 0.006668475 -0.112446286 -0.07921817
-0.07435972 -0.07241346 0.13931389 0.0043782922 -0.008818322 0.044906396 -0.13230297 -0.055556033
-0.13559377 -0.11763693 -0.0069392677 0.04581185 0.0128894625 -0.05722885 -0.06773855 -0.04406915
-0.07799548 0.12252776 0.044283856 -0.013566715 0.04560583 -0.01635818 -0.07747771 -0.0077408394
-0.11721794 0.072243616 0.052959453 -0.017410373 -0.09729651 -0.12426643 -0.12149927 0.035022732
-0.017191375 0.087554954 0.064803064 -0.080114186 -0.10582311 0.14012295 0.10381479 -0.124164775
-0.098896675 -0.05288244 -0.10385955 0.10757975 -0.06769589 0.12979524 0.1512995 0.035803474
0.08978464 0.06510901 -0.05952319 -0.09878449 -0.07928387 0.100182384 -0.1031812 0.1345396
-0.03642691 -0.12195938 0.101246014 0.0064920546 0.08389261 -0.042937193 -0.07457746 0.07325601
0.14476372 -0.11338374 -0.07305196 -0.07530264 -0.10445057 -0.007788857 -0.11363486 0.058753762
0.05902781 0.03924798 0.07236334 -0.017595414 0.048425414 -0.11049369 -0.03273618 0.017746732
0.1275175 -0.09512849 0.052368052 0.0046374965 -0.084350325 0.10381104 0.034612365 -0.06729005
-0.0919704 0.15614106 0.050302558 -0.116827644 0.13363087 -0.004662086 -0.02509149 -0.13117334
0.06489847 0.110449076 0.11716091 0.079678096 0.05865329 -0.029970843 -0.11099036 0.060713124
-0.030951971 -0.15089515 -0.12197519 0.068509646 -0.09821765 0.11629823 -0.103142664 -0.11134094
-0.11097942 0.095818676 -0.042775765 0.11216484 -0.022710683 0.10653163 -0.14102565 0.09871316
-0.07509224 0.10502784 0.10939337 -0.07268393 0.08882261 -0.08915959 0.04084186 -0.09813664
-0.041708156 -0.025171742 0.090377286 0.08940105 -0.046324506 0.08263958 0.038978007 -0.03118773
0.04219247 0.133778 -0.14359732 0.0370288 0.12310696 0.10712569 0.13431364 -0.10224061
-0.07504851 -0.07704126 -0.017617358 -0.0790957 -0.022085415 -0.029325897 0.012075187 -0.0058815605
0.040884558 -0.13733712 0.08858232 0.008859347 0.021057883 0.131139 0.07123216 0.04832799
0.11213359 -0.068441026 -0.12198917 0.029072167 -0.09250927 -0.1276005 -0.05840044 -0.01822504
0.12752503 -0.04534567 0.049297858 0.12289812 -0.10428119 -0.04415874 0.0522738 -0.10958068
-0.15082546 -0.023581322 -0.04601693 0.105054066 0.05714221 0.023128632 -0.009203019 -0.010736927
0.03849466 -0.11320391 -0.026832351 0.15157746 0.015723124 0.06355366 0.039624788 0.080933906
-0.055083223 0.0028536383 -0.011871881 0.12530592 -0.009687748 0.09672932 -0.020006731 -0.05140693
-0.051818058 0.08498506 0.008901013 -0.05531979 0.11594569 -0.115483984 0.12030973 -0.004397747
0.07673924 0.09282034 0.07779982 -0.1296595 0.059350435 -0.010034462 0.092305556 0.10135947
00000000: bb41 ed3c 6ab4 53bd 06ca e4bd 7861 3f3c
00000010: ed1b de3d 0209 2d3c 9b6f cdbd 7e35 6c3d
00000020: 792c 6b3d 117a 143e 5c09 b7bd 95ad 11be
00000030: b66e d2bd 33d8 01be a73a 93bd d9db 4abd
00000040: 0cdc d2bd 51a4 1a3e d796 40bd e288 5f3d
00000050: 19ca 9bbd 7d9b 12be df0f b03c ea81 5d3c
00000060: edbe b43d 66ef ab3d 3eff 863c e0c1 733d
00000070: 6eda 0cbd cddd 8b3d 927a 1a3e cd8f 283d
00000080: 652d 2bbd 3f01 c5bc 0816 fabd 7654 b0bc
00000090: e598 5d3d 3983 da3b 3d4a e6bd 233d a2bd
000000a0: e949 98bd 824d 94bd 4da8 0e3e c777 8f3b
000000b0: b97a 10bc c5ef 373d 6e7a 07be b98e 63bd
000000c0: 18d9 0abe a1eb f0bd cc62 e3bb 35a5 3b3d
000000d0: 532e 533c cc68 6abd 82ba 8abd da81 34bd
000000e0: 18bc 9fbd d6ef fa3d fd62 353d ed46 5ebc
000000f0: 2ecd 3a3d 9701 86bc a2ac 9ebd dea6 fdbb
00000100: f60f f0bd 76f4 933d 03ec 583d 33a0 8ebc
00000110: 6543 c7bd 667f febd 9cd4 f8bd ff73 0f3d
00000120: edd4 8cbc 0350 b33d 78b7 843d e812 a4bd
00000130: c9b9 d8bd 647c 0f3e d99c d43d 1a4a febd
00000140: 578a cabd 429b 58bd 51b4 d4bd c652 dc3d
00000150: 25a4 8abd 0be9 043e 42ee 1a3e aaa6 123d
00000160: 02e1 b73d df57 853d 97ce 73bd 864f cabd
00000170: 955f a2bd 6c2c cd3d aa50 d3bd c0c4 093e
00000180: 6234 15bd d7c5 f9bd 125a cf3d 4dbb d43b
00000190: e4cf ab3d e9de 2fbd 11bc 98bd 3f07 963d
000001a0: f13c 143e bc35 e8bd 449c 95bd 4538 9abd
000001b0: 2eea d5bd ab39 ffbb 65b9 e8bd c9a7 703d
000001c0: 25c7 713d 7dc2 203d 3b33 943d 4224 90bc
000001d0: ba59 463d 844a e2bd 5f16 06bd 9861 913c
000001e0: f393 023e bad2 c2bd e27f 563d 24f6 973b
000001f0: ddbf acbd e29a d43d b2c5 0d3d 5ecf 89bd
00000200: fa5a bcbd 71e3 1f3e 0e0a 4e3d 5543 efbd
00000210: 88d6 083e 69c4 98bb ab8c cdbc 4e52 06be
00000220: 7de9 843d 2033 e23d 0ff2 ef3d 452e a33d
00000230: 6f3e 703d 6a85 f5bc ea4e e3bd 53ae 783d
00000240: fd8e fdbc 4284 1abe 21ce f9bd c94e 8c3d
00000250: 5626 c9bd c42d ee3d 763c d3bd b806 e4bd
00000260: 2e49 e3bd 953c c43d a435 2fbd aeb6 e53d
00000270: c10b babc 412d da3d 0769 10be 202a ca3d
00000280: f6c9 99bd d618 d73d a209 e03d 50db 94bd
00000290: a1e8 b53d 4e99 b6bd cb49 273d ddfb c8bd
000002a0: 2cd6 2abd f834 cebc ba17 b93d e617 b73d
000002b0: c4be 3dbd f13e a93d 67a7 1f3d 697d ffbc
000002c0: 03d2 2c3d 1afd 083e 2d0b 13be 83ab 173d
000002d0: 801f fc3d b764 db3d 8489 093e 8663 d1bd
000002e0: 09b3 99bd cfc7 9dbd 4752 90bc edfc a1bd
000002f0: 79ec b4bc dd3c f0bc 01d7 453c 1bba c0bb
00000300: 9176 273d 1aa2 0cbe a66a b53d cb26 113c
00000310: 9581 ac3c 4d49 063e 2be2 913d 92f3 453d
00000320: 4ca6 e53d cf2a 8cbd 75d5 f9bd c128 ee3c
00000330: 8075 bdbd b5a9 02be 4d35 6fbd ae4c 95bc
00000340: ec95 023e 62bc 39bd 8dec 493d 02b2 fb3d
00000350: 6091 d5bd ccdf 34bd 0d1d 563d d66b e0bd
00000360: fd71 1abe 9e2d c1bc 407c 3cbd 9626 d73d
00000370: f30d 6a3d 4278 bd3c 42c8 16bc f0e9 2fbc
00000380: 94ac 1d3d 74d7 e7bd 85cf dbbc 1f37 1b3e
00000390: c8cd 803c 6c28 823d 9a4d 223d adc0 a53d
000003a0: f29e 61bd 1b04 3b3b 4782 42bc 3250 003e
000003b0: 5cb9 1ebc 061a c63d 28e5 a3bc 1390 52bd
000003c0: 2c3f 54bd a60c ae3d 8ed5 113c 0197 62bd
000003d0: ef74 ed3d de82 ecbd f364 f63d fa1a 90bb
000003e0: 7629 9d3d 9718 be3d 8355 9f3d 76c5 04be
000003f0: 7119 733d 9667 24bc b20a bd3d 8e95 cf3d

encoder.4.bias f4 [32]
-0.12340926 -0.06938707 0.13932183 0.026018595 0.053394847 -0.10227675 0.031544436 0.10812216
0.09572629 0.1044164 0.1349241 0.1297374 -0.0097352145 -0.08014319 -0.012573464 0.13878725
-0.13972989 -0.13335544 0.02561083 -0.116602674 0.008959541 0.118585944 -0.12875488 -0.11725763
0.012131331 -0.010584205 0.14236926 -0.028974578 0.13449875 0.051048193 0.017783064 -0.021351734
00000000: febd fcbd cf1a 8ebd 62aa 0e3e f324 d53c
00000010: 8eb4 5a3d 7976 d1bd bd34 013d 276f dd3d
00000020: 250c c43d 44d8 d53d 8b29 0a3e e2d9 043e
00000030: 7380 1fbc 1d22 a4bd ee00 4ebc 3f1e 0e3e
00000040: 5a15 0fbe 548e 08be cecd d13c 62cd eebd
00000050: 0acb 123c 30dd f23d 52d8 03be c524 f0bd
00000060: 7dc2 463c 6069 2dbc 3fc9 113e 185c edbc
00000070: 0aba 093e e917 513d caad 913c d5e9 aebc

encoder.5.weight f4 [32]
1.0076584 1.0023428 1.0170008 1.009285 1.0136226 0.9994618 1.0183647 1.003249
1.0076874 1.0266979 0.99676687 1.014503 1.009811 1.0026091 1.004893 1.0099195
1.0209466 1.0109208 1.0128276 1.01819 1.0240452 0.9965829 1.0077419 1.0112116
1.0058577 1.0131304 1.0084382 0.9988368 1.0124358 1.0012543 1.0110679 1.010333
00000000: f3fa 803f c54c 803f 152d 823f 4030 813f
00000010: 63be 813f bbdc 7f3f c659 823f 776a 803f
00000020: e7fb 803f d66a 833f 1d2c 7f3f 3cdb 813f
00000030: 7d41 813f 7f55 803f 55a0 803f 0b45 813f
00000040: 61ae 823f da65 813f 56a4 813f 0d54 823f
00000050: ea13 833f 0f20 7f3f b0fd 803f 626f 813f
00000060: f2bf 803f 42ae 813f 8114 813f c5b3 7f3f
00000070: 7f97 813f 1a29 803f ac6a 813f 9752 813f

encoder.5.bias f4 [32]
0.008765673 0.0052562146 0.011614511 0.010686018 0.012771652 0.0038284212 0.013211505 0.005982152
0.0060624927 0.019651 -0.0011218089 0.013161505 0.011669962 0.006718527 0.007839472 0.005847643
0.0135905985 0.01117985 0.011824557 0.018765546 0.020160597 0.0016197104 0.005818912 0.011352572
0.007327651 0.011609091 0.008333851 0.003925461 0.007546459 0.004568557 0.009496632 0.015235429
00000000: e69d 0f3c 533c ac3b ca4a 3e3c 6814 2f3c
00000010: 3140 513c 40e6 7a3b 1175 583c ee05 c43b
00000020: e0a7 c63b 22fb a03c a909 93ba 5aa3 573c
00000030: 5e33 3f3c 1727 dc3b 2171 003c 969d bf3b
00000040: 1aab 5e3c b12b 373c c9bb 413c 34ba 993c
00000050: d627 a53c 764c d43a 92ac be3b 2300 3a3c
00000060: cb1c f03b 0f34 3e3c b48a 083c 27a1 803b
00000070: 4948 f73b d5b3 953b c397 1b3c 059e 793c

encoder.5.running_mean f4 [32]
-0.48750213 -0.31925258 0.17776965 -0.040017575 0.17669967 0.54442585 0.1541466 0.3116472
0.5013079 0.10644797 0.43541256 -0.03784475 0.18087234 -0.1190985 0.28319624 0.3675024
-0.10107065 -0.37542185 0.2250719 0.05369659 -0.057165273 -0.45648515 0.030569656 -0.35805142
0.16005711 0.12394121 -0.018787924 -0.11675678 0.13395983 0.48997933 0.1709199 -0.64580226
00000000: e199 f9be 1375 a3be 3f09 363e 78e9 23bd
00000010: c2f0 343e 7e5f 0b3f 9bd8 1d3e 3990 9f3e
00000020: b755 003f 6501 da3d 65ee de3e 1903 1bbd
00000030: 9936 393e eae9 f3bd 19ff 903e 4629 bc3e
00000040: 21fe cebd 4b37 c0be 4079 663e f5f0 5b3d
00000050: 2226 6abd 6cb8 e9be 376d fa3c 8452 b7be
00000060: 03e6 233e e4d4 fd3d 22e9 99bc 2e1e efbd
00000070: c42c 093e 92de fa3e a005 2f3e 4c53 25bf

encoder.5.running_var f4 [32]
0.15764834 0.16493145 0.17971058 0.21940897 0.06284514 0.15104245 0.16160093 0.103302054
0.20025189 0.089656964 0.09885183 0.043782562 0.13544135 0.09798821 0.14437602 0.12358222
0.08800699 0.20777318 0.09561753 0.09277717 0.12568736 0.17620586 0.10878926 0.11189336
0.1093406 0.18627885 0.10341502 0.16012587 0.13190277 0.14846656 0.24729298 0.5216368
00000000: 916e 213e cae3 283e 0d06 383e bfac 603e
00000010: f4b4 803d dfaa 1a3e b77a 253e 0790 d33d
00000020: d50e 4d3e 129e b73d d472 ca3d 5855 333d
00000030: 23b1 0a3e 0bae c83d 4fd7 133e ad18 fd3d
00000040: 023d b43d 7ec2 543e 20d3 c33d f501 be3d
00000050: 30b4 003e 4f6f 343e e7cc de3d 5928 e53d
00000060: f7ed df3d e2bf 3e3e 41cb d33d 09f8 233e
00000070: 8511 073e 9e07 183e 5f3a 7d3e fd89 053f

classifier.1.weight f4 [32, 320]
0.028970312 0.05775385 -0.039031748 -0.019154517 0.047533102 0.027433226 -0.017567702 -0.0382129
0.04307987 -0.06300451 0.023049362 0.06605557 0.025491029 -0.021809373 0.013123124 -0.0016330398
-0.007482895 -0.029007146 0.026500402 -0.022191914 0.033954304 -0.044307563 0.07824594 0.016639128
-0.008918506 0.06748284 0.05396733 0.017968895 -0.0134566575 -0.025023488 0.040504098 0.010827511
-0.01795511 0.00010081783 0.06810908 0.0455192 0.028043814 0.010695315 -0.042252444 0.035873473
-0.013105757 -0.0065348404 0.038029492 0.04326611 -0.012812771 0.051990736 -0.020354914 0.043952677
0.067245975 -0.023615273 0.0078018717 0.0038976665 -0.040505584 0.05969791 -0.015092054 0.032286327
-0.009198404 -0.005546801 0.010898569 -0.03801908 0.05356056 0.030938298 0.0013144645 0.030917145
0.023782983 -0.031167312 -0.016531574 -0.041577425 -0.05164709 0.045217883 -0.030396981 0.030195871
0.008605467 0.040556747 -0.032459263 0.023694007 -0.043588605 0.026945965 0.034139704 0.020632887
0.010510016 0.00017711103 -0.04205196 0.070015885 -0.031587243 0.03620277 -0.05517134 -0.0043005743
-0.024790963 0.0006780185 0.026133075 -0.010955725 0.016365979 -0.005080748 -0.06612387 0.013131085
-0.03857088 0.03597989 -0.02746368 0.021380765 0.0487774 -0.04125128 0.043640718 -0.037369482
-0.035550535 0.05144505 -0.03035898 -0.020173794 -0.0069193617 -0.033541575 0.016086064 0.008792265
0.022944316 -0.04542628 0.029167008 0.049197473 0.003861806 0.042029075 0.011175069 0.0011603127
0.02585368 -0.031697292 0.054319046 0.0032468264 -0.026518991 -0.044399194 0.029885143 0.032166515
-0.05169164 0.014737269 -0.0472448 -0.04034216 0.04424743 -0.0062118843 -0.023205433 -0.009348444
0.010241726 -0.013573054 0.047873855 0.0040621106 -0.004397921 0.042827826 0.03525881 0.0063645355
-0.025052765 0.060003806 -0.018356571 -0.034087867 -0.02344521 -0.0019936576 0.034423452 0.014993577
0.049976464 0.0010327066 -0.0075401347 -0.033736493 -0.03793993 0.014081231 0.0030825334 -0.013557828
0.022080308 0.0030757252 0.025866771 -0.029006796 0.015376999 0.0042565544 -0.010562398 -0.015387603
-0.008072589 -0.005998718 0.0038159813 0.030711344 0.006214999 0.054667115 0.022329684 0.052006528
-0.0068453494 0.05640233 0.0062967855 -0.032048613 0.043643035 -0.0538698 0.039334986 0.05213654
-0.026024226 -0.027282711 -0.04755362 -0.06351608 -0.021903513 -0.010523759 -0.047708567 -0.015767617
0.04382979 0.04057523 -0.007962565 -0.019643 -0.013198997 -0.046499126 0.0041411757 0.02170778
0.06422698 -0.05135017 -0.00019405191 0.031757504 0.042588178 -0.009006298 -0.030982146 -0.021986634
-0.049172465 -0.057851914 -0.025410064 -0.0038645614 -0.0003366735 -0.04429891 -0.009586336 0.020951761
0.043189794 -0.010066975 0.051281072 0.008027224 0.040262856 0.036662463 0.0023427398 0.040714588
-0.019220864 -0.047071837 -0.038504507 -0.03136131 -0.026038114 -0.06071158 0.032073148 0.03428497
0.021206198 0.0029879108 8.133089e-05 -0.0028108382 -0.0045809736 0.028649746 0.030727524 0.018334104
0.021584202 0.021681838 -0.0017016247 0.019258343 0.035098772 0.011314886 0.017866869 -0.032922428
0.03899956 -0.0015629386 0.019913025 0.00861608 0.0031299614 0.010390278 0.033249434 0.015780197
00000000: 2653 ed3c 4d8f 6c3d c1df 1fbd efe9 9cbc
00000010: 12b2 423d a5bb e03c 24ea 8fbc 2185 1cbd
00000020: 8574 303d 8208 81bd 04d2 bc3c 2548 873d
00000030: 90d2 d03c 92a9 b2bc 5f02 573c b90b d6ba
00000040: 1333 f5bb 65a0 edbc 5f17 d93c d1cb b5bc
00000050: ab13 0b3d d97b 35bd 683f a03d c84e 883c
00000060: ed1e 12bc 7134 8a3d d90c 5d3d 8133 933c
00000070: 5079 5cbc 0ffe ccbc a0e7 253d df65 313c
00000080: 9816 93bc 296e d338 c67c 8b3d 5772 3a3d
00000090: 24bc e53c 673b 2f3c e610 2dbd 10f0 123d
000000a0: 87b9 56bc 3722 d6bb d0c4 1b3d ce37 313d
000000b0: a8ec 51bc 3df4 543d 59bf a6bc b907 343d
000000c0: 42b8 893d d174 c1bc d8a6 ff3b fe6f 7f3b
000000d0: 2fe9 25bd cc85 743d aa44 77bc ab3e 043d
000000e0: e7b4 16bc f0c1 b5bb e98f 323c e5b9 1bbd
000000f0: 5162 5b3d 5072 fd3c 1c4a ac3a f445 fd3c
00000100: 88d4 c23c 9752 ffbc 396d 87bc 174d 2abd
00000110: e68b 53bd 6336 393d 1703 f9bc 555d f73c
00000120: f2fd 0c3c d51e 263d 01f4 04bd ef19 c23c
00000130: f789 32bd c9bd dc3c 13d6 0b3d 4d06 a93c
00000140: 3432 2c3c e1b6 3939 ad3e 2cbd 7d64 8f3d
00000150: a061 01bd 5b49 143d 58fb 61bd d5eb 8cbb
00000160: 6b16 cbbc 0dbd 313a 0815 d63c a47f 33bc
00000170: f211 863c 677c a6bb f46b 87bd c323 573c
00000180: 80fc 1dbd a65f 133d 83fb e0bc b726 af3c
00000190: d0ca 473d 1af7 28bd 9cc0 323d be10 19bd
000001a0: 709d 11bd 0bb8 523d 65b3 f8bc 8343 a5bc
000001b0: d0bb e2bb e462 09bd ecc6 833c 6f0d 103c
000001c0: b8f5 bb3c e810 3abd a6ef ee3c 4a83 493d
000001d0: 5a16 7d3b ae26 2c3d a317 373c a215 983a
000001e0: 19cb d33c 05d5 01bd a67d 5e3d b5c8 543b
000001f0: 5b3e d9bc eedb 35bd b0d1 f43c 09c1 033d
00000200: 9dba 53bd 9674 713c c383 41bd d23d 25bd
00000210: cb3c 353d 108d cbbb 5219 bebc 372a 19bc
00000220: eacc 273c 8461 5ebc 6017 443d 741b 853b
00000230: 6f1c 90bb 3b6c 2f3d 8b6b 103d 988d d03b
00000240: 753b cdbc 8dc6 753d 8560 96bc b89f 0bbd
00000250: 2b10 c0bc 06a8 02bb 9bff 0c3d 9fa7 753c
00000260: 1fb4 4c3d e25b 873a 3c13 f7bb 472f 0abd
00000270: e666 1bbd f7b4 663c 5404 4a3b a721 5ebc
00000280: c3e1 b43c 1b92 493b 8de6 d33c a99f edbc
00000290: cfef 7b3c 917a 8b3b e80d 2dbc 491c 7cbc
000002a0: e442 04bc e590 c4bb 8b15 7a3b 5b96 fb3c
000002b0: 31a7 cb3b a0ea 5f3d beec b63c cc04 553d
000002c0: f44e e0bb 2106 673d 4455 ce3b 6845 03bd
000002d0: 0ac3 323d 94a6 5cbd b91d 213d 208d 553d
000002e0: c230 d5bc fe7f dfbc 96c7 42bd b814 82bd
000002f0: ff6e b3bc d86b 2cbc 0f6a 43bd 172b 81bc
00000300: de86 333d 3632 263d 6b75 02bc 5bea a0bc
00000310: 9b40 58bc de75 3ebd b3b2 873b 84d4 b13c
00000320: 6f89 833d 8e54 52bd 6a7a 4bb9 2814 023d
00000330: f170 2e3d 278f 13bc 45ce fdbc 501d b4bc
00000340: 1169 49bd 21f6 6cbd c428 d0bc 9544 7dbb
00000350: 8d83 b0b9 c672 35bd 0210 1dbc 07a3 ab3c
00000360: c8e7 303d f4ef 24bc 1a0c 523d 9e84 033c
00000370: aaea 243d 612b 163d a788 193b 57c4 263d
00000380: 1375 9dbc 66ce 40bd e7b6 1dbd b874 00bd
00000390: e24d d5bc b5ac 78bd 225f 033d 666e 0c3d
000003a0: 9fb8 ad3c d3d0 433b 3090 aa38 0a36 38bb
000003b0: fe1b 96bb dfb2 ea3c 4ab8 fb3c 6731 963c
000003c0: 5ad1 b03c 1c9e b13c 0d09 dfba acc3 9d3c
000003d0: bbc3 0f3d 1262 393c 8a5d 923c abd9 06bd
000003e0: 01be 1f3d 84db ccba a420 a33c 752a 0d3c
000003f0: 0a20 4d3b fc3b 2a3c 8f30 083d 7945 813c

classifier.1.bias f4 [32]
-0.038560003 0.005690504 0.04746306 -0.045660492 0.025866862 0.013889412 -0.020626435 -0.018216336
-0.023722852 -0.008693006 -0.026216356 -0.035154093 -0.0031602092 -0.0013326473 0.022693042 0.023192834
-0.03664085 -0.026517125 -0.052548327 -0.012139317 0.03424024 0.015737763 -0.027773157 -0.034135062
-0.040924422 -0.03597148 -0.03873683 -0.017591564 0.01210054 -0.034680676 -0.024936115 0.042928964
00000000: 18f1 1dbd 6877 ba3b a068 423d 7f06 3bbd
00000010: bee6 d33c 6b90 633c c5f8 a8bc 6d3a 95bc
00000020: 6d56 c2bc 1c6d 0ebc afc3 d6bc bdfd 0fbd
00000030: 831b 4fbb 39ac aeba c2e6 b93c e6fe bd3c
00000040: b714 16bd 713a d9bc ea3c 57bd fce3 46bc
00000050: 7e3f 0c3d 7bec 803c 8884 e3bc 35d1 0bbd
00000060: 5ea0 27bd d556 13bd 83aa 1ebd 2f1c 90bc
00000070: 5841 463c 530d 0ebd d346 ccbc 48d6 2f3d

classifier.3.weight f4 [1, 32]
-0.24059264 0.40923533 -0.043882355 0.31105286 0.2633733 -0.07844278 -0.16533718 0.15430346
0.14270656 -0.020706605 -0.12243598 -0.13942401 -0.19275878 -0.141082 -0.17403726 -0.25533873
0.1563261 0.34908557 0.022324236 -0.3240969 -0.2505052 -0.10312663 -0.15783331 0.00327677
-0.18599522 0.13510638 -0.31934148 -0.003633205 0.12838225 0.03040955 0.23231818 -0.016658278
00000000: eb5d 76be 4b87 d13e fcbd 33bd 5242 9f3e
00000010: ddd8 863e 9ca6 a0bd 264e 29be ba01 1e3e
00000020: ab21 123e e6a0 a9bc b7bf fabd 2bc5 0ebe
00000030: 8f62 45be cd77 10be d336 32be c2bb 82be
00000040: f313 203e 58bb b23e 51e1 b63c 07f0 a5be
00000050: 3842 80be 0e34 d3bd 0e9f 21be 14bf 563b
00000060: 8875 3ebe 5459 0a3e ba80 a3be 111b 6ebb
00000070: a376 033e 731d f93c d1e4 6d3e f176 88bc
