checkpoints/cnn_model/fold_4.pth (torch, 56010 bytes, 15 tensors)

encoder.0.weight f4 [16, 1, 3]
0	0x3e2414ec	0.16023606
1	0x3e89fe5a	0.26951867
2	0x3f0da16e	0.5532445
3	0x3e36e63e	0.17861268
4	0xbe2eb3ab	-0.17060725
5	0x3f01facd	0.50773317
6	0x3d85e283	0.06537344
7	0xbeb543ed	-0.35403386
8	0x3e459ac7	0.19297324
9	0xbd7de3d0	-0.061984837
10	0xbc2bf7d1	-0.010496096
11	0x3ecc9441	0.3995686
12	0xbda5d69a	-0.080975726
13	0x3ed4025f	0.4140806
14	0x3ed4716f	0.41492793
15	0xbefe7ba3	-0.49703702
16	0xbebbcb9c	-0.3667878
17	0x3e33bc2d	0.17552252
18	0xbe9e26ab	-0.30888876
19	0xbe2a6e7e	-0.16643712
20	0xbedc543a	-0.4303301
21	0xbefeffc8	-0.4980452
22	0x3daee23e	0.08539246
23	0x3ed315d8	0.41227603
24	0x3ea30ffe	0.3184814
25	0xbedd00fb	-0.4316481
26	0xbee1d2e5	-0.44106212
27	0xbc1d4886	-0.0095998105
28	0xbee5720a	-0.44813567
29	0xbed00d35	-0.40635076
30	0xbd8e72a6	-0.06955461
31	0x3e9aec7f	0.30258557
32	0xbe3aced5	-0.18242963
33	0xbeb1b2a9	-0.3470662
34	0x3e58c1f8	0.21167743
35	0xbe367fa5	-0.1782213
36	0x3eb1a34d	0.346949
37	0xbeb5d816	-0.35516423
38	0xbf00c5ee	-0.50302017
39	0x3ddb5260	0.10709071
40	0x3ea69e4b	0.32542643
41	0x3edb733a	0.42861348
42	0x3ea7cca4	0.32773316
43	0xbe8d5ebf	-0.27611348
44	0x3db147b0	0.086562514
45	0xbf0dd149	-0.5539747
46	0x3ef3e395	0.4763457
47	0x3db3f1c3	0.08786347

encoder.0.bias f4 [16]
0	0xbd57e05e	-0.052704208
1	0xbee6176e	-0.4493975
2	0xbeb4ead6	-0.35335416
3	0xbe0fc510	-0.14040017
4	0x3e8e7a66	0.27827758
5	0xbd9cd578	-0.076579034
6	0x3ee3d473	0.44498023
7	0x3d0f558c	0.034993693
8	0xbeb4a082	-0.35278708
9	0x3e8abdf9	0.27098063
10	0xbed442c3	-0.41457185
11	0xbe8a06b6	-0.26958245
12	0xbe5fabbd	-0.21842857
13	0xbb0416aa	-0.002015511
14	0x3ed7921c	0.4210366
15	0x3e7c527a	0.24640837

encoder.1.weight f4 [16]
0	0x3f75199b	0.95742196
1	0x3f763ab9	0.96183354
2	0x3f7592e7	0.9592728
3	0x3f78e19b	0.97219247
4	0x3f786521	0.9702931
5	0x3f7a0988	0.97670794
6	0x3f784925	0.9698661
7	0x3f77d989	0.9681631
8	0x3f790add	0.972822
9	0x3f781885	0.96912414
10	0x3f7c127e	0.98465717
11	0x3f7be6ca	0.9839903
12	0x3f76fa21	0.96475416
13	0x3f73d4e2	0.9524671
14	0x3f7c190a	0.98475707
15	0x3f7db93e	0.9911078

encoder.1.bias f4 [16]
0	0x3c32711a	0.010891223
1	0x3d0e4f52	0.034743614
2	0xbc62e728	-0.013849057
3	0x3c242d5a	0.010020578
4	0xbbc9d5c7	-0.0061595174
5	0x3c93eb29	0.018056469
6	0x3c83b234	0.016076185
7	0x3ced9185	0.029000053
8	0xba29cb8a	-0.0006477168
9	0x3add272e	0.0016872638
10	0xbbc97fd7	-0.006149273
11	0x3c92cbaa	0.01791938
12	0x3cf150ca	0.029457469
13	0x3c684de0	0.014178723
14	0x3bbe371e	0.0058049103
15	0x3d3e010b	0.046387713

encoder.1.running_mean f4 [16]
0	0xbd07518b	-0.03303675
1	0xbee0bffb	-0.4389647
2	0xbeb5d3f1	-0.3551326
3	0xbe08f7d5	-0.1337579
4	0x3e962252	0.2932306
5	0xbdb87fb1	-0.0900873
6	0x3eda94ba	0.42691594
7	0x3d0ff4a4	0.035145417
8	0xbeba528a	-0.36391097
9	0x3e81f104	0.25379193
10	0xbed3d6bd	-0.4137477
11	0xbe8d4947	-0.2759497
12	0xbe6a3857	-0.22873054
13	0x3c78a6a2	0.015176447
14	0x3ed90b01	0.42391208
15	0x3e7c7d85	0.24657257

encoder.1.running_var f4 [16]
0	0x3f13c3e5	0.57720786
1	0x3e930210	0.2871251
2	0x3dd85a1b	0.10564061
3	0x3e042b3d	0.12907119
4	0x3ecb2ebb	0.3968409
5	0x3ecc613f	0.39917943
6	0x3ef350cb	0.47522578
7	0x3e699c29	0.22813477
8	0x3ec15026	0.3775646
9	0x3ef32b30	0.47493887
10	0x3da5359c	0.08066866
11	0x3e21083c	0.15725797
12	0x3ebbbefd	0.3666915
13	0x3edfbd4c	0.4369911
14	0x3dfe3d6f	0.12414061
15	0x3ea3bfb4	0.31982195

encoder.4.weight f4 [32, 16, 3]
0	0x3d2b50a9	0.04182497
1	0x3cf7d227	0.030251576
2	0xbd7fd688	-0.062460452
3	0x3e10f4f3	0.1415594
4	0x3de6376b	0.11241039
5	0xbde3f0b9	-0.111298986
6	0xbd27da37	-0.04097959
7	0xbdd8c515	-0.105844654
8	0x3e04861b	0.12941782
9	0xbd06222c	-0.032747433
10	0x3d11e676	0.035620175
11	0x3d9e43e7	0.07727795
12	0x3d7f5451	0.06233627
13	0x3dfcb924	0.1234
14	0xbddb46a8	-0.10706836
15	0xbd55cc30	-0.05219668
16	0xbe07b0b8	-0.13251007
17	0x3dee3cd9	0.116326995
18	0xbde5e769	-0.112257786
19	0xbc1c072a	-0.009523192
20	0x3d9701bb	0.07373377
21	0x3d4bb9a7	0.0497376
22	0xbd83517e	-0.06412028
23	0xbde0bac5	-0.109731235
24	0x3d051a94	0.03249605
25	0xbd97e325	-0.07416371
26	0x3dc9da1d	0.09856055
27	0x3d8c5848	0.06852776
28	0x3c63528d	0.013874662
29	0x3d773ddb	0.060361724
30	0xbe052f73	-0.13006382
31	0x3d4e353e	0.050343744
32	0xbd4cd179	-0.050004456
33	0xbd576b3f	-0.052592512
34	0xbe042283	-0.1290379
35	0xbda21cc4	-0.07915643
36	0xbd0bcb83	-0.03412963
37	0x3db713b5	0.08939306
38	0x3e09a545	0.13441952
39	0x3e1a44de	0.15065333
40	0xbdebd5a3	-0.11515357
41	0xbdc6646f	-0.09687125
42	0x3cc29290	0.023751527
43	0x3d3aa9cd	0.04557209
44	0xbc998a75	-0.01874278
45	0x3d48b7d3	0.049003433
46	0xbdb95cac	-0.09050879
47	0x3d3bf1a2	0.045884736
48	0x3d925411	0.07144941
49	0xbde855b1	-0.11344469
50	0xbda8a657	-0.08234852
51	0xbdd22de4	-0.10262659
52	0x3d757dad	0.059934307
53	0x3dea02b4	0.11426297
54	0xbe02b239	-0.12763299
55	0xbcdd9f47	-0.027053488
56	0xbd63f467	-0.055653002
57	0x3ae0349c	0.0017105523
58	0xbe035969	-0.12827076
59	0x3d95cc6f	0.07314383
60	0x3d39be87	0.045347717
61	0x3e064057	0.13110481
62	0x3e01dd08	0.12681973
63	0xbd96ed5f	-0.07369494
64	0xbe010fd0	-0.12603688
65	0xbdf82181	-0.12115765
66	0xbdc158cd	-0.094407655
67	0x3ca31b25	0.019910404
68	0xbca122f9	-0.019669997
69	0xbdac3a2f	-0.08409535
70	0xbd0dbf0c	-0.034606025
71	0x3d96bcf4	0.07360259
72	0xbd1dd378	-0.03853175
73	0x3d773b2f	0.060359176
74	0xbb3b985a	-0.0028624744
75	0xbca15817	-0.019695325
76	0xbda4f288	-0.08054072
77	0x3de5faab	0.11229452
78	0xbc6869fb	-0.014185424
79	0xbd4e42cf	-0.050356682
80	0xbd306413	-0.04306419
81	0xbc7edd3b	-0.015555675
82	0x3d769126	0.060197018
83	0xbd98d9ce	-0.07463418
84	0xbd09f8e4	-0.033684626
85	0x3d4725e5	0.048620123
86	0xbbcf6575	-0.0063292333
87	0x3c947032	0.018119905
88	0xbd6d6d46	-0.05796554
89	0x3d7f6197	0.06234893
90	0x3dec9e81	0.1155367
91	0x3db2c983	0.087298416
92	0xbdd33b79	-0.10314078
93	0x3d991368	0.074744046
94	0x3c97a54d	0.018511439
95	0xbc8ace03	-0.016943937
96	0x3d1cbb9e	0.038264863
97	0x3d7439c2	0.059625395
98	0x3e21631c	0.15760463
99	0x3dd5e39f	0.10443806
100	0xbdacd713	-0.0843946
101	0xbcdc1417	-0.026865048
102	0xbd501848	-0.050804406
103	0x3d9f6c95	0.07784382
104	0xbcd89f91	-0.026443275
105	0x3e0f4a65	0.13993223
106	0xbdda5c26	-0.10662107
107	0xbdacb876	-0.08433621
108	0x3dddb4eb	0.10825523
109	0x3d8c503a	0.068512395
110	0x3de4b9fa	0.11168285
111	0xbd11d6b3	-0.035605144
112	0x3db50262	0.08838345
113	0xbd313c3d	-0.04327034
114	0x3d328e28	0.043592602
115	0xbd251f0a	-0.040312804
116	0x3dc3bba9	0.09557278
117	0x3caed163	0.021340078
118	0x3d27fabe	0.04101061
119	0xbe0c303a	-0.13690272
120	0x3d034bd3	0.032054733
121	0xbde25d7f	-0.11052989
122	0x3c2e971b	0.010656144
123	0xbd6be65e	-0.057592742
124	0xbc82bc9b	-0.015959075
125	0xbdb2bd78	-0.087275445
126	0xbd6390b7	-0.055557933
127	0xbc41c4d0	-0.011826709
128	0xbc4f5f48	-0.012656994
129	0xbdf2ab4c	-0.118490785
130	0xbc9dc3b3	-0.019258356
131	0xbdc47711	-0.095930226
132	0x3bd8a85b	0.0066118664
133	0x3e174721	0.14773227
134	0x3d3e520b	0.04646496
135	0xbdea985a	-0.1145484
136	0x3cde7aa4	0.027158089
137	0x3cff580d	0.031169916
138	0x3c3600d0	0.011108592
139	0xbd783f17	-0.060607042
140	0xbddd258f	-0.10798179
141	0x3d08d5f1	0.033407155
142	0xbd628e6d	-0.05531161
143	0x3d65064a	0.0559142
144	0x3d4cc43e	0.04999184
145	0xbcda6413	-0.026659047
146	0x3cf20c86	0.029546987
147	0x3e27062f	0.16310953
148	0xbce2edfb	-0.027701369
149	0x3dbd390c	0.092393965
150	0xbcf83842	-0.030300263
151	0xbd951726	-0.07279806
152	0x3ccf99b3	0.025341844
153	0x3e1e71b4	0.15473062
154	0x3c0b95c6	0.0085195955
155	0xbd786226	-0.060640477
156	0x3d95140f	0.072792165
157	0xbd9f61fe	-0.077823624
158	0x3dd576bd	0.10423038
159	0xbd6ea2c7	-0.058260705
160	0x3dd6df3b	0.104917966
161	0xbd1f3182	-0.038865574
162	0x3dce8390	0.10083687
163	0xbd4ac847	-0.049507406
164	0x3d09f96b	0.03368513
165	0x3c1de4cd	0.00963707
166	0xbde5d3d5	-0.112220444
167	0x3cd15be5	0.025556514
168	0x3d48a3d5	0.048984367
169	0x3d6de11e	0.058076017
170	0x3e100537	0.1406449
171	0x3d14be6e	0.03631442
172	0xbdccc759	-0.0999896
173	0x3dcf0c2e	0.10109745
174	0x3cfbeea7	0.030753447
175	0xbbfc7e6f	-0.0077055017
176	0xbd63ef3f	-0.055648085
177	0xbde81216	-0.113315746
178	0xbddda7d1	-0.10823024
179	0x3e1da976	0.15396675
180	0xbdfa8458	-0.12232274
181	0xbdcae592	-0.09907068
182	0xbd9cd821	-0.07658411
183	0x3d04efaf	0.032455143
184	0x3d025cf4	0.03182693
185	0xbda47b3c	-0.080313176
186	0xbdd9bdb4	-0.10631886
187	0x3d7cec01	0.06174851
188	0xbd428d91	-0.04749829
189	0xbdcb9453	-0.099404
190	0xbdc4bf33	-0.09606781
191	0xbce0df87	-0.027450336
192	0xbd74f363	-0.059802424
193	0x3dbb98cf	0.09160005
194	0x3c05a261	0.00815639
195	0x3dd9ce91	0.106351025
196	0xbe01bb4b	-0.12669103
197	0xbdb4e66d	-0.08833013
198	0xbdb9c597	-0.090708904
199	0xbd305be1	-0.043056373
200	0xbcd31df4	-0.025771119
201	0x3ceb484e	0.028721001
202	0xbdd7c280	-0.10535145
203	0x3d758456	0.05994066
204	0x3d16770d	0.03673463
205	0x3bc81cae	0.0061069345
206	0x3e05a312	0.13050488
207	0xbdffe067	-0.12493973
208	0xbd8a745a	-0.067604735
209	0x3dd34508	0.10315901
210	0xbd1b38e4	-0.037896052
211	0xbd815b99	-0.06316299
212	0x3c5af6cd	0.013364506
213	0x3d234880	0.039864063
214	0x3d35e5b4	0.044408515
215	0xbc07b820	-0.008283645
216	0x3ce31456	0.027719658
217	0x3e1a36ad	0.1505992
218	0xbddd85e7	-0.108165555
219	0x3ccb374d	0.024806643
220	0xbd655022	-0.055984624
221	0xbdc445dc	-0.09583637
222	0x3dface1b	0.12246343
223	0xbd4a6df8	-0.04942128
224	0xbd468656	-0.048467956
225	0x3c9719a8	0.018444851
226	0xbd13a585	-0.036046524
227	0xbd0ef610	-0.034902632
228	0x3ddf0cb2	0.10891093
229	0xbd0eace4	-0.03483285
230	0xbe018f0c	-0.12652224
231	0x3c482605	0.012216096
232	0xbe02f0a1	-0.12787105
233	0x3dc9d7aa	0.09855588
234	0x3cbc39a2	0.0229767
235	0xbc835917	-0.016033692
236	0xbd81af1f	-0.0633223
237	0x3da9a3e6	0.08283214
238	0x3b0d0021	0.002151497
239	0x3df4d5da	0.119548514
240	0x3e041706	0.12899408
241	0xbd2abb27	-0.04168239
242	0x3d906a53	0.0705153
243	0xbdab65df	-0.0836904
244	0x3d1e59f8	0.03866002
245	0xbc8e2f96	-0.017356675
246	0x3e0a383e	0.13498017
247	0x3da73825	0.081650056
248	0x3da1ced4	0.079007775
249	0x3dca7cc7	0.09887081
250	0x3d25850e	0.040410094
251	0xbd5b8cb9	-0.053601
252	0xbd365145	-0.0445111
253	0x3cfe26e2	0.0310244
254	0xbd90ae48	-0.070644915
255	0x3d5a7287	0.053331878

encoder.4.bias f4 [32]
0	0x3c63af02	0.013896706
1	0xbc95bf30	-0.018279642
2	0x3e089ed1	0.13341834
3	0xbd21dfb6	-0.039519988
4	0xbd63bfa8	-0.0556027
5	0x3d256dc5	0.040387888
6	0x3d7d9833	0.061912727
7	0xbd83a093	-0.064271115
8	0xbd52fe0d	-0.051511813
9	0x3d0e66b0	0.0347659
10	0xbdf56823	-0.11982753
11	0x3d901090	0.07034409
12	0xbdef21c5	-0.11676363
13	0xbdfc8291	-0.12329591
14	0xbdb25ac5	-0.08708719
15	0x3d3c333a	0.04594729
16	0xbe047170	-0.12933898
17	0x3db6cbce	0.089255914
18	0xbdb489f0	-0.08815372
19	0xbd5ec2a7	-0.054384854
20	0xbde1b3cc	-0.11020622
21	0x3d471571	0.048604432
22	0xbe03c077	-0.12866388
23	0xbd9f3db6	-0.07775442
24	0x3e073fa5	0.13207872
25	0xbcc43636	-0.023951631
26	0xbdc73748	-0.09727341
27	0x3db6144a	0.088905886
28	0x3dfcdb64	0.12346533
29	0xbdbbf3e5	-0.091773786
30	0x3e0c86a6	0.1372324
31	0xbd7d1245	-0.061785

encoder.5.weight f4 [32]
0	0x3f81beb0	1.0136318
1	0x3f7d89c5	0.99038345
2	0x3f7f95b6	0.99837816
3	0x3f82af84	1.0209813
4	0x3f807292	1.0034964
5	0x3f83f046	1.0307701
6	0x3f805b49	1.0027858
7	0x3f7c8d86	0.9865345
8	0x3f7ad54b	0.9798171
9	0x3f82bab4	1.0213227
10	0x3f848bae	1.0355127
11	0x3f7d9c90	0.9906702
12	0x3f7f7775	0.9979165
13	0x3f7da4a8	0.9907937
14	0x3f7c8077	0.9863352
15	0x3f808c56	1.0042827
16	0x3f80cdf0	1.0062847
17	0x3f83522c	1.0259452
18	0x3f8434dc	1.0328631
19	0x3f7ec87b	0.9952466
20	0x3f8486cf	1.035364
21	0x3f815d9c	1.0106692
22	0x3f82a592	1.0206778
23	0x3f82ec50	1.0228367
24	0x3f7fbd4f	0.99898237
25	0x3f7cd7b5	0.9876664
26	0x3f810caa	1.008199
27	0x3f7d0aaa	0.988444
28	0x3f81e3ed	1.0147682
29	0x3f83340b	1.0250257
30	0x3f8618e7	1.047635
31	0x3f7d242b	0.9888331

encoder.5.bias f4 [32]
0	0x3c6d0735	0.01446705
1	0x3be2baf7	0.0069192606
2	0x3c439a9c	0.011938717
3	0x3ca0f679	0.019648777
4	0x3cb2721b	0.021782925
5	0x3cc77a69	0.024350362
6	0x3c9ff456	0.019525688
7	0x3c047539	0.008084589
8	0xbb25bf07	-0.0025290863
9	0x3cabb6cf	0.020961193
10	0x3d474b2c	0.048655674
11	0x3c34b65e	0.011029808
12	0x3c935a9b	0.01798754
13	0x3c8991fe	0.016793247
14	0xba1adf86	-0.00059079414
15	0x3ba97421	0.0051713143
16	0x3ca881a6	0.020569634
17	0x3cad8ceb	0.021185359
18	0x3cd108d0	0.025516897
19	0x3c7b1c8c	0.01532663
20	0x3d1b2643	0.037878286
21	0xbb257ea2	-0.002525248
22	0x3c3e3f7a	0.011611814
23	0x3d001868	0.031273276
24	0x3c7aafc5	0.015300696
25	0x3b95cd74	0.004571611
26	0x3c98fdf1	0.018675776
27	0x3c078ce9	0.008273342
28	0x3c8addc4	0.01695145
29	0x3d09e821	0.03366864
30	0x3cd2801a	0.02569585
31	0x3c16d5d6	0.009206256

encoder.5.running_mean f4 [32]
0	0xbbca4fc7	-0.006174061
1	0xbe6d3c6b	-0.23167579
2	0x3d7ef15b	0.062241893
3	0xbe0fe4d2	-0.14052132
4	0xbe17c588	-0.14821446
5	0x3c5ca4b7	0.013467005
6	0xbe00b34b	-0.12568395
7	0x3ebb031b	0.36525807
8	0x3ed12a20	0.4085245
9	0xbe77d071	-0.24200608
10	0xbe5a460c	-0.21315783
11	0xbed12155	-0.40845743
12	0xbed269c1	-0.4109631
13	0xbea366da	-0.31914407
14	0x3dfbb38f	0.122901075
15	0x3e498f03	0.19683461
16	0xbe113ad9	-0.14182605
17	0x3e92df39	0.2868593
18	0xbe1ebab3	-0.15500908
19	0xbf0aaa74	-0.5416634
20	0xbe45aef8	-0.19305027
21	0x3e9a8409	0.3017886
22	0xbe140301	-0.14454271
23	0xbe5895a5	-0.21150835
24	0xbda2996f	-0.079394214
25	0xbf021b88	-0.5082326
26	0xbe772fae	-0.24139282
27	0xbe9e13c1	-0.30874446
28	0x3e92de1f	0.2868509
29	0xbe11db42	-0.14243796
30	0x3e690f26	0.22759685
31	0xbf80eb13	-1.0071739

encoder.5.running_var f4 [32]
0	0x3e81ccbd	0.25351515
1	0x3e139abf	0.144145
2	0x3ddfbddf	0.10924887
3	0x3e0c5edd	0.13708062
4	0x3e110c54	0.14164859
5	0x3d8f4a8d	0.06996641
6	0x3e1bed21	0.15227176
7	0x3e2f0ef6	0.17095551
8	0x3dd9e181	0.106387146
9	0x3dc7c93e	0.09755181
10	0x3e284747	0.1643344
11	0x3e18a168	0.14905322
12	0x3e0338c9	0.1281463
13	0x3e11d48a	0.14241233
14	0x3e336acf	0.17521213
15	0x3e1450d4	0.14483958
16	0x3d9a6c2a	0.07540162
17	0x3d700d6d	0.058606554
18	0x3d74b1fa	0.059740044
19	0x3d9fc4fd	0.078012444
20	0x3d3f51d2	0.04670889
21	0x3e11ed29	0.14250626
22	0x3dedea36	0.11616938
23	0x3de0486a	0.10951312
24	0x3e8f1345	0.2794439
25	0x3e89ef9d	0.26940623
26	0x3d992fa9	0.074797936
27	0x3dec8db7	0.115504675
28	0x3d00aa1b	0.031412225
29	0x3d924b72	0.07143296
30	0x3daa0956	0.08302562
31	0x3e9a47c8	0.3013289

classifier.1.weight f4 [32, 320]
0	0x3d35f90e	0.04442697
1	0x3af1fd42	0.0018462318
2	0xbb4b7d94	-0.0031050192
3	0x3cee041e	0.029054698
4	0xbd59daeb	-0.053187292
5	0xbb07ab6c	-0.002070154
6	0x3d545e5c	0.0518478
7	0x3c5b5769	0.013387539
8	0x3d6b61d2	0.057466336
9	0x3d1f6d6c	0.038922712
10	0x3d17d157	0.037064876
11	0x3d5fef70	0.054671705
12	0xbccd7c1f	-0.0250836
13	0x3ada1972	0.0016639663
14	0x3be8800f	0.007095344
15	0x3ba614e6	0.0050684093
16	0xbc9d68f4	-0.019215085
17	0x3d363b6e	0.04449027
18	0x3c364c29	0.011126556
19	0x3d35fb36	0.044429027
20	0x3c824019	0.015899705
21	0x3c5e613f	0.01357299
22	0x3d0e5f88	0.034759074
23	0x3c087629	0.008328953
24	0x3d2b0e1e	0.04176151
25	0xbbddf385	-0.0067734146
26	0x3d1425cf	0.03616887
27	0x3d8a3418	0.06748217
28	0x3db2d439	0.087318845
29	0x3d95e5b5	0.07319204
30	0x3be2c924	0.0069209505
31	0xbd4bf1fa	-0.049791314
32	0xbb7671f4	-0.0037604542
33	0x3d578f63	0.05262698
34	0xbcff901d	-0.031196648
35	0x3cbe8e03	0.023261076
36	0x3d9acf5d	0.07559083
37	0x3d5299d5	0.051416237
38	0x3dbfff0a	0.09374817
39	0x3c833f66	0.016021442
40	0xbcd5fc62	-0.026121322
41	0x3d4c39df	0.049859878
42	0x3c9c5218	0.019082114
43	0x3d7008fd	0.058602322
44	0xbd22e01a	-0.0397645
45	0xbcd670f4	-0.026176907
46	0x3d8ca640	0.06867647
47	0x3d6eb2c7	0.058275964
48	0x3d863537	0.06553119
49	0x3d219cd1	0.039456192
50	0xbb84a939	-0.004048493
51	0xbc371973	-0.011175501
52	0xbb070d7f	-0.002060741
53	0xbdc3b7ee	-0.09556566
54	0x3db26c14	0.087120205
55	0x3cccdb76	0.02500699
56	0x3d10a48c	0.035313174
57	0x3ca02fd8	0.019554064
58	0xbd305996	-0.043054186
59	0x3c93124a	0.017953057
60	0x3cc530da	0.024071146
61	0x3ac0876f	0.00146888
62	0xbd2e2c34	-0.042522624
63	0xbcb69901	-0.022289755
64	0xbc970873	-0.018436646
65	0x3d92879e	0.07154773
66	0x3d9037c6	0.07041888
67	0x3ca6319c	0.020287327
68	0x3d323ed3	0.043516945
69	0x3ce89b21	0.028394284
70	0xbc709d10	-0.014685884
71	0xbcb6e554	-0.022326149
72	0x3bb9c1df	0.005668863
73	0x3c3ce66a	0.011529544
74	0xbbd2bd24	-0.0064312387
75	0x3c6c223b	0.014412458
76	0xbc1e5896	-0.009664675
77	0xbc298245	-0.010346
78	0xbcb99fca	-0.022659201
79	0xbd0d7718	-0.034537405
80	0x3d1f50bc	0.038895354
81	0xbd0551df	-0.03254878
82	0xbc02e45f	-0.007989018
83	0x3c1407c3	0.009035054
84	0xbce83b3b	-0.028348556
85	0xbd21a362	-0.039462455
86	0x3cc73cd9	0.024321007
87	0x3a8a9d8b	0.0010575516
88	0x3cb6f1af	0.02233204
89	0xbd120754	-0.03565152
90	0xbd8beb59	-0.068319984
91	0x3d9b2f0f	0.07577335
92	0xbd8412fd	-0.06448934
93	0x3d6fb4d2	0.058522053
94	0xbd8a4526	-0.0675147
95	0xbd408436	-0.047001086
96	0xba90ed95	-0.0011057133
97	0x3bf68122	0.007522718
98	0xbbc77f54	-0.0060881767
99	0x3c81e7e9	0.015857654
100	0x3c1f13db	0.009709324
101	0x3c59209c	0.013252404
102	0xbd0a130f	-0.033709582
103	0xbd0b2489	-0.03397039
104	0x3a8682b0	0.0010262337
105	0x3cf15503	0.029459482
106	0x3d2cddc9	0.0422037
107	0x3d9a977e	0.07548426
108	0x3d42ddbd	0.047574747
109	0x3db19e0e	0.08672725
110	0x3bbf1ebf	0.0058325226
111	0x3bb965b9	0.0056578782
112	0xbc1732c0	-0.009228408
113	0xbd04a3d6	-0.03238281
114	0x3d3db1a1	0.04631198
115	0xbccda6e4	-0.025103994
116	0xbcbe7099	-0.02324705
117	0x3d27c500	0.04095936
118	0x3b0b9e11	0.0021303932
119	0x3d226636	0.039648257
120	0x3ae04b99	0.0017112374
121	0xbae1004a	-0.0017166224
122	0xbd5838c8	-0.052788526
123	0xbbb7a669	-0.0056045544
124	0xbd4fe080	-0.05075121
125	0x3d27f0f2	0.041001268
126	0xbc6d3770	-0.014478549
127	0x3d5a10d0	0.05323869
128	0xbc815b5f	-0.01579064
129	0x3adb7da0	0.0016745813
130	0x3d332b08	0.04374221
131	0xbc7580dc	-0.014984336
132	0x3cf9fe80	0.030516863
133	0x3d45cd39	0.04829142
134	0x3c7275c3	0.014798584
135	0xbb12f49c	-0.002242363
136	0xbc08a88e	-0.008340968
137	0xbc0c34cd	-0.008557511
138	0xbd251be2	-0.040309794
139	0x3d5119dd	0.051050056
140	0xbbae36a6	-0.005316573
141	0x3d391994	0.04519041
142	0x3d08806a	0.03332559
143	0xbd3aa05d	-0.04556309
144	0xbd8bb649	-0.068218775
145	0xbd392700	-0.04520321
146	0x3ce5eab9	0.028066026
147	0xbcc17ba0	-0.02361852
148	0x3b2e5eae	0.0026606726
149	0x3d5bb390	0.05363804
150	0x3c151607	0.00909949
151	0x3cfc4c2a	0.030798037
152	0x3cd9359a	0.026514817
153	0x3d4bd79e	0.049766175
154	0xbcf466a2	-0.029834095
155	0xbd65f698	-0.056143373
156	0xbc94ee1e	-0.01817995
157	0x3d2467e7	0.04013815
158	0xbd38c05f	-0.045105334
159	0xbccf2a5c	-0.025288753
160	0x3d3e4a86	0.04645779
161	0x3b229b17	0.002481168
162	0xbd045ef5	-0.03231712
163	0xbc9f9d64	-0.01948423
164	0xbc8467cd	-0.016162777
165	0x3cd551f0	0.026040047
166	0xbd823bf0	-0.063590884
167	0xbd8e861a	-0.069591716
168	0xbb45968e	-0.0030149552
169	0xbd3e10bf	-0.04640269
170	0x3d9046dc	0.07044765
171	0x3c037c4f	0.008025243
172	0xbc785500	-0.015156984
173	0xbd21cffc	-0.03950499
174	0xbd081400	-0.0332222
175	0x3d95fba2	0.07323386
176	0x3c89f951	0.016842516
177	0x3d8ea4ee	0.069650516
178	0xbc77fcbb	-0.015135939
179	0x3cd0d9d1	0.025494488
180	0x39ef4eb6	0.00045644277
181	0xbd0ab3ec	-0.033862993
182	0x3d9ecef9	0.07754321
183	0x3ce20eb7	0.027594907
184	0xbd781bb5	-0.0605733
185	0xbc8aa2d9	-0.016923355
186	0xbd665a94	-0.056238726
187	0xbccc38e8	-0.024929479
188	0xbcdf84d2	-0.027285013
189	0x3c5a6644	0.013330046
190	0xbd5d15b9	-0.053975794
191	0x3cabb96a	0.020962436
192	0x3ce5ddc4	0.028059848
193	0x3d1b165b	0.037863117
194	0x3c5876e7	0.013211942
195	0x3cc7046a	0.024294097
196	0xbd8441a8	-0.064578354
197	0xbb2259ea	-0.0024772831
198	0xbccbf14b	-0.02489533
199	0xbbab7c28	-0.0052333064
200	0x3d8ece17	0.06972902
201	0xbc8a6c54	-0.016897358
202	0x3d2e31c7	0.04252794
203	0xbd53544a	-0.051594056
204	0x3d8956b8	0.067059934
205	0xbc512af1	-0.012766586
206	0x3d7916ff	0.060812946
207	0xbc8a0eff	-0.016852854
208	0x3da59742	0.08085491
209	0xbd14e6d6	-0.036352955
210	0xbc0e3dbe	-0.008681713
211	0xbaaf1684	-0.0013358151
212	0x3da25b20	0.07927537
213	0x3d6002f2	0.05469031
214	0xbccfe83c	-0.025379293
215	0xbcbd0749	-0.023074763
216	0x3d8a164f	0.06742536
217	0x3cfe40f4	0.031036831
218	0x3c84b13e	0.016197797
219	0x3cc69f8b	0.024245998
220	0xbd4c4590	-0.049871027
221	0xbbc4d369	-0.0060066474
222	0x3d3caf86	0.04606583
223	0xbd29264b	-0.041296285
224	0x3d5c31e1	0.053758506
225	0xbc6c6b1d	-0.014429835
226	0xbc708755	-0.014680703
227	0x3da9bf7c	0.08288476
228	0x3d008aeb	0.031382482
229	0x3d4f9c78	0.05068633
230	0x3cfdace9	0.030966239
231	0xbd79c230	-0.060976207
232	0xbd20c53e	-0.039250605
233	0xbb397cae	-0.0028303075
234	0x3d101242	0.035173662
235	0xbd860658	-0.06544179
236	0x3c89f205	0.016839037
237	0xbcc8f8e4	-0.024532743
238	0x3d1da62a	0.038488545
239	0x3d0e6f32	0.034774013
240	0x3cdb00ed	0.02673384
241	0x3c5ce1e6	0.013481593
242	0x3b91a885	0.004445138
243	0xbcee3fdf	-0.02908319
244	0x3d1f63ea	0.038913645
245	0xbd9b3ca7	-0.07579928
246	0xbd5bcf37	-0.053664412
247	0x3c41598b	0.011801134
248	0xbcee5fb6	-0.029098373
249	0x3ccccd10	0.025000125
250	0x3c38ac3e	0.0112715345
251	0x3d72ad4e	0.059247307
252	0x3cf8a5d3	0.030352509
253	0x3c88c02e	0.0166932
254	0x3d666dc2	0.056257017
255	0x3c7a6764	0.015283439

classifier.1.bias f4 [32]
0	0x3d1e664e	0.038671784
1	0x3c529db7	0.012854985
2	0xbcf65d5f	-0.03007382
3	0x3cc576ef	0.024104564
4	0x3ccdde0a	0.02513029
5	0xbd25f12c	-0.040513203
6	0xbacc894d	-0.0015604884
7	0x3c9c4759	0.01907699
8	0x3d87567b	0.06608292
9	0xbd2fa8c5	-0.04288556
10	0xbcefaed8	-0.029258177
11	0xbc47e51d	-0.012200621
12	0x3d545c6a	0.051845945
13	0x3c900d39	0.01758443
14	0xbc85c086	-0.016327154
15	0x3d48a08f	0.048981246
16	0xbc8d9a86	-0.017285597
17	0x3ba8eee7	0.0051554325
18	0x3b8b1e39	0.004245546
19	0xbcb3dbaa	-0.02195533
20	0xbc931376	-0.017953616
21	0xbc2afb09	-0.010435828
22	0x3d26b76b	0.040702265
23	0xbccc7c46	-0.024961602
24	0xbc82ea4e	-0.015980866
25	0xbd537171	-0.051621858
26	0x3d733d9a	0.05938492
27	0x3cde2359	0.027116464
28	0xbce698a7	-0.028148962
29	0x3cda514e	0.026650097
30	0xbb672187	-0.0035267787
31	0xbca172c1	-0.01970804

classifier.3.weight f4 [1, 32]
0	0x3eeb13c8	0.4591353
1	0xbd29dcc4	-0.041470304
2	0x3ef00ea4	0.4688617
3	0x3e207f24	0.156735
4	0x3e906971	0.28205445
5	0x3c06bf2e	0.008224292
6	0xbe60fe95	-0.21972115
7	0x3eaaa6a1	0.33330253
8	0xbf1071bf	-0.5642356
9	0x3ee9880b	0.45611605
10	0x3d41ec69	0.0473446
11	0x3e07b710	0.13253427
12	0xbcb32bc8	-0.021871462
13	0xbe23be5e	-0.15990588
14	0x3e41a03c	0.18908781
15	0x3ca50ea7	0.020148588
16	0x3ea36d29	0.3191922
17	0x3eb5959e	0.3546571
18	0xbe8e63b0	-0.2781043
19	0xbecbf52e	-0.39835495
20	0x3e13344b	0.14375417
21	0xbec2234e	-0.3791756
22	0xbe2fbf59	-0.17162837
23	0x3ec933e0	0.3929739
24	0xbef9dbce	-0.4880051
25	0x3db49379	0.08817191
26	0xbed8f5d2	-0.42375046
27	0x3cbdf530	0.023188204
28	0x3ca2ed8a	0.019888658
29	0xbeabcdfd	-0.33555594
30	0x3e987570	0.29777098
31	0x3da679fa	0.08128734
