checkpoints/cnn_model/fold_2.pth (torch, 56010 bytes, 15 tensors)

encoder.0.weight f4 [16, 1, 3]
000000 d0 05 98 3e 08 44 06 bf 31 d1 0b 3d 5c 7e 93 3c
       0.29691935 -0.5244756 0.034135047 0.018004589
000010 48 39 0b 3f 37 fb cf 3e 81 84 97 be 24 68 a0 be
       0.5438428 0.4062135 -0.2959328 -0.31329453
000020 83 69 08 3d 79 af 0a be e3 48 9d 3d 6f 83 53 3e
       0.03330375 -0.135435 0.07679918 0.20655607
000030 30 48 fb be 21 b6 9b be 19 55 fd be cc 7e 89 be
       -0.49078512 -0.3041239 -0.49478987 -0.2685455
000040 3c 63 a9 3c 61 c7 0b be b3 10 2b bd 75 3c 15 3e
       0.020677201 -0.13650276 -0.041763972 0.14573844
000050 4f 41 10 bf 5f 37 04 bf c9 75 51 3d 16 80 03 bf
       -0.56349653 -0.5164699 0.05113772 -0.5136732
000060 35 33 8c be e5 fe b2 be 37 0d 89 3e 99 fb d9 3e
       -0.27382818 -0.34960094 0.26767895 0.42574766
000070 37 81 54 be ec b5 39 3e 75 21 e0 bd 35 2c 24 3d
       -0.20752417 0.18135804 -0.109438814 0.04008122
000080 a3 4c 01 3f 0f 34 0c bf af 9f cd 3e ba ba 80 3e
       0.50507563 -0.54766935 0.4016089 0.2514246
000090 36 88 22 be e6 61 e7 3e b6 aa 25 bd 55 d8 94 3d
       -0.15872273 0.45191878 -0.040446006 0.072678246
0000a0 2d 24 09 bf 80 b3 da 3e 78 ec 50 3e 5e c8 0c bf
       -0.53570825 0.42715073 0.20402706 -0.54993236
0000b0 c9 9d a1 bc 15 3b a3 3e ff f2 c4 3e c4 b7 b8 bd
       -0.019728558 0.31881014 0.3846664 -0.090194255

encoder.0.bias f4 [16]
000000 40 cd 39 3e 76 34 6e 3e 51 5f 7d bd a0 40 0a 3c
       0.18144703 0.232622 -0.06185848 0.008438259
000010 33 9f 33 be db 12 21 bc 7c 16 cf be 94 c6 03 be
       -0.17541198 -0.009831156 -0.40446842 -0.1286872
000020 a8 03 c4 be 9a d7 c2 3e 31 05 10 bf e0 e6 be 3d
       -0.3828404 0.38055116 -0.5625792 0.0932138
000030 36 17 81 be 77 9e 0a bf cd c0 c4 be 46 91 a3 be
       -0.2521302 -0.5414805 -0.38428345 -0.31946772

encoder.1.weight f4 [16]
000000 a6 b6 7c 3f 3c 45 81 3f 70 b3 80 3f cc 5b 7d 3f
       0.987162 1.0099254 1.005476 0.98968196
000010 40 4e 80 3f c6 ee 80 3f b8 c9 7a 3f fe 14 7f 3f
       1.002388 1.0072868 0.9796405 0.99641407
000020 35 7f 7e 3f 80 13 81 3f 0a c1 7e 3f d3 c5 7a 3f
       0.9941285 1.0084076 0.99513304 0.97958106
000030 20 5b 7d 3f 2e 48 81 3f a5 d3 7c 3f 01 62 7f 3f
       0.9896717 1.0100152 0.98760444 0.9975892

encoder.1.bias f4 [16]
000000 cb 1d 8b 3b e0 13 ef 3b e6 dd 0b 3c 37 97 2a 3a
       0.004245495 0.0072960705 0.008536791 0.0006507518
000010 3b f2 48 3c a4 54 49 3c 1e d8 78 bb 83 42 65 bb
       0.0122647835 0.012288246 -0.0037970613 -0.003498227
000020 11 b2 4b 3b 74 6e 04 3c 66 34 43 bb 0b 58 71 ba
       0.0031081478 0.008082975 -0.002978587 -0.000920654
000030 f8 39 0e bb 42 2b 93 3b a5 fa 26 bb f4 52 b5 3b
       -0.0021702033 0.0044912407 -0.0025478986 0.0055335704

encoder.1.running_mean f4 [16]
000000 58 4e 37 3e ad 1f 7b 3e d4 ee 8d bd 81 55 2a 3c
       0.1790098 0.24523802 -0.069303185 0.010396362
000010 2d d9 44 be 69 49 73 bc ad 39 d2 be d5 e7 10 be
       -0.19223471 -0.014849045 -0.41059628 -0.14150937
000020 80 5a c6 be b6 8b c5 3e c5 8f 0e bf 5c bf c1 3d
       -0.3874092 0.38583153 -0.55688125 0.09460327
000030 ef e5 7e be d2 b7 0a bf a7 2d c7 be 73 89 9f be
       -0.248924 -0.5418674 -0.38902017 -0.31159553

encoder.1.running_var f4 [16]
000000 86 73 82 3e 15 d0 17 3f 61 62 63 3e 8e 30 31 3d
       0.25478762 0.59301883 0.22205497 0.043259196
000010 56 cb 70 3f e9 c2 e6 3d a9 22 94 3e 73 a7 32 3f
       0.94060266 0.11267645 0.28932694 0.6978676
000020 39 9f 4a 3e 1e a7 6e 3e 6d 82 5f 3e f6 fd 9f 3e
       0.19787301 0.23305938 0.21827097 0.31248444
000030 88 10 33 3e 7c 94 a3 3e 93 b8 89 3e 28 ae 8e 3e
       0.17486775 0.31949222 0.2689863 0.27867246

encoder.4.weight f4 [32, 16, 3]
000000 39 6e a5 3c 9b 5c 14 3c 38 0d c1 bc 40 e9 f1 bc
       0.02019416 0.009055282 -0.023565874 -0.029530168
000010 84 29 2a 3c 26 54 84 3d 30 e4 54 3d 72 89 3f bd
       0.010385875 0.064613625 0.05197543 -0.046761937
000020 91 60 3a bd 10 7a 8f 3c 19 3d 72 3d e1 25 9a 3d
       -0.04550225 0.017514259 0.0591403 0.07526756
000030 d3 b8 58 3d 69 1d 0c 3d 4d b0 ad bd 90 cf af bd
       0.052910637 0.034207735 -0.08480892 -0.08584511
000040 2c 1a 0b be 1f d7 b7 3c 4f 3e dd 3d 55 06 6d bd
       -0.13584203 0.022441445 0.108029 -0.057867367
000050 b5 4b f3 3c 65 cd 8c 3b 67 d0 e3 bd dd a0 bb 3d
       0.029699186 0.004296946 -0.11123734 0.091615416
000060 ff 83 a7 3d 84 6a d9 3b 03 76 b0 bd 46 3b f0 3d
       0.08179473 0.006635012 -0.08616259 0.117300555
000070 f7 49 dc 3c e1 6f 08 3e 5b 91 8b 3d af 15 93 bd
       0.026890738 0.13323928 0.06814834 -0.0718187
000080 8f bc 5d bd 41 6f 9d bd 54 a4 32 3c 2d 94 ff bd
       -0.0541349 -0.076872356 0.010903437 -0.12479434
000090 47 33 d8 bd 7a 0b 03 3e 74 2f 6c bd 09 39 e2 bd
       -0.105566554 0.12797347 -0.057662442 -0.11046035
0000a0 0e 79 ed bd 06 ad 87 bd 63 1c 7f bd 00 04 34 3d
       -0.11595355 -0.066247985 -0.06228293 0.043949127
0000b0 2d 4f 07 3e 5b 33 3c bd 9b 77 f0 3d 06 85 c5 3b
       0.13213797 -0.045947414 0.11741563 0.0060278205
0000c0 4f ac a1 bd 3d d5 35 bd 49 63 fe bd 90 94 c0 bc
       -0.078941934 -0.044392813 -0.12421281 -0.02350834
0000d0 01 47 02 bc ea 9b 17 bd 0b 4b c0 3d bf 3b e9 bd
       -0.007951499 -0.037013926 0.09389313 -0.11388349
0000e0 04 bb d9 3d 31 2e 0c be 91 83 e9 3c 80 7a cb 3b
       0.106313735 -0.13689496 0.028505119 0.0062096715
0000f0 e5 11 3b 3d 0f b9 81 bd 2d e7 38 3d 84 8d 80 3d
       0.045671362 -0.06334125 0.04514234 0.06276992
000100 10 e4 be bd 4c 12 c2 bd 9c 49 9e 3c 55 b9 91 3d
       -0.09320843 -0.09476146 0.019322209 0.071154274
000110 21 75 e0 3d ba 22 95 bd 91 30 89 3d 63 e6 12 bb
       0.109598406 -0.07282014 0.066987164 -0.0022415153
000120 6d 86 8d bd ff 0a 9b 3d dd 22 d8 3d 67 ca 8b bd
       -0.06910405 0.07570457 0.10553525 -0.068257146
000130 c9 92 34 3d eb 66 bb 3d 24 cc 93 3d 90 2d ec 3d
       0.044085298 0.091504894 0.07216671 0.11532128
000140 8a ec 06 3e 32 81 86 bd 01 55 8e bd 02 c5 10 3d
       0.1317617 -0.06567611 -0.06949807 0.03534413
000150 9c 85 d4 bd 33 81 12 3c ec 4a 21 be 50 84 52 3d
       -0.103770465 0.008941936 -0.15751237 0.051395714
000160 b0 4f 1a be bd d7 40 bd 34 38 f6 3d d2 2f c2 3d
       -0.15069461 -0.047080744 0.12022439 0.09481777
000170 3a e4 a5 bd 50 ef 05 be b8 89 7a bd b3 ad 0c be
       -0.081001714 -0.13079572 -0.061166495 -0.13738136
000180 6d 6e c9 3c f4 c9 99 3d c4 d2 89 3d f4 06 0d 3c
       0.024588788 0.075092226 0.067296535 0.008607615
000190 22 e2 0e be 7e cf f0 3d 9b 53 88 3d 77 ea 10 3e
       -0.1395345 0.11758326 0.066565715 0.14151941
0001a0 b7 7f d2 bd 75 ce e9 3d d4 db b8 3d 20 21 b7 3c
       -0.10278266 0.11416332 0.09026304 0.022354662
0001b0 8b 31 03 bd 7d fb 00 be 1e 39 bc 3d 99 6a fe 3d
       -0.03202967 -0.12595935 0.09190582 0.12422676
0001c0 0a b7 83 3d dc 64 a1 bd 8c bf af bd 26 92 99 3d
       0.06431396 -0.078805655 -0.085814565 0.07498579
0001d0 48 ac ab bd c8 40 e8 bd 6f 57 41 3d 27 5c ef bd
       -0.083824694 -0.11340481 0.047202524 -0.116874985
0001e0 04 a9 0c 3e ea c1 14 bd 5e 05 fe bd b9 54 bd bd
       0.1373635 -0.036317743 -0.124033675 -0.09244675
0001f0 ba 35 9b 3c 6f f6 f7 bd 25 87 fd bd 50 0b e2 bd
       0.018946517 -0.1210755 -0.123792924 -0.11037314
000200 af 27 f5 bc 88 e8 05 bd b7 81 10 be 95 04 51 3a
       -0.02992615 -0.032692462 -0.14111982 0.00079734
000210 cc 5b f6 3c d9 18 48 3c c8 79 cd 3d 3d b4 3e bc
       0.030073069 0.012212955 0.100329936 -0.011639652
000220 d4 3a c0 bd c3 d6 da 3d 9a 29 f3 3d 30 14 f9 bd
       -0.093862206 0.10685494 0.11873169 -0.121620536
000230 a8 f0 95 3d 6c 63 bd 3c cd 14 02 be 05 b6 d7 bd
       0.07321292 0.023118697 -0.12703247 -0.10532764
000240 4e 45 ae 3d 0b 08 ad bc 0e 88 4f 3d c5 35 00 be
       0.085093126 -0.021122 0.05066686 -0.12520511
000250 68 04 48 bd 81 c2 a4 bd c3 d6 b4 bc 04 ab 05 3e
       -0.048832327 -0.08044911 -0.022075063 0.13053519
000260 71 d1 74 3d 19 1d c0 bd 01 7e fc bd 77 fb e5 3c
       0.05977005 -0.0938055 -0.12328721 0.02807401
000270 ea 8d 14 3e 4e 75 52 bd d9 3c 9d bd e8 88 5d bc
       0.14507261 -0.0513814 -0.076776214 -0.0135214105
000280 d2 f4 e6 3d 67 d1 61 3b 78 a9 b2 3d 9e ca 05 be
       0.112771645 0.003445709 0.0872373 -0.13065574
000290 19 c0 02 be 63 b6 e6 bb 55 bd 71 bd 8b 04 d1 bd
       -0.12768592 -0.007040785 -0.05901845 -0.10205945
0002a0 8c 7b ae bc c4 df 3f 3d d1 a0 ab 3c e4 cb d1 3a
       -0.021299146 0.04684426 0.020950707 0.0016006199
0002b0 44 4e 79 3d 83 6f 58 bd 45 3b 30 bd c4 ed c7 3d
       0.060865656 -0.05284072 -0.043025274 0.09762147
0002c0 92 50 11 be 02 30 57 3d b0 27 7f 3d f6 b4 d2 bd
       -0.14190891 0.05253602 0.06229371 -0.10288422
0002d0 a4 6e dc bb 4e b3 ee bd 53 b3 e4 bd 4e 0e 49 3d
       -0.0067270566 -0.116552934 -0.11167016 0.049085908
0002e0 21 8d 17 be 8b f4 04 3d b9 54 9c bd 13 b2 96 3d
       -0.1479993 0.032459777 -0.07633347 0.07358184
0002f0 b3 a1 7f bd 75 90 33 bc 1c e9 ba 3d c2 0e 52 3d
       -0.062410068 -0.010959734 0.09126493 0.051283605
000300 11 ef ad bd ac 79 ef bd c0 69 fb 3b 2c 9c 01 be
       -0.08492864 -0.11693129 0.0076725185 -0.12657231
000310 4c d1 47 3d cb ea 0c be 76 6f c4 3c a5 a0 12 be
       0.048783585 -0.13761441 0.02397893 -0.14319094
000320 06 d1 49 bd c1 57 1b 3d 2d 93 e1 bd bb 7f d7 3d
       -0.049271606 0.037925486 -0.110144 0.105224095
000330 ea d9 d2 3d 18 a0 04 3e 29 0d 9c bd fb 04 34 bd
       0.1029547 0.12951696 -0.076196976 -0.043950062
000340 76 69 c7 3d b2 39 81 3d cb d9 65 bd 4e 4b f2 3c
       0.09736912 0.06309833 -0.056115907 0.029576924
000350 c7 7c fe bd eb 1f b0 ba 91 69 af bd f3 bd 15 bd
       -0.12426143 -0.0013437247 -0.08565057 -0.036558103
000360 94 ac de 3d 06 c5 e7 3d c1 b3 e1 3d 4d f6 a6 bd
       0.108727604 0.11316876 0.110206135 -0.08152447
000370 14 4b c4 3d 9e e3 ad bd 36 1d 90 3d fe 26 4d bd
       0.095846325 -0.0849068 0.070368215 -0.050086014
000380 8d 79 78 3d 16 8a a3 3c a4 11 15 3d 17 07 7c bd
       0.060662795 0.019963305 0.036393777 -0.0615302
000390 e8 1b 4e 3d 59 30 a6 3d 11 67 c9 3c 80 9d d2 bd
       0.050319582 0.0811469 0.024585279 -0.10283947
0003a0 11 9b a0 3c 57 27 c8 3d 2b 96 f7 3d e9 ee 89 bd
       0.019605191 0.097731285 0.12089189 -0.067350216
0003b0 c9 a3 48 bd cb 98 04 be c3 09 cd bd 56 61 e7 3d
       -0.048984323 -0.12948911 -0.100116275 0.11297862
0003c0 31 af 86 3d 8b 90 18 bb 7e aa 9b bd 07 79 84 ba
       0.06576384 -0.0023279514 -0.07600878 -0.001010687
0003d0 7e 22 a2 bd ee 27 83 3d 89 d4 f3 bd 5b b9 21 bd
       -0.07916735 0.064041 -0.11905772 -0.03948341
0003e0 fa c5 b7 bd 73 d4 3c bb 4c 03 8a bd a8 94 1d be
       -0.08973308 -0.0028813153 -0.0673891 -0.15388739
0003f0 d6 7a 1c 3c 58 88 2d 3c f2 b6 e5 3d 09 ca 8a 3c
       0.009550771 0.010591589 0.11216535 0.016942041

encoder.4.bias f4 [32]
000000 9e c1 d5 3c e5 08 52 3d 2d e2 7d 3d 14 16 4d 3d
       0.0260933 0.051278014 0.061983276 0.050069883
000010 c5 5a 0e 3e a6 4d 79 bd a7 50 e1 bd bf e5 9d bc
       0.13901813 -0.060865067 -0.11001711 -0.01927459
000020 12 f1 a5 bd 10 bc 67 3d 3f e8 0f be 0e c3 a6 bd
       -0.08102621 0.056575835 -0.14053439 -0.081426725
000030 d2 d8 dd bd 72 3c 9d bc a6 b4 d0 bd 92 d8 4e 3d
       -0.10832371 -0.019193862 -0.10190706 0.050499506
000040 a1 77 96 bc ce b8 0e 3e 2c 6e 86 bc 59 12 17 3c
       -0.01836759 0.13937685 -0.016409956 0.009220683
000050 5d a7 fe 3d 44 c9 e3 bd ad bb c1 bd 6b df 06 3e
       0.12434266 -0.11122373 -0.094596244 0.13171165
000060 a3 f3 11 3d 4e 17 f8 bd cf 5a 86 bd e0 60 83 bc
       0.03563274 -0.1211382 -0.06560289 -0.016037405
000070 e0 e0 92 3d 24 96 02 be 13 05 ff 3d cc c7 3a bd
       0.07171798 -0.12752587 0.1245214 -0.045600697

encoder.5.weight f4 [32]
000000 c8 16 82 3f 98 c9 80 3f 1e 67 80 3f b7 a3 80 3f
       1.0163202 1.0061522 1.0031469 1.0049962
000010 1a 70 80 3f 82 14 81 3f 52 20 82 3f 95 bb 82 3f
       1.0034211 1.0084383 1.0166113 1.0213495
000020 a1 ee 80 3f a8 7d 80 3f 38 4f 81 3f 86 db 80 3f
       1.0072824 1.0038347 1.0102301 1.0066993
000030 80 c4 82 3f 61 b3 80 3f b1 70 80 3f 9b 58 81 3f
       1.0216217 1.0054742 1.0034391 1.0105165
000040 10 11 81 3f 83 ed 7e 3f f4 75 7f 3f 26 73 80 3f
       1.0083332 0.99581164 0.9978936 1.003514
000050 07 64 81 3f ed be 83 3f 83 4b 83 3f d2 94 81 3f
       1.0108651 1.0292641 1.0257419 1.0123541
000060 70 5a 81 3f b8 08 81 3f ef 85 82 3f b8 ad 81 3f
       1.0105724 1.0080786 1.0197123 1.013114
000070 93 22 80 3f 6b 78 81 3f 64 b8 81 3f b3 00 82 3f
       1.0010551 1.0114874 1.0134397 1.0156463

encoder.5.bias f4 [32]
000000 9b 67 5e 3c c1 67 ce 3b 13 fc c4 3b 9a 65 96 3b
       0.013574506 0.0062989895 0.006011495 0.0045897486
000010 1f 38 92 3b 73 d7 46 3c f9 69 6a 3c 77 65 46 3c
       0.0044622566 0.012136328 0.014307492 0.012109152
000020 c6 24 dd 3b e0 c4 a1 3b 3a 52 40 3c 27 68 e6 3b
       0.0067487685 0.0049367994 0.011738354 0.007031459
000030 e3 d2 7e 3c be ad 0f 3c d0 89 a0 3b 3c e5 00 3c
       0.015553209 0.008769451 0.004899241 0.007867154
000040 3f 1a 97 3b 9b 97 95 3a bb 73 21 3a 61 0f d3 3b
       0.004611283 0.001141298 0.0006158908 0.0064410423
000050 a6 a6 a2 3b 1d 44 d5 3c f7 6d 92 3c ff d4 6a 3c
       0.0049637137 0.026033456 0.017874701 0.014333009
000060 81 56 4e 3c 33 5f f2 3b d1 ef 64 3c 31 98 2b 3c
       0.012593866 0.0073966025 0.013973192 0.010473297
000070 06 f1 ab 3b b4 81 45 3c 20 9a 6f 3c f4 fa 76 3c
       0.005247238 0.012054849 0.014624149 0.01507448

encoder.5.running_mean f4 [32]
000000 92 e7 2c bd cf 67 69 be df d9 2e be e3 39 ab be
       -0.04221303 -0.22793506 -0.17075299 -0.33442602
000010 17 55 7d 3d 88 97 ce be 5f b2 9c be 1a 70 53 3d
       0.061848726 -0.40349984 -0.30604836 0.05162058
000020 60 c6 02 bf 26 48 0c 3f f8 70 cc 3d 5f fe 07 3f
       -0.51083946 0.5479759 0.099824846 0.53122514
000030 df 1f 1f 3e 50 94 7c be 1c 3c 4d bf db ce cb 3e
       0.15539502 -0.24665952 -0.80169845 0.39806256
000040 52 8c 93 bb 61 e6 59 3f 12 38 f2 3e 28 0c eb 3d
       -0.0045028115 0.85117155 0.47308403 0.11476928
000050 7c 5b 45 3e 7b 36 a4 3d 2e da 04 3e 94 fa c7 3d
       0.1927318 0.08018204 0.12973854 0.09764591
000060 60 7e fb bd a4 44 46 3e 0a 53 9d 3d 77 e7 77 3e
       -0.122799635 0.19362122 0.07681854 0.2420939
000070 40 b2 26 3f 91 82 03 be 05 51 14 3f 63 df 33 bd
       0.6511574 -0.12842776 0.57936126 -0.04391421

encoder.5.running_var f4 [32]
000000 46 ff f8 3d 0d 1f f8 3d 56 b6 d2 3d 43 37 1f 3e
       0.121580645 0.121152975 0.10288684 0.15548424
000010 36 ec 9b 3d 8d 4c d1 3d 18 e6 eb 3d e8 b1 2d 3e
       0.07613413 0.10219679 0.11518496 0.16962397
000020 67 92 07 3e 31 f2 80 3e 5f 9c cd 3d 6d 29 79 3e
       0.13239442 0.25184777 0.10039591 0.24332209
000030 55 dc f8 3d 7a 16 1c 3e a0 17 2c 3e 92 3f 01 3e
       0.121514 0.15242949 0.16805887 0.12621906
000040 af 40 fe 3d da 99 29 3e de 8c 5d 3e d9 e4 2c 3e
       0.12414681 0.16562596 0.21635768 0.16884173
000050 ab d6 05 3e f2 44 15 3e f0 fd 1a 3e 0a 1d aa 3e
       0.1307017 0.14577082 0.15135932 0.3322528
000060 92 c7 23 3e 55 3f 43 3e 93 16 47 3d 51 16 17 3e
       0.15994099 0.19067128 0.048605513 0.14754607
000070 98 aa 32 3e 16 80 fe 3d 58 cc 81 3e 90 3c c4 3d
       0.17447889 0.12426774 0.25351214 0.09581864

classifier.1.weight f4 [32, 320]
000000 57 1a 87 3d 6e 9e c7 ba f4 23 00 3d 66 6b 22 3d
       0.06596821 -0.0015229711 0.031284288 0.039653204
000010 fa 48 f4 bc b2 3b 08 3d 1c 76 a5 3c 95 8b 53 bd
       -0.029819954 0.033260055 0.02019792 -0.051646788
000020 3f d7 80 3c ba 2c 67 bd f4 14 e7 bc e0 aa 51 bd
       0.015727637 -0.05643914 -0.028208233 -0.05118835
000030 a2 7f 47 3c 66 eb 5b 3c ca 1f 2a bc c4 58 91 3d
       0.012176426 0.013422823 -0.010383556 0.07097009
000040 c3 2d 61 bc 89 a6 89 bb 5c f2 f3 ba 92 77 55 bb
       -0.013743821 -0.0042007607 -0.0018611657 -0.003257249
000050 87 91 27 3d 31 eb a7 bb 62 c9 af bc cc bf 15 bd
       0.04091027 -0.0051244725 -0.021458331 -0.036559865
000060 36 8b 1d 3c 5f f2 f1 3b aa 99 7f 3d 95 b3 ed bb
       0.00961571 0.007383629 0.062402405 -0.007254074
000070 a2 d6 ac 3b ca c8 cf 3c 1d 50 03 bd be 8c b3 3b
       0.0052746097 0.025364298 -0.032058824 0.0054794243
000080 0d be fe 3b 9b 50 ea bc 43 5a b4 3c c8 68 fd 3c
       0.0077741207 -0.028602889 0.022015696 0.030933753
000090 29 8b 48 3d 53 2c a1 3c 9e 9b d9 3c d6 e0 aa bb
       0.04896084 0.019674456 0.026563462 -0.005214791
0000a0 d6 69 27 3d 16 f3 95 bd f2 b2 2e 3d 56 91 ed bc
       0.040872417 -0.073217556 0.042651124 -0.028999966
0000b0 c0 57 24 3b 50 a5 8e bb d5 43 b8 bc 88 32 54 bd
       0.0025076717 -0.004353203 -0.022493282 -0.051806003
0000c0 2a c1 70 3c 01 27 9d bc c5 bd cf 3c a4 d5 8d 3c
       0.014694491 -0.019183638 0.025359044 0.017313786
0000d0 33 b5 50 bc cf 98 9e bc 4c e8 a3 3d 66 2a d1 bc
       -0.012738514 -0.019359974 0.080032915 -0.025532912
0000e0 07 a2 8a 3d b5 76 19 3d ee c9 d4 bc 5a 04 56 3d
       0.067691855 0.037466723 -0.025975194 0.052250244
0000f0 13 ba a9 39 fe fd fe bc 11 fd 45 3b a7 c7 4e bc
       0.00032372828 -0.031126972 0.0030210654 -0.012620843
000100 39 0a bf 3c 95 de cf bc c9 02 e1 bb a5 14 81 3d
       0.023320304 -0.02537469 -0.006866787 0.06302766
000110 a9 7e 87 3d 71 28 52 3d 73 5f 95 3d 84 8e b6 bb
       0.066159554 0.0513081 0.07293596 -0.0055711884
000120 b1 61 b3 3c 23 99 07 3d e5 a6 b7 bc cf 1e 4d bd
       0.021897169 0.033105027 -0.022418449 -0.05007821
000130 a3 73 02 bd 37 5b 82 bd e1 0d 0c 3d 8f 73 30 bd
       -0.03184856 -0.06365054 0.034192923 -0.043078955
000140 c5 f8 47 bd 3d 60 86 3d 30 21 20 bc 99 b0 3e bd
       -0.04882123 0.06561325 -0.0097735375 -0.046555135
000150 d7 31 54 3d 92 21 df 3a 5c b6 2f 3c bb be 8b bb
       0.051805343 0.0017023555 0.01072463 -0.00426468
000160 c2 ac 1c 3d d5 c2 47 3d 38 c9 2c 3d d4 d9 9c 3c
       0.038250692 0.04876979 0.042184085 0.019146837
000170 cf 15 55 3b 7c cb a2 3b 23 f1 a3 3c 94 10 11 bc
       0.003251422 0.004968105 0.020012444 -0.00885405
000180 bd 48 fe 3b 38 71 01 bd 52 68 16 3d 91 00 18 3d
       0.007760136 -0.031602114 0.03672058 0.037109915
000190 b1 da a6 bc f5 03 90 bc b1 b3 12 bc d2 b2 68 3d
       -0.020367952 -0.017580012 -0.008953975 0.05681116
0001a0 49 01 74 bb 47 e6 38 bd 9e c4 a1 bc 4b 70 97 bc
       -0.0037232211 -0.045141485 -0.019747075 -0.018486163
0001b0 e9 d8 03 3d 7f fb b1 ba 90 d3 89 3c d1 40 95 3c
       0.032189284 -0.001357898 0.016824514 0.018219383
0001c0 7e fa c3 bc 83 77 97 bc 0c 49 98 3d 1e 0a e2 3c
       -0.023923155 -0.018489605 0.074358076 0.027592715
0001d0 ab 74 c5 bb db 24 12 bd ee e2 4f 3d ce 55 0d 3d
       -0.006025871 -0.03567968 0.050753526 0.034505658
0001e0 c3 a1 f6 bc 4b 5b 48 bc 48 95 8a 3b 7f 0f 9f 3c
       -0.03010643 -0.012228797 0.0042292215 0.019416569
0001f0 03 d1 7f 3d 60 3a 4c bd 3e 14 95 bc 59 30 bf bc
       0.06245519 -0.04986036 -0.018198129 -0.023338484
000200 70 ef 71 bc c0 a0 2f bd 8e a2 6e 3c 3c 5b 1d bc
       -0.014766559 -0.042877913 0.014565123 -0.0096042715
000210 26 62 0c 3c ac bf d2 bb 54 2f 6c bb c3 fc 98 3b
       0.008568322 -0.0064315405 -0.0036038952 0.0046688034
000220 a0 32 21 3c e5 c5 71 bd 87 85 18 3d 6b ca c3 bc
       0.00983873 -0.059026618 0.037236717 -0.023900231
000230 c8 02 14 3c 9d ec 41 bd 8a 4d 3a 3c 81 96 34 3c
       0.009033866 -0.047344793 0.011371026 0.011022211
000240 b4 1e 05 bd 1e b9 01 bb c7 35 66 3c d5 31 66 3d
       -0.032499984 -0.0019794176 0.014050907 0.056199867
000250 2b d7 82 3d 4f 39 93 bb f4 30 06 bd d6 40 ac 3d
       0.06388696 -0.0044929157 -0.03276153 0.08410804
000260 91 d3 8c ba bf fd 0e bd ae 4f 52 3d 57 2d 0e 3d
       -0.0010744204 -0.03490996 0.05134552 0.03471121
000270 41 49 18 bd 67 66 2b 3d f8 54 b0 bc e8 f6 1c 3d
       -0.037179235 0.041845705 -0.021524891 0.038321406
000280 b7 03 0e bc c7 3a 60 3a 44 a7 2a bd f5 02 57 3c
       -0.008667878 0.00085536804 -0.041663423 0.013123264
000290 11 05 2f 3c 9b 8e 59 bc c7 9a 0d bd 5b 86 c8 3c
       0.01068236 -0.013278629 -0.034571435 0.024478128
0002a0 ba 13 4a bd 99 b1 16 3d 2f 27 93 3a c0 e5 c3 3b
       -0.04933522 0.036790464 0.0011226888 0.005978316
0002b0 40 1c 8a 3d f7 af 8b 3c c5 9a 4a 3d 06 c8 e7 3c
       0.067436695 0.01705168 0.049464006 0.02829362
0002c0 aa 06 00 3d 33 00 e0 bc b0 4a a4 bc e5 75 4d 3d
       0.031256355 -0.027343845 -0.020055145 0.05016126
0002d0 04 d6 a6 38 6b dc ae bc 39 c2 3c 3d f2 89 40 3d
       7.95536e-05 -0.021345338 0.046083663 0.047006555
0002e0 70 db 7e 3d bf 31 a6 3c dc 45 0c bd f2 09 26 3c
       0.06222099 0.020287393 -0.03424631 0.010134207
0002f0 8a 8f 2c 3c b4 19 14 3d ed c1 1d 3d f5 fa 4c 3d
       0.010532269 0.036157325 0.03851502 0.05004402
000300 2f 11 70 3d 28 60 13 bd 97 8c d4 bc 67 3a d9 3c
       0.058610138 -0.035980374 -0.025945945 0.026517106
000310 74 e4 26 3d 9e a0 ea 3b f5 99 bc bb ff 0a 64 3d
       0.040745214 0.0071602603 -0.005755658 0.05567455
000320 16 4c 6e bd 3b e6 77 bc 05 7a 8d 3d 66 47 1d bd
       -0.05817803 -0.015130575 0.06908039 -0.03839817
000330 b0 94 dd 3b 6f 50 7e 3c 74 b6 87 3d 90 be ce 3b
       0.0067621097 0.015522107 0.06626597 0.006309338
000340 4c ac 87 3d 53 25 8f 3d a1 40 98 3d 69 b0 67 3d
       0.0662466 0.06989541 0.07434202 0.056564722
000350 ff 6f cc 3c f1 68 bb 3c c9 c7 7a bd 79 81 f9 bc
       0.024955748 0.022877188 -0.061225686 -0.030457245
000360 02 45 9b bd 99 fa b6 bb e2 83 13 3d 24 f5 b6 bc
       -0.075815216 -0.005584073 0.036014445 -0.022333689
000370 92 24 4b 3d f6 f9 a7 3d 39 ff da 3c a1 f7 35 bd
       0.049595423 0.08201973 0.026733028 -0.04442561
000380 02 b6 9f 3b 68 53 c2 bc 73 24 01 3d 5a e4 f3 bc
       0.004873992 -0.023721412 0.0315289 -0.029771972
000390 93 06 62 bd 3f 52 35 3d 29 59 02 3d bd 1b 69 bc
       -0.05518205 0.04426789 0.03182331 -0.014227805
0003a0 9f 18 04 bc a3 0a 13 3d 73 89 6c 3c d6 3b 9c bc
       -0.008062511 0.035898816 0.014437067 -0.0190715
0003b0 a8 ad 65 bd 46 47 41 bd 57 cd 9e bc 56 64 e4 bc
       -0.056073815 -0.047187112 -0.019385023 -0.027879875
0003c0 a8 27 27 3d d5 f7 01 3d 36 8e df bc b5 e8 ab bc
       0.040809304 0.03173049 -0.027289491 -0.020984987
0003d0 7c 37 49 3d ef 84 81 3d f7 d8 66 3d 12 0f e2 3c
       0.04912518 0.06324183 0.056359258 0.027595077
0003e0 7a 21 52 3d 51 c7 50 3d 47 3f a8 3c 98 f9 51 3c
       0.051301457 0.050971333 0.020537985 0.012815855
0003f0 5d e5 62 bc 00 a3 a9 bc db d3 b0 3b 3b 05 09 bd
       -0.01384863 -0.020707607 0.005396349 -0.033452254

classifier.1.bias f4 [32]
000000 33 62 9c 3c 1a 30 e0 3c 4d 77 87 3c 98 b0 44 bd
       0.019089794 0.027366687 0.01653638 -0.048019975
000010 e9 0f 15 bd c7 25 9f 3c cb 42 3d 3c 77 89 4f 3d
       -0.036392126 0.019427193 0.011551569 0.050668206
000020 a2 ab a6 bc 40 a5 a2 3c 84 c4 d9 bc a0 ac 1e bd
       -0.020345513 0.019854188 -0.026582964 -0.038738847
000030 b9 98 12 ba 68 a7 56 3a f5 89 23 3d 82 20 d3 3c
       -0.00055922155 0.00081883976 0.039926488 0.025772337
000040 bf 53 da 3b 8f b9 28 3d c2 aa 24 3d 85 d9 a5 3c
       0.0066628153 0.041192587 0.04020191 0.020245323
000050 a2 dc 2b 3c e8 26 52 3d 81 d5 fb bc c3 27 55 bd
       0.010489615 0.051306635 -0.030741455 -0.052039873
000060 aa bd 5a bd 9d b4 88 3c e7 69 61 bd 1e c7 76 3d
       -0.053403534 0.016687686 -0.055032637 0.060248487
000070 c2 f3 7c 3d 5b 44 0c bd 7c f5 1c 3d 91 d1 62 3c
       0.061755903 -0.034244876 0.03832005 0.01384391

classifier.3.weight f4 [1, 32]
000000 8b c1 a5 be 5e f7 52 3d 09 7c 63 be 0f 1f e5 3d
       -0.32374224 0.05150544 -0.22215284 0.111875646
000010 62 99 78 3d 93 a9 2d bd 97 77 aa 3e bb 3b a4 3d
       0.060693152 -0.042398047 0.33294365 0.08019205
000020 0f c7 d1 3b 26 44 49 be 28 53 1b 3d 6e 19 e9 3d
       0.0064019035 -0.19654903 0.0379211 0.113818035
000030 c4 ea 21 be 4d 5a 56 be a4 cc 7d be 93 a0 bc 3e
       -0.15812212 -0.20932885 -0.24785095 0.36841258
000040 ec f7 43 3d 30 a8 43 3d 25 08 36 be 46 dc 8d 3e
       0.04784386 0.047767818 -0.17776544 0.27707118
000050 3f 91 7d 3d fe ca be 3a b6 8c 20 be df 1a 96 bd
       0.061906096 0.0014556346 -0.15678677 -0.07329344
000060 76 77 7f bd 0c 7b 05 be 26 53 e1 3d 74 33 46 be
       -0.062369786 -0.1303522 0.110021874 -0.19355565
000070 52 1a cd 3e 22 6e 6e 3e 33 74 cd 3d 34 e3 a1 3e
       0.40059143 0.232842 0.10031929 0.31618655
