checkpoints/cnn_model/fold_2.pth (torch, 56010 bytes, 15 tensors)

encoder.0.weight f4 [16, 1, 3]
000000 8a 2a 5b 3e d5 54 7e 3d f7 b5 62 3b b5 6f 0c 3f
       0.21402946 0.06209262 0.0034593323 0.5485795
000010 1c c7 fd 3c f0 30 f0 bc 08 dc 7e be c5 a7 20 be
       0.030978732 -0.02932021 -0.24888623 -0.15688999
000020 bf b8 c8 3c 49 41 b7 3e c3 5c f5 be dd 3a d2 3e
       0.024502156 0.35791996 -0.47922334 0.41060534
000030 e0 1c 4f be cb 42 08 3e f6 00 33 3e d5 ea 63 be
       -0.20225859 0.1330673 0.17480835 -0.2225755
000040 d6 01 f5 3e 3b ab 84 3e dd 00 1b 3d d9 b1 a3 3e
       0.47852963 0.25911888 0.03784262 0.31971624
000050 7d 8f dc 3e d2 1c 30 3e 60 cb 93 3d d7 b8 0c bf
       0.43078223 0.17198494 0.07216525 -0.54969543
000060 ef a6 06 3f 94 3e 10 bd 4f 39 02 3f b7 c4 06 bf
       0.5259847 -0.03521593 0.50868696 -0.52643913
000070 3f 8e b8 3e a6 09 11 3f 83 6f 8a be 2d 81 98 3e
       0.36046025 0.5665535 -0.27038202 0.29786053
000080 4f 4c cc 3d ff 65 f2 bd ea 9f 98 3e 0f 6f 96 3d
       0.09975492 -0.118358605 0.29809505 0.073454015
000090 41 cf 7e be c4 1f b7 bd 0a f1 0e 3f be 83 06 bf
       -0.24883749 -0.08941606 0.55836546 -0.5254477
0000a0 54 57 b4 be c1 8f c8 bd ea 2d 6a 3e 19 4b 01 bf
       -0.35222876 -0.09793044 0.22869077 -0.50505215
0000b0 09 c4 4a 3e 72 a4 e1 be 20 e2 12 be 5d e2 36 bc
       0.19801344 -0.44070774 -0.14344072 -0.011162368

encoder.0.bias f4 [16]
000000 c7 7a 12 bf 2c 5d aa 3e 22 66 27 be 42 c2 1a be
       -0.57218593 0.3327421 -0.16347554 -0.15113166
000010 3f cd 04 be 38 d0 f4 be b7 e6 44 be 46 bf 2a be
       -0.1296892 -0.47815108 -0.19228636 -0.16674528
000020 c0 aa 07 bf 03 03 e7 be d0 91 81 be 91 1a 1e 3e
       -0.5299492 -0.45119485 -0.2530656 0.15439822
000030 11 e9 29 3e 52 b1 95 3e b3 eb 69 3d 6d 17 dd 3e
       0.16592814 0.29236847 0.057109546 0.43181935

encoder.1.weight f4 [16]
000000 96 88 80 3f 1f 84 80 3f 06 df 7f 3f f2 ec 7e 3f
       1.0041683 1.004032 0.9994968 0.995803
000010 00 f9 7c 3f 56 6f 80 3f 12 8f 7f 3f d8 db 7d 3f
       0.98817444 1.0033977 0.9982768 0.9916358
000020 bb 80 80 3f b9 8c 7b 3f c2 77 80 3f 1b 2c 7f 3f
       1.0039285 0.982616 1.0036547 0.99676675
000030 f7 c5 7c 3f 08 94 7f 3f 8f fe 7d 3f 4f 9d 7d 3f
       0.9873957 0.9983525 0.9921655 0.9906816

encoder.1.bias f4 [16]
000000 a6 0c 0c 3c d2 83 1c 3c c0 c6 97 3b f4 64 44 3a
       0.0085479375 0.009552913 0.004631847 0.000749185
000010 d4 37 e6 ba e1 b1 a0 3b 27 f6 12 3c 0f 07 c2 ba
       -0.0017564245 0.0049040173 0.00896982 -0.0014803129
000020 9e ef eb 3b 16 aa 2b bc 3d 2d c5 3b 26 7a 90 3b
       0.0072001955 -0.010477563 0.0060173557 0.0044090925
000030 a1 44 45 bb 8c a8 91 ba c6 03 85 3b 1d 32 0f bb
       -0.003010072 -0.0011112853 0.0040592877 -0.0021849938

encoder.1.running_mean f4 [16]
000000 63 3b 11 bf d4 59 af 3e 9a 39 2e be d6 0a 15 be
       -0.5673124 0.3424822 -0.17014161 -0.14554915
000010 5e e3 02 be 22 3f f0 be 1d 9d 36 be 2e 9c 30 be
       -0.12782046 -0.46923167 -0.17833371 -0.17247078
000020 48 16 03 bf 0b 60 e3 be 66 82 80 be be 90 22 3e
       -0.51205873 -0.44409212 -0.25099486 0.15875527
000030 76 3e 2e 3e 5e f4 8c 3e 03 cb 65 3d 0f c4 d7 3e
       0.17016014 0.27530187 0.05610181 0.42141768

encoder.1.running_var f4 [16]
000000 52 d9 76 3d 01 8e 99 3e 27 4c db 3d 78 83 cd 3e
       0.060265847 0.29991153 0.10707884 0.40139365
000010 c9 2e 63 3d c6 b0 9f 3e dd 3d d2 3e 42 63 6d 3e
       0.05546454 0.31189555 0.41062823 0.23182395
000020 8a 21 3f 3f 8b 9f f2 3e e0 d2 e8 3d 39 a0 be 3d
       0.7466055 0.47387347 0.11368346 0.09307904
000030 bb a7 72 3e fb c9 1c 3f c8 3d 76 3e 21 a5 87 3e
       0.23696797 0.612457 0.24047005 0.2649317

encoder.4.weight f4 [32, 16, 3]
000000 65 22 3d 3d c6 be c5 3c 15 c8 4b 3c d7 c0 14 3e
       0.04617538 0.02413882 0.01243784 0.14526688
000010 f7 8e 67 3d 3f eb 08 3e e2 e3 f3 3c 05 82 05 be
       0.056532826 0.1337099 0.029771749 -0.1303788
000020 e6 b3 42 bd 66 b0 29 3e fa 7e df bd f2 5b fe bc
       -0.047534846 0.16571197 -0.10912891 -0.031049702
000030 05 fb d2 bd 7a 4d 89 bc 77 2e 2a 3d 1f 0c 5b 3c
       -0.103017844 -0.016760577 0.04154822 0.013369589
000040 b0 d6 b9 3d 9f 24 bd bc 69 81 95 bd 3f b2 a3 b9
       0.090741515 -0.023088751 -0.07300074 -0.00031222586
000050 e1 72 99 3d 7b 93 ff bb 23 b3 35 3d 2e e9 99 bd
       0.074926145 -0.0077995635 0.04436029 -0.075151786
000060 0f a9 db bd 27 af f2 bd 18 4f ef bd 7f c8 44 3d
       -0.10725605 -0.11849814 -0.11685008 0.04804277
000070 76 67 ce 3d 6e c2 8d 3c 84 14 0a bc 6d 27 da 3d
       0.10078327 0.017304625 -0.008427743 0.10652051
000080 d9 cc b0 bc ad 16 ef bb 02 3e af bd 3e 59 f6 bc
       -0.021582054 -0.0072964043 -0.08556749 -0.03007185
000090 0f f3 ff bc f9 ec 96 3d ee 3c df 3d c2 a8 06 bc
       -0.031243829 0.07369418 0.10900293 -0.008218946
0000a0 85 bd ac bd a7 f8 ed 3d 51 4a bd bd 3d 8c 02 be
       -0.084345855 0.11619692 -0.0924269 -0.12748809
0000b0 33 c1 7b bc d0 68 8a 3d 63 eb 12 3e cc fb fa 3d
       -0.0153658865 0.06758273 0.14347605 0.12255058
0000c0 e4 a3 b3 3c a1 49 0a bd 1b 8f be bd 26 67 82 bd
       0.021928735 -0.033761624 -0.09304639 -0.0636733
0000d0 c7 4e ce bb 19 30 02 be dc e3 a6 bc e7 52 9c bd
       -0.006296012 -0.1271366 -0.020372324 -0.07633
0000e0 14 0f 15 3e a3 5f c2 bc d7 b7 fe 3c 5c c3 95 3d
       0.14556533 -0.023727244 0.031093521 0.073126525
0000f0 c3 c8 5f 3d f4 b3 b8 3b 2c fe c3 bd f2 55 72 bd
       0.05463482 0.0056366865 -0.09569964 -0.059163995
000100 9b 3c 02 bd ae ce cd 3c 3f 4f 02 be 8f 21 04 be
       -0.03179608 0.025122967 -0.12725542 -0.12903427
000110 0b 31 e4 3d 49 46 6b bd b2 af a3 3d 8a dd c7 bb
       0.11142167 -0.057440076 0.079924956 -0.0060994076
000120 5f 82 49 bd d0 20 03 3e b4 0a f2 bd ff 4d 63 3d
       -0.049196597 0.12805486 -0.11818448 0.055494305
000130 59 b5 01 3e 48 e7 a3 3d ae 4b e4 3d 6b 26 05 be
       0.12666835 0.08003098 0.11147247 -0.13002937
000140 e1 01 d0 bd c5 63 02 bd b8 47 54 3d 1c 2f 9d bd
       -0.101566084 -0.03183343 0.05182621 -0.07675001
000150 df 2c 3d 3d d8 27 c2 3d 9e 85 53 3d 88 7e 00 3e
       0.04618537 0.09480256 0.0516411 0.12548268
000160 3a d6 13 3d db 99 f1 3d 39 cf d9 bd 72 9f ab bb
       0.036092974 0.11796924 -0.10635228 -0.005237513
000170 96 09 12 be b8 c1 b8 bc 6d 67 93 3c 2a 9c 6c 3d
       -0.14261469 -0.02255331 0.017993653 0.057766117
000180 ec fb da 3c 6f 65 a0 bc 8e 6e ce bd cf 0d 31 bd
       0.026731454 -0.019579617 -0.100796804 -0.04322606
000190 cc 8d 28 3d e2 99 98 3c f2 37 8d 3b 25 d7 b3 bc
       0.041150853 0.018628065 0.0043096477 -0.021953175
0001a0 f3 61 34 bd ff 33 ec bd d1 80 e1 3d 2e 65 39 3d
       -0.044038724 -0.11533355 0.11010898 0.045262508
0001b0 03 f3 ac 3c 16 60 ba bd 4a 03 56 bc 61 6b a5 3c
       0.02111197 -0.09100358 -0.013062308 0.020192804
0001c0 c8 b0 2a bd 76 b2 83 3c 4b 75 b1 3d 92 b6 12 be
       -0.041672498 0.016076308 0.0866495 -0.14327458
0001d0 b4 ec 10 be 3f e2 cd 3d fd 05 fc 3d f0 f5 17 3e
       -0.14152795 0.10052919 0.1230583 0.14839911
0001e0 12 3c d1 bd f7 7a 6d bb ca 1f c7 bd d6 4a 50 bd
       -0.10216536 -0.0036236623 -0.0972286 -0.05085262
0001f0 b4 86 83 3d df d7 63 3d 3c c1 b8 3c 10 6c dc 3d
       0.06422177 0.055625793 0.022553079 0.10762799
000200 7d 37 ed bd 43 3f 5f bd 53 0e e8 3d 2d 88 d7 bd
       -0.11582849 -0.05450369 0.11330857 -0.1052402
000210 01 ad 71 3d 6b 5d 01 be db 5b 77 3d 9e df 33 3c
       0.05900288 -0.12633292 0.060390335 0.010978607
000220 a0 6a c6 3c e0 5c 5a 3d ec c9 61 bd fc e9 b5 bc
       0.024220765 0.05331123 -0.05512421 -0.022206299
000230 0d 4b b3 3d 20 18 59 bd be 1f 8d 3d 23 18 ee bd
       0.08754549 -0.053001523 0.0689082 -0.116256975
000240 2a 98 29 3d e8 48 10 be 05 ea 06 bd 60 a3 74 3d
       0.04140488 -0.14090312 -0.032938022 0.05972612
000250 9a f7 4d bc cc 05 e3 3d b1 10 f5 bd fb a3 55 bd
       -0.01257124 0.1108509 -0.11966074 -0.052158337
000260 7a e6 d5 bb 94 50 24 3d 6f 6a 0e 3e 75 de 49 bd
       -0.006527719 0.040115908 0.13907789 -0.049284417
000270 d1 85 b7 bc e8 d4 97 3c 7a 5d 83 bd dc 65 79 bb
       -0.022402676 0.018534139 -0.064143136 -0.0038055098
000280 5e 1f f8 bd 97 63 a9 bd c7 76 6a bc 95 70 90 bd
       -0.12115358 -0.082709484 -0.014310545 -0.07052723
000290 fc d6 d6 3d c6 42 18 3c 51 44 da 3c d4 9c 1f 3c
       0.10490224 0.009293264 0.026643904 0.009741981
0002a0 2f 1c c1 3d 26 3f da bd 7a 2c 81 3c 4a cb 0a be
       0.09429204 -0.10656576 0.015768278 -0.13554111
0002b0 3d 46 11 be 29 d3 62 bd 91 2e c4 bc 12 a4 d3 bc
       -0.1418695 -0.05537716 -0.023947986 -0.02583507
0002c0 50 ce be bc ed 25 aa bd 72 83 f0 b9 03 ee f7 bd
       -0.023291737 -0.08308015 -0.00045874302 -0.12105944
0002d0 ca f9 4d bd 31 8a db bd 5a c7 9e 3d 27 da a8 3d
       -0.050287046 -0.10719717 0.07752867 0.08244734
0002e0 8b 7c 40 3d 9a 48 43 bd bc 90 6a bd 69 e8 93 3c
       0.046993773 -0.04767666 -0.057266936 0.018055158
0002f0 4c 97 f1 bd 62 cd 3d bc 48 46 0c 3e 9a 46 95 3d
       -0.11796436 -0.011584612 0.13698685 0.07288857
000300 f0 86 b9 3d 06 35 3e 3d 37 e8 45 bc 6c 01 67 3c
       0.090589404 0.046437286 -0.01207929 0.01409946
000310 e8 80 f8 bd a4 cd 03 be 7d db 43 bc 14 82 20 3c
       -0.12133962 -0.12871414 -0.011954186 0.009796638
000320 ae 62 5d 3d f0 ab c2 3d 7f a6 1e be 0f 18 85 3d
       0.054049186 0.09505451 -0.154932 0.064987294
000330 a6 d7 a5 3c 67 05 f8 3d 04 32 02 be 9d 85 6b 3c
       0.02024443 0.121104054 -0.12714392 0.014375118
000340 88 3c af bd eb de 01 3c 90 9c 55 bd ff 03 2a bc
       -0.08556467 0.007926683 -0.052151263 -0.010376929
000350 64 6d b6 bd 34 3d 08 3e 23 40 83 bd 00 cf 0d be
       -0.08907583 0.13304597 -0.064087175 -0.13848495
000360 11 47 6e bb 89 a3 12 3d e7 99 80 bd 86 10 68 3c
       -0.0036358277 0.03580049 -0.062793545 0.014164096
000370 05 3f a5 bd b0 af 18 bd b5 38 ad 3d 5e aa d2 3d
       -0.08068661 -0.037276924 0.08458082 0.10286401
000380 2d 9d a0 3d ca 3d 08 be ac 86 19 3d 49 d3 04 bd
       0.07842479 -0.1330482 0.03748195 -0.03242806
000390 1f 26 d7 bd 3d de bc bd 56 41 de 3d ac 14 e6 bd
       -0.10505318 -0.09222076 0.108523056 -0.112344116
0003a0 ed 26 f7 3d 20 85 94 3d 16 60 17 3e 99 55 18 3d
       0.120679714 0.07251954 0.14782748 0.037191007
0003b0 b8 b3 83 3d ed 40 e0 bc 9e 4b c2 bd e1 76 0a 3d
       0.06430763 -0.027374709 -0.09487079 0.033804778
0003c0 89 32 77 bd 04 89 04 3d 09 ae d7 bc b0 f9 e5 bd
       -0.06035093 0.03235723 -0.026328104 -0.11229265
0003d0 fc 29 3e bd 91 99 9b bb 42 d7 a6 bc 0f 92 f8 bd
       -0.04642676 -0.004748531 -0.020366315 -0.121372335
0003e0 5c ef 03 bd 2d 40 80 bb e0 ca 92 bc 8d 05 0f 3e
       -0.032210693 -0.0039139003 -0.017919004 0.13966961
0003f0 46 4d dd 3c 30 dc cb bd 8d db 7a bd 93 fd 8c bd
       0.027014386 -0.09954107 -0.061244536 -0.06884303

encoder.4.bias f4 [32]
000000 68 e1 d1 3d b1 2f c9 3c bc 8c 5d bd 06 d8 1b 3c
       0.10248071 0.024558874 -0.054089293 0.009511953
000010 5a 88 0d 3e 4d 23 09 be 6f 38 20 bd 42 d8 0d 3e
       0.13821545 -0.13392372 -0.03911632 0.13852027
000020 1c 5b a3 3d 68 67 dd 3d 42 cc cd 3d 07 75 02 be
       0.07976362 0.10810739 0.10048725 -0.12739955
000030 28 2e 14 bd db 07 af bc 84 2c f0 bd bb 7d 3c 3c
       -0.03617683 -0.02136605 -0.11727241 0.011504586
000040 7f b8 0f 3d 90 3f e0 3c 0d a4 4f 3d 63 de 93 ba
       0.03508806 0.027374059 0.05069356 -0.0011281486
000050 37 9e eb 3d a1 93 5d bd 46 d7 08 bd c8 43 ce 3c
       0.115047865 -0.054095868 -0.033408426 0.025178805
000060 c6 24 d0 3d 95 8b 44 3d c7 91 a9 3c 2f 32 13 3e
       0.10163264 0.04798468 0.020699395 0.14374612
000070 c3 9e 8f 3c 89 4c 0b 3e 95 56 dd 3d cd 6d 15 3d
       0.017531758 0.13603415 0.1080753 0.036481667

encoder.5.weight f4 [32]
000000 87 b2 81 3f c3 51 81 3f 42 96 7f 3f c3 c8 80 3f
       1.0132607 1.0103077 0.9983865 1.0061268
000010 cd 84 82 3f f3 e7 80 3f a6 74 82 3f 3b 4c 80 3f
       1.0196778 1.0070785 1.0191848 1.0023264
000020 d3 49 81 3f 0a 43 81 3f 72 7f 81 3f 84 f8 82 3f
       1.0100654 1.0098584 1.0117018 1.0232091
000030 b0 11 82 3f 53 ea 81 3f 59 cf 81 3f ab 02 80 3f
       1.0161648 1.0149635 1.0141402 1.0000814
000040 f7 af 81 3f d4 23 80 3f 45 33 82 3f 1f 3f 83 3f
       1.0131825 1.0010934 1.0171896 1.0253638
000050 88 83 81 3f 34 0a 81 3f 50 92 81 3f ee 93 81 3f
       1.0118265 1.0081239 1.0122776 1.012327
000060 1e 66 81 3f 81 63 80 3f a6 54 81 3f 42 c3 80 3f
       1.0109289 1.0030366 1.0103958 1.0059588
000070 e7 17 81 3f 82 5f 7f 3f b5 7c 80 3f ba 92 80 3f
       1.008542 0.9975511 1.0038058 1.0044777

encoder.5.bias f4 [32]
000000 33 c9 27 3c 93 87 da 3b 44 3b 8d 3b 7f 3a 3c 3c
       0.010240841 0.0066689937 0.0043100435 0.011488556
000010 6e 4f 75 3c 0e 2a 3c 3a 74 e1 a4 3c 30 10 28 3c
       0.014972551 0.00071778975 0.020127036 0.010257766
000020 d9 19 f6 3b fc 11 cf 3b ed 2b 38 3c 96 53 ad 3c
       0.0075104055 0.0063192826 0.0112409415 0.021158021
000030 82 75 4a 3c 88 15 34 3c 78 6d 64 3c e8 6f 7a 3b
       0.012357118 0.010991462 0.013942115 0.0038213674
000040 aa eb 81 3c df f4 9c 3b e7 e9 95 3c 01 48 9b 3c
       0.015859444 0.004789933 0.01830001 0.018955233
000050 fd b2 86 3c a9 5e f3 3b 67 6c c0 3b 80 95 50 3c
       0.01644277 0.007427056 0.0058722976 0.012730956
000060 44 16 1b 3c d5 86 c3 3b 83 4d 20 3c a3 67 f4 3b
       0.009465758 0.005967001 0.009784105 0.0074586435
000070 f2 a2 0a 3c 29 07 af b8 ea 94 f7 3b 9f 8c 29 3b
       0.008461701 -8.345984e-05 0.0075555937 0.002587117

encoder.5.running_mean f4 [32]
000000 bb 2c 85 3e 64 ae 64 bd 72 85 fa bd 27 98 f6 be
       0.2601069 -0.055830374 -0.12232484 -0.48162958
000010 bb 1d 8d 3d 98 bf 21 be c0 5c c5 3e da 8d 80 3e
       0.06890436 -0.15795743 0.38547325 0.25108224
000020 8f 68 43 bd 3a 94 0e bd d0 9d 27 3c 4a 51 39 bf
       -0.047707137 -0.03480933 0.0102304965 -0.7238966
000030 0d 1c 0c 3f 22 71 12 3e 2b 82 b3 bb d1 21 f2 3e
       0.547303 0.14300969 -0.0054781637 0.47291425
000040 08 aa a9 be cf fc b9 3e 68 d4 6e 3e da ab 9a 3e
       -0.33137536 0.3632569 0.23323214 0.30209237
000050 50 c2 0f 3f 0f 02 fb 3e f5 68 03 3e 76 70 08 3c
       0.5615587 0.49025008 0.12833007 0.008327594
000060 7f 24 7f 3e 90 fa 96 be fa 56 c2 3e 02 ab bd 3c
       0.24916266 -0.2948804 0.37956983 0.023152832
000070 52 fc 14 3e 7f 52 2e bd 18 99 87 be 10 be ce 3e
       0.14549378 -0.042559143 -0.2648399 0.4037938

encoder.5.running_var f4 [32]
000000 37 1d 89 3d 7f 40 1f 3e f4 f1 3f 3e 39 b8 7c 3e
       0.066950254 0.15551947 0.18744642 0.2467965
000010 fe 18 37 3e 39 0e 51 3e cc fc 83 3e 1d f0 17 3e
       0.17880628 0.20415582 0.25778806 0.1483769
000020 74 69 18 3e 64 72 70 3e b5 a8 71 3e 9d 25 4b 3e
       0.14883977 0.23481137 0.23599513 0.19838567
000030 02 7b 80 3e 32 b4 b4 3d f4 60 e6 3d f7 76 81 3e
       0.25093848 0.08823432 0.11248961 0.25286075
000040 75 b7 4d 3e e6 a7 0a 3e 37 11 9d 3d 5d 68 4c 3e
       0.20089515 0.1354061 0.07669299 0.19961686
000050 ec 34 f4 3d 35 84 13 3e 3a 85 8c 3d 6e a8 d3 3d
       0.119241565 0.14405902 0.068613485 0.1033486
000060 2b 5b e9 3e 4b db ee 3d d1 f1 ef 3d 8b 10 85 3d
       0.45577368 0.116629206 0.11716045 0.06497296
000070 b2 10 1e 3e df 5c 1f 3e 68 a1 0c 3e 7e 28 46 3e
       0.15436056 0.15562771 0.13733447 0.19351384

classifier.1.weight f4 [32, 320]
000000 b8 a3 2b 3d b0 fd 77 3d 83 00 03 bd 7d a6 2a 3b
       0.04190418 0.06054467 -0.03198291 0.0026039176
000010 64 89 48 bc 3f 11 5a 3d 95 ae f5 3b d2 e2 91 3d
       -0.012239788 0.053239103 0.0074976184 0.07123341
000020 5f 9f 40 3c b9 ca 2f 3d 6a 82 9e 3d c7 b9 8e bc
       0.011756747 0.04291794 0.07739718 -0.01742257
000030 a7 dd 30 3d 61 4f 4f 3d b1 ac b9 3b 22 42 74 bd
       0.043180134 0.05061281 0.0056663384 -0.05963338
000040 26 db 5c bd b7 03 04 bd 4a 20 b2 3c 33 cc 0e 3c
       -0.053919934 -0.032230105 0.021743912 0.008715677
000050 89 d2 e4 3c d8 3d ed 3c 36 c1 2a bd ce 08 b2 3c
       0.027932422 0.028960153 -0.041688167 0.021732714
000060 65 c1 6b bd 9a c4 62 bd 25 37 8e bc 65 1b 3c 3d
       -0.057557482 -0.055363275 -0.01736028 0.045924563
000070 7b 64 ea 3c 7e 3f 34 bd ea d2 50 bb 10 e0 35 3d
       0.028612366 -0.044005863 -0.0031863996 0.044403136
000080 ad 65 d0 bc e0 01 84 bc d9 a4 06 bc c6 b0 83 bd
       -0.025439108 -0.016114175 -0.008218014 -0.06430201
000090 f5 d8 88 3c dc 0b 3d bd 16 0b 22 3d 75 60 24 3d
       0.016705016 -0.046153888 0.039561354 0.04013105
0000a0 cf de 0c bc 21 b8 48 3d 3a f8 31 bd f3 7f 96 3d
       -0.008598044 0.049003724 -0.043449618 0.07348623
0000b0 0c b9 f6 3c cd 23 46 3d a1 ff 0f 3d 8c 40 3c bd
       0.030117534 0.048373986 0.035155896 -0.045959994
0000c0 90 ae de bb a5 90 db bc a6 29 ad bc c1 6f ee bc
       -0.006795712 -0.02680237 -0.021138024 -0.029106023
0000d0 66 f4 d0 3b bc 19 b8 bc 49 d7 aa 3c ed 6a 18 3d
       0.006376791 -0.022473209 0.02085461 0.037211347
0000e0 7d fb 54 bc a2 2c 86 3d ea 4d 65 3d 7f df 39 3c
       -0.012999413 0.06551482 0.055982508 0.0113447895
0000f0 ba f1 26 bc c7 47 38 bd 8e 02 df ba f2 f4 68 3d
       -0.010189468 -0.044990327 -0.0017014311 0.056874223
000100 c5 49 b9 bc 0e 92 c2 3c da 2f cb bb 42 00 83 3c
       -0.022618184 0.023751285 -0.0062007727 0.015991334
000110 62 f0 85 3d 58 33 54 bc 5f e9 bf bc d8 b7 83 bc
       0.0653999 -0.012951694 -0.02342671 -0.016078874
000120 68 f9 09 3c 13 32 4b bc ea d8 01 3c 70 fb 02 ba
       0.0084212795 -0.012402075 0.0079252515 -0.00049965736
000130 e4 bf 18 3d 56 22 bc bc a2 7a a2 3c 8d 86 35 3d
       0.037292376 -0.022965591 0.019833867 0.04431777
000140 4e 96 27 3d 27 b3 83 bd eb 7b fc 3c b4 2d 8d 3c
       0.040914826 -0.06430655 0.030820807 0.017233707
000150 bd 1b 62 bd 0a c6 d1 3b e7 58 24 bd d7 4d 24 3d
       -0.055202235 0.006401782 -0.040123846 0.040113296
000160 4f fb 4e 3d 87 3b 60 3d 49 bd 42 bc fb c0 c6 3c
       0.050532635 0.05474427 -0.011885949 0.024261942
000170 9f 38 1a 3d 6c 95 22 bd 29 18 b3 3c a9 89 12 3d
       0.037651654 -0.03969328 0.021862106 0.035775814
000180 70 2a 2f 3d 2a d0 18 3d 4b a6 9a bc 7a db 16 bd
       0.04276508 0.037307896 -0.018878123 -0.036830403
000190 ff 06 a0 3c e7 4f 58 3d d5 e5 6d 3c 39 c0 7c 3d
       0.019534586 0.052810576 0.014520128 0.061706755
0001a0 af 8a 4e bd f7 7c c8 3c f1 03 0c 3c 66 83 09 bd
       -0.050425228 0.02447365 0.008545862 -0.033572577
0001b0 5b c8 35 bd 76 73 48 bd 5b 2e 92 3b f1 6b 4f 3d
       -0.044380527 -0.048938237 0.0044610924 0.05064005
0001c0 f8 98 19 bc 7f 1f 8e bc 0f 36 dc bb 1d 5b 35 3c
       -0.0093748495 -0.017349003 -0.0067203115 0.011069086
0001d0 e1 c3 c8 bc 52 b7 55 bd d1 77 09 bd 05 6a 99 bc
       -0.024507465 -0.05217678 -0.03356153 -0.018727312
0001e0 f8 94 ff 3c 5f ba ea 3c 65 01 6a bc 32 d7 e9 3c
       0.031198964 0.028653322 -0.014282559 0.028544996
0001f0 f9 2a 9a 3a 48 bf 7a bd 25 fc 74 3c cf f1 88 bc
       0.0011762074 -0.061217576 0.014952694 -0.016716866
000200 49 db 84 bc e8 ca 0c 3b 5b 8b a0 3c dc 04 3e 3d
       -0.016217845 0.0021483246 0.0195977 0.046391353
000210 4b 42 9b 3c 57 73 f3 3c c4 61 fe 3c c5 d4 bb bb
       0.01895251 0.029718084 0.031052478 -0.005732151
000220 da 43 b4 3c 0a ad 9f 3d 25 d4 25 ba 6c 8a cf 3c
       0.02200501 0.077966765 -0.00063258625 0.02533456
000230 ec 7b 90 bb da 17 45 3d d6 2f 5c 3d 3f 58 e4 3a
       -0.004409304 0.04811845 0.053756557 0.0017421319
000240 08 f5 83 3c 5c fd 0a 3d 11 cf 27 3d 9e 58 c9 3c
       0.016108051 0.03393303 0.04096896 0.024578389
000250 bc fd 62 bb 4e 0d 49 bc 01 0b 23 39 f8 b1 f7 bc
       -0.00346361 -0.0122712385 0.0001554899 -0.03023623
000260 15 43 67 bd 2f 39 86 3c 5e 64 9b 3a 36 7c b1 bc
       -0.05646046 0.01638469 0.0011855473 -0.021665674
000270 5f ea 21 3d ef f3 51 3b 5a a6 0f 3c 57 55 27 3d
       0.039530154 0.0032036265 0.008767689 0.04085287
000280 9d 24 eb 3c 7c d4 fb 3c a1 e0 1c 3d 12 7e 62 bd
       0.028703982 0.030740969 0.03830016 -0.05529601
000290 64 1a 86 3c 92 54 1b 3d a6 1c 6f bd c1 1c 36 3c
       0.016370006 0.03792245 -0.05837693 0.011115254
0002a0 4f e7 53 bd 96 0c 6a bd d3 22 f6 3c b5 f6 76 bc
       -0.051734265 -0.05714091 0.030045902 -0.015073468
0002b0 18 79 e4 3c 45 73 0b bd b4 96 78 3c 0a ae e5 3c
       0.027889773 -0.034045476 0.015172649 0.02803709
0002c0 49 71 51 3d 31 ac d2 bc 20 7f 5a bd f1 9b df 3c
       0.051133428 -0.025716873 -0.053343892 0.027296038
0002d0 55 5d 89 3c 8a 51 67 3c 87 44 c8 bc 0d dd ee 3b
       0.016768137 0.0141185615 -0.024446739 0.007289535
0002e0 8f 73 5f 3d 76 05 da bc 63 f9 ca 3c ad ac 85 3d
       0.054553565 -0.026613932 0.02477712 0.06527076
0002f0 72 71 81 3d eb 49 be ba 3a 44 1c bd 4c 30 06 3d
       0.06320466 -0.0014517879 -0.038151003 0.032760903
000300 5f 88 65 3d 90 e1 13 3d 39 e2 03 3d 99 fb 48 3d
       0.056038257 0.036103785 0.032198165 0.049068067
000310 b7 8b 30 3d 5f 54 8d 3c 74 37 a9 3b c2 91 e5 3c
       0.043101992 0.017252145 0.005164081 0.028023604
000320 6c 8d 99 3c 16 04 e4 bc b9 1e 71 3c 57 e1 f9 3b
       0.018744193 -0.02783398 0.0147167975 0.0076257396
000330 a8 77 0a bc ef f6 13 bc 5a e4 91 bb d0 8e 90 3d
       -0.00845138 -0.0090310415 -0.0044522705 0.07058489
000340 ef 4d 55 3d 37 b1 99 3c 09 a6 71 3d 5f a4 19 bd
       0.052076276 0.01876126 0.058996234 -0.037510272
000350 ba 34 1c 3d 1c ea 52 3c 5f b1 c2 bb 36 4d 56 3d
       0.03813622 0.012873199 -0.0059415544 0.052319728
000360 f4 77 c3 3c 76 13 59 ba 4c 12 85 bc 28 b7 b1 bc
       0.023860909 -0.0008280793 -0.016244076 -0.021693781
000370 9c 30 ec 3c 3c 20 ed bc 70 5e 53 3c 7d cf 8b bd
       0.028831773 -0.028946035 0.012900934 -0.068266846
000380 e3 86 19 bd 11 eb 55 bd be 62 0f 3d 72 0e c4 bc
       -0.037482154 -0.05222613 0.035006277 -0.02393267
000390 3a 13 79 bb 62 b6 06 3d 86 34 55 3d 0f 8f 23 3c
       -0.0038005845 0.032888778 0.052052043 0.009982838
0003a0 5f 84 02 bc 92 27 bd 3c 96 93 9e 3c 6f ca 5e 3c
       -0.00796613 0.023090158 0.019357484 0.013598069
0003b0 0b dd 02 3d 8d 5b 24 3d 6b ce 58 3d 37 27 71 bd
       0.031949084 0.040126372 0.05293123 -0.05887529
0003c0 d3 93 8d 3d 24 df d4 3c 0b 13 2c 3c 85 6a aa bc
       0.06912961 0.025985308 0.010502587 -0.020802746
0003d0 83 24 79 bc 3f 2c ea bc 6b 31 39 bd 9e 61 3a bd
       -0.015206459 -0.028585551 -0.045213144 -0.04550325
0003e0 4d cc 95 bc 1c a7 02 bd 77 74 ef ba 32 b7 30 bc
       -0.018285895 -0.03189765 -0.0018268962 -0.010785865
0003f0 0c 2d ce bc 1b f6 68 3c 9b 72 58 bd ff d8 1f 3c
       -0.025167964 0.014218832 -0.05284367 0.009756326

classifier.1.bias f4 [32]
000000 06 f2 7c 3c c9 78 d7 bc 54 d2 5d bd 7d 5c a1 bc
       0.015438562 -0.026302712 -0.054155663 -0.019697422
000010 07 cd 3f bd c3 16 eb 3c b9 a9 6f bc 77 d9 5c 3d
       -0.04682639 0.028697377 -0.014627867 0.053918328
000020 bd 41 20 3d b2 a6 22 bd bd df 03 bd 39 07 fd bb
       0.039125193 -0.039709754 -0.032195795 -0.0077218083
000030 36 8a 41 3c 1f d1 40 bc 66 18 a2 bb f9 2d 3b bc
       0.011812737 -0.011768608 -0.004946756 -0.011424535
000040 9d 0e 5c bd 2f ee e7 bc 74 73 48 3c e9 3b 1e 3d
       -0.053724874 -0.028311817 0.012234557 0.038631354
000050 f2 ac 62 3d 40 fd e8 3c 52 e9 b3 bc 9d b8 08 bd
       0.055340715 0.028441072 -0.021961842 -0.033379186
000060 87 5c 4b 3d 81 88 e3 bb e6 09 3f 3d 97 67 d8 3c
       0.049648788 -0.006943763 0.0466403 0.026416583
000070 08 00 9b bc b0 e0 df 3c 77 9a 1e bd 54 1f 22 bd
       -0.018920913 0.027328819 -0.038721528 -0.039580658

classifier.3.weight f4 [1, 32]
000000 11 da 9d 3e 03 20 07 3e 57 14 f4 3b 5c 9c 1f be
       0.30830434 0.13195805 0.0074487138 -0.1558699
000010 82 86 1c 3e 69 86 0a 3e 32 f8 16 be 2d 14 02 bd
       0.15285686 0.13527836 -0.14743116 -0.031757522
000020 9e 11 4a 3d 5d ef 02 be 48 33 93 3e 66 67 3f be
       0.049333207 -0.12786622 0.28750062 -0.18691787
000030 b1 7d b4 be 2a a1 d7 bd 02 10 a9 be dc 1a b1 3d
       -0.35252145 -0.105287865 -0.33020025 0.08647701
000040 12 22 80 bc 81 29 1d 3e 17 d9 22 be 6b 70 a0 be
       -0.015641246 0.15347864 -0.15903126 -0.31335768
000050 e7 ee 88 bd dd 9f a9 3d 4f 97 c3 be 92 5b 7d 3e
       -0.06686192 0.082824446 -0.38201377 0.24741963
000060 8c eb 61 bd bb 0b d7 3d ca 55 c8 3e bd 91 4b 3e
       -0.055156276 0.10500284 0.39127952 0.19879813
000070 ec d8 56 3e 8f e4 95 3e bd e2 16 3e c7 be d1 bd
       0.20981187 0.2927594 0.14734931 -0.10241466
