checkpoints/mlp_model/fold_4.pth (torch, 58878 bytes, 5 tensors)

classifier.0.weight f4 [128, 40]
0	0xbc5055d5	-0.012715776
1	0xbc70adbd	-0.01468986
2	0x3e1c8687	0.15285693
3	0xbd8b0ee4	-0.067899495
4	0x3c8732c9	0.016503708
5	0xb9a8709c	-0.00032127358
6	0xbdd3f454	-0.10349336
7	0xbddfc6aa	-0.10926564
8	0xbd6e37bb	-0.058158617
9	0xbe202404	-0.15638739
10	0x3e0b5909	0.13608183
11	0x3ddf8cb4	0.10915509
12	0x3db49e07	0.08819204
13	0x3d4001ee	0.04687684
14	0x3de23321	0.11044908
15	0xbd216602	-0.039403923
16	0xbe0b79f2	-0.13620737
17	0xbda7882b	-0.08180269
18	0x3cf06124	0.029343195
19	0x3dbcaa74	0.09212199
20	0x3c82d550	0.015970856
21	0x3dde42d0	0.10852587
22	0x3b8b564c	0.0042522307
23	0x3d8c2cbf	0.06844472
24	0x3e028b8b	0.12748544
25	0x3e01650d	0.12636204
26	0x3d4d8d52	0.0501836
27	0xbdec7c21	-0.11547113
28	0xbdec6243	-0.115421794
29	0xbdefc607	-0.117076926
30	0xbda9a54c	-0.08283481
31	0x3e113072	0.14178637
32	0x3d793e72	0.060850568
33	0x3deb9780	0.11503506
34	0xbda83b05	-0.08214382
35	0xbdf45e86	-0.119320914
36	0x3b1ed1da	0.0024233968
37	0x3d8e556b	0.06949886
38	0xbd97fc7f	-0.07421207
39	0x3d5ad974	0.053430036
40	0x3e1feef5	0.15618499
41	0x3d26a0a9	0.04068056
42	0x3dee1c52	0.116264954
43	0x3d07f22c	0.033189937
44	0xbd9c5840	-0.0763402
45	0xbd9fde43	-0.07806065
46	0x3da44938	0.08021778
47	0xbd903a67	-0.07042389
48	0x3d1697f5	0.03676601
49	0x3dda99d3	0.10673871
50	0x3d07b9a2	0.033136018
51	0xbcc525af	-0.02406582
52	0xbd8c47ca	-0.0684963
53	0xbdb25eba	-0.08709474
54	0x3dcfa3bb	0.10138651
55	0xbdb747ff	-0.08949279
56	0x3e21c908	0.15799344
57	0xbd84218d	-0.06451712
58	0x3d866a90	0.06563294
59	0x3d145ee5	0.03622331
60	0xbcf407e6	-0.029788923
61	0xbda60121	-0.08105684
62	0x3d965926	0.073412225
63	0x3e14e853	0.1454175
64	0xbe0b7e35	-0.13622363
65	0xbe1462a2	-0.1449075
66	0xbafb1abc	-0.0019157748
67	0x3bc3ac59	0.005971473
68	0x3dd7efd4	0.105437905
69	0xbcc4585a	-0.02396791
70	0x3dff9ebf	0.1248145
71	0xbdd29a9b	-0.10283395
72	0x3cb46bc9	0.022024052
73	0xbdd9a021	-0.10626245
74	0xbe1d1056	-0.15338263
75	0x3bf45bb0	0.007457219
76	0xbdc18bad	-0.09450469
77	0x3e23c320	0.15992403
78	0x3d66512e	0.056229763
79	0xbc4f509f	-0.012653499
80	0xbd719036	-0.05897542
81	0xbd16c899	-0.0368124
82	0xbd0cc973	-0.034371804
83	0x3da05862	0.07829358
84	0xbdc63605	-0.09678272
85	0x3c86de58	0.016463444
86	0xbdb72b7a	-0.08943839
87	0xbe18520f	-0.14875053
88	0x3dcf0dd7	0.101100616
89	0x3daff6fa	0.08592029
90	0xbd84e675	-0.06489269
91	0xbd6bdfd2	-0.0575865
92	0xbbbd1895	-0.0057707527
93	0x3e3ae160	0.18250036
94	0xbc934610	-0.017977744
95	0xbda10599	-0.07862396
96	0x3e61891e	0.22024962
97	0x3d6e00f1	0.058106367
98	0xbd46cb02	-0.048533447
99	0x3ae36f70	0.0017351937
100	0xbbf81445	-0.0075707757
101	0x3cdc06d2	0.02685872
102	0xbc991aa1	-0.018689455
103	0xbd7d1d9e	-0.061795823
104	0x3ceee54d	0.029162074
105	0x3d4232c6	0.047411703
106	0xbe3d8ca8	-0.18510687
107	0x3cb506a0	0.022097886
108	0xbdb84ccc	-0.08999023
109	0x3c2b76bc	0.01046532
110	0x3d69285d	0.05692326
111	0xbd142349	-0.036166463
112	0xbe1a94dd	-0.1509585
113	0x3db6d8de	0.08928083
114	0x3cad21d7	0.0211343
115	0xbe23bf3b	-0.15990917
116	0xbc8a1c3a	-0.016859163
117	0x3ddc19ca	0.107471064
118	0x3d16c9c0	0.036813498
119	0xbd6ef37a	-0.058337666
120	0xbe0d9a11	-0.13828303
121	0x3e05e5ae	0.13075897
122	0x3e026338	0.12733161
123	0xbd819688	-0.0632754
124	0x3d3da7c9	0.04630259
125	0x3c3d9093	0.011570114
126	0xbe08034f	-0.13282512
127	0xbd3b5a0f	-0.045740183
128	0xbe11b7f1	-0.14230324
129	0xbd2105d4	-0.0393122
130	0xbd94de23	-0.07268932
131	0xbd7b1d2e	-0.061307125
132	0xbdd4234a	-0.10358293
133	0x3d8fd319	0.070226856
134	0xbe15dc41	-0.14634801
135	0xbd97a547	-0.07404571
136	0xbdad4275	-0.08459941
137	0xbe195750	-0.14974713
138	0xbdfd4f94	-0.12368694
139	0x3db1b7a9	0.086776085
140	0xbcc6ef55	-0.024284044
141	0x3d3ae482	0.04562808
142	0x3dd70fbb	0.10501047
143	0x3d62321e	0.055223577
144	0xba3e2dd8	-0.0007254756
145	0xbd0ed704	-0.034873024
146	0xbdf09702	-0.117475525
147	0x3db935fc	0.090435
148	0xbde9d2ba	-0.11417146
149	0x3d377182	0.044785984
150	0xbe07860c	-0.13234729
151	0x3e0cad2c	0.13737935
152	0x3c8bad28	0.01705034
153	0xbd6e142f	-0.058124717
154	0xbe1dec6c	-0.15422219
155	0x3b11f58a	0.0022271597
156	0xbbdbb8a4	-0.0067053605
157	0xbd94ae2e	-0.07259785
158	0xbc95cf04	-0.01828719
159	0x3d43c43c	0.047794566
160	0x3c868c5d	0.016424352
161	0xbd4a043d	-0.04932045
162	0xbd806164	-0.06268576
163	0xba3e06fa	-0.00072489644
164	0xbd02d65d	-0.031942714
165	0xbd820c36	-0.06349985
166	0xbda84146	-0.08215575
167	0x3d5ef5cf	0.05443364
168	0x3db8501e	0.08999656
169	0x3da21dbd	0.079158284
170	0x3da68a1f	0.08131813
171	0xbe284de7	-0.16435967
172	0xbe114151	-0.14185072
173	0x3e28fdd2	0.16503075
174	0x3e20300c	0.15643328
175	0x3e1aadb4	0.15105325
176	0x3d981cdc	0.074273795
177	0xbdf88561	-0.12134815
178	0x3e04c0ae	0.12964126
179	0x3e1e95f3	0.15486889
180	0xbe1784c0	-0.14796734
181	0x3d81f259	0.06345052
182	0x3c2df44d	0.010617328
183	0x3d4d7882	0.050163753
184	0xbd7adc84	-0.061245456
185	0xbcbf3562	-0.023340885
186	0xbe0cc015	-0.13745148
187	0xbdfa5ae0	-0.12224364
188	0xbe18a7fb	-0.1490783
189	0xbe18b29f	-0.14911889
190	0x3dbea18b	0.093081556
191	0x3e026e49	0.12737383
192	0xbd904cdc	-0.0704591
193	0x3d475821	0.04866803
194	0xbe174bdd	-0.14775033
195	0xbdcdeada	-0.1005456
196	0x3db52a6e	0.088459834
197	0x3e0ac64e	0.1355221
198	0x3c326f4e	0.010890795
199	0x3e0a8582	0.13527492
200	0xbdfb70d2	-0.12277378
201	0xbe0165ca	-0.12636486
202	0xbde03f41	-0.10949565
203	0xbda357b9	-0.07975716
204	0x3db67f00	0.08910942
205	0xbc2cbdf3	-0.010543334
206	0xbd44c598	-0.048040003
207	0xbe27ceb7	-0.16387449
208	0x3c56576a	0.013082365
209	0xbdff8998	-0.12477416
210	0x3e01c0c0	0.12671185
211	0x3d667bf1	0.056270543
212	0xbde9aa92	-0.11409487
213	0xbdd41cfc	-0.10357091
214	0xbe1708a6	-0.14749393
215	0xbdfb5c55	-0.1227347
216	0x3de52a60	0.11189723
217	0x3d27b917	0.040948
218	0x3e0137fa	0.1261901
219	0xbe05fa0a	-0.13083664
220	0x3b43086c	0.0029759659
221	0x3d80d632	0.062908545
222	0x3dd50736	0.10401766
223	0xbd66b82a	-0.056327976
224	0xbd2707bf	-0.04077887
225	0xbdd39410	-0.10330975
226	0x3d898bd1	0.06716121
227	0xbdf38e87	-0.11892419
228	0x3dc25edd	0.0949075
229	0xbd65243f	-0.05594277
230	0xbda2284e	-0.07917844
231	0xbdb46318	-0.08807963
232	0x3d455037	0.048172202
233	0xbd05ee5e	-0.032698028
234	0x3cc1a36b	0.023637494
235	0x3dd3cd18	0.10341853
236	0xbd4a4c32	-0.04938907
237	0xbde467bd	-0.11152599
238	0x3c0dee0a	0.00866271
239	0x3dfe9a69	0.12431795
240	0xbd9dc3a3	-0.0770333
241	0xbe0fdd75	-0.14049323
242	0x3d39beaf	0.045347866
243	0x3c9e4e4b	0.019324442
244	0x3cc88d09	0.024481313
245	0xbda7ac32	-0.081871405
246	0xbbb1e541	-0.0054289405
247	0x3d6b2933	0.057412338
248	0x3d3c4fbf	0.04597449
249	0xbd6f72a7	-0.05845895
250	0x3dd4539a	0.10367508
251	0x3e368a0a	0.17826095
252	0x3ab2bd7e	0.0013636795
253	0xbd524881	-0.051338676
254	0x3e159564	0.14607769
255	0xbd8be105	-0.068300284

classifier.0.bias f4 [128]
0	0x3c945538	0.018107042
1	0x3d8251ce	0.06363259
2	0x3e3a402d	0.18188544
3	0xbdf36b60	-0.118857145
4	0x3d120f3f	0.03565907
5	0xbda22162	-0.079165235
6	0x3d9e1f91	0.077208646
7	0x3e29ffd8	0.16601503
8	0xbddbfed3	-0.10741963
9	0x3da401de	0.08008169
10	0xbe062c11	-0.13102747
11	0xbda80a26	-0.08205061
12	0x3db1769d	0.08665202
13	0xbd6f9b4b	-0.05849771
14	0x3e531c70	0.20616317
15	0x3cf6323b	0.030053249
16	0xbe145f44	-0.14489466
17	0x3e1706e0	0.14748716
18	0x3c03b356	0.0080383625
19	0x3d91c8c4	0.07118371
20	0xbc2f62f1	-0.010704742
21	0x3dd4592e	0.10368572
22	0xbdeef8ea	-0.1166857
23	0xbdf5fcfb	-0.12011143
24	0xbc1c7a98	-0.009550713
25	0xbcfefaf7	-0.031125529
26	0xbce4d985	-0.027935753
27	0xbd4a2b35	-0.04935761
28	0x3dcbdd4a	0.09954317
29	0x3dc60d76	0.09670536
30	0x3d2dee18	0.042463392
31	0x3e373243	0.17890267
32	0x3d1bf322	0.038073666
33	0x3d8bb37f	0.068213455
34	0xbe05b127	-0.1305586
35	0xbc8adf8e	-0.016952302
36	0xbc6cfbc7	-0.014464325
37	0xbe0cc493	-0.13746862
38	0x3d544731	0.051825706
39	0xbe100c63	-0.14067225
40	0x3cd5beb1	0.026091905
41	0x3e061e2c	0.13097447
42	0xbdba471a	-0.09095593
43	0xbde44e44	-0.111477405
44	0xbd1dfcba	-0.038571097
45	0x3e0e9689	0.13924612
46	0x3d0bba86	0.03411343
47	0x3de5e424	0.11225155
48	0x3dc50906	0.09620862
49	0xbd97d4e7	-0.07413655
50	0x3b6cbb36	0.0036122329
51	0x3e126305	0.14295585
52	0xbdfb3ab9	-0.1226706
53	0x3bd035b0	0.0063540563
54	0xbd590702	-0.0529852
55	0x3dca2ba6	0.098716065
56	0x3decc372	0.11560716
57	0x3d33fcd8	0.043942302
58	0xbc818e0d	-0.015814805
59	0x3dbcbce7	0.09215718
60	0x3bd3c44a	0.0064626085
61	0x3d47ac6f	0.04874843
62	0xbcfc9edf	-0.030837474
63	0xbc14ec92	-0.009089606
64	0x3e5eda2f	0.21762918
65	0x3dd68d40	0.1047616
66	0x3dd918c7	0.10600429
67	0x3e0a6442	0.13514808
68	0xbdfea5a3	-0.124339364
69	0x3d4b271f	0.049597856
70	0x3cd7f143	0.02636016
71	0x3b874d95	0.0041291215
72	0xbd85b7b7	-0.065291815
73	0xbc89dc39	-0.016828643
74	0xbbaafe78	-0.0052183233
75	0xbc81fa44	-0.015866406
76	0xbdcfd9c2	-0.10148956
77	0xbc1e1a60	-0.009649843
78	0x3dd65503	0.104654334
79	0x3e47014d	0.1943409
80	0xb9d2d6a5	-0.00040214244
81	0xbb3731b7	-0.0027953216
82	0xbe01ec1f	-0.1268773
83	0x3e14244a	0.14466968
84	0x3d67f14a	0.056626596
85	0x3e0791bd	0.13239188
86	0xbdf9c7c5	-0.12196306
87	0x3d0764a6	0.03305497
88	0xbe0a1f1d	-0.13488431
89	0x3dfdf2b6	0.12399809
90	0x3d9f4798	0.07777327
91	0x3c05024b	0.0081182225
92	0x3a5820a8	0.0008244612
93	0xbdf85a56	-0.12126605
94	0xbe02882e	-0.12747261
95	0x3d22303c	0.03959678
96	0xbd711b69	-0.05886403
97	0xbdca42fd	-0.09876058
98	0xbe1f632b	-0.15565173
99	0xbdc675a0	-0.09690404
100	0xbe1333fd	-0.143753
101	0xbe07b4d7	-0.13252579
102	0x3d9271ba	0.07150598
103	0x3dce47c0	0.10072279
104	0xbdbf3e33	-0.093380354
105	0xbd60b73d	-0.05486225
106	0x3d8d8bbf	0.0691142
107	0x3d990e50	0.07473433
108	0x3cdb437b	0.026765576
109	0x3e028563	0.12746195
110	0xbdb44213	-0.08801665
111	0xbd90e7f4	-0.070754915
112	0xbd7be34e	-0.06149607
113	0xbdf5038a	-0.11963566
114	0xbcdd2d4b	-0.026999136
115	0x3e2109c2	0.15726379
116	0x3d084670	0.0332703
117	0x3de7f1cd	0.11325417
118	0xbcde7265	-0.027154157
119	0xbdc2145c	-0.094765395
120	0xbde4f738	-0.11179966
121	0x3e11afc9	0.14227213
122	0x3d2c5622	0.04207433
123	0x3e0c67eb	0.13711517
124	0x3d03b64a	0.032156266
125	0x3e3fe95c	0.18741363
126	0x3dbd54b6	0.09244673
127	0x3d83de1a	0.06438847

classifier.2.weight f4 [64, 128]
0	0x3da16f5e	0.0788257
1	0xbd9b9e8c	-0.075986
2	0xbd804f43	-0.06265118
3	0xbd9eec70	-0.077599406
4	0xbd33b720	-0.043875813
5	0x3cc051ac	0.023476444
6	0xbd89fc98	-0.067376316
7	0x3d8e2b53	0.06941857
8	0x3da7aa9b	0.08186837
9	0xbd0a929e	-0.03383123
10	0xba630e95	-0.00086615357
11	0xbdaf9436	-0.08573191
12	0x3c5fbbf0	0.013655648
13	0x3c6d3593	0.014478105
14	0xbcf704b0	-0.030153602
15	0xbc0016f5	-0.007817973
16	0xbd8f2ab6	-0.06990568
17	0xbc5f0bc3	-0.013613644
18	0x3d75fb72	0.06005425
19	0xbd1a5f8a	-0.03768877
20	0xbd6db586	-0.058034442
21	0xbb5595f6	-0.0032590604
22	0xbc3cf864	-0.01153383
23	0xbd6ed335	-0.05830689
24	0x3d0d2496	0.03445872
25	0x3d0a6795	0.03379019
26	0x3db31aa8	0.08745319
27	0xbd4a603c	-0.049408183
28	0xbb6773f2	-0.0035316912
29	0x3d960012	0.07324232
30	0xbcce5786	-0.025188219
31	0x3d578f4e	0.0526269
32	0xbbe48008	-0.0069732703
33	0xbd64338c	-0.05571322
34	0xbc5c7329	-0.013455191
35	0x3db30720	0.08741593
36	0xbcc5785d	-0.024105245
37	0xbd0af4b3	-0.03392477
38	0xbd650c22	-0.055919774
39	0x3be36bab	0.0069403253
40	0x3c9ecf38	0.019385919
41	0xbc705827	-0.014669455
42	0x3cf66e10	0.030081779
43	0xbd00ed05	-0.03147604
44	0x3d2d7d7f	0.04235601
45	0x3c210615	0.00982811
46	0xbc4eef6c	-0.012630325
47	0x3cddc004	0.0270691
48	0x3d49617f	0.049165245
49	0xbd8e909b	-0.06961175
50	0xbd4ffc81	-0.050777916
51	0x3ce683bf	0.028138993
52	0x3d3a983d	0.045555342
53	0xbd65c524	-0.05609621
54	0xbd03232d	-0.032015968
55	0x3d8919c8	0.066943705
56	0x3d12147f	0.035664078
57	0xbcbfabba	-0.023397315
58	0xbd722ded	-0.05912583
59	0xbcf653c0	-0.030069232
60	0x3c36274d	0.0111177685
61	0xbd553ef5	-0.052061994
62	0xbb4350ee	-0.0029802877
63	0x3d54ca15	0.051950533
64	0x3d82b680	0.06382465
65	0xbd4363c3	-0.047702562
66	0xb958531c	-0.00020630326
67	0xbd8233e5	-0.06357554
68	0x3cc0be95	0.023528377
69	0xbd1d2650	-0.038366616
70	0xb9788f97	-0.00023704614
71	0x3d947032	0.07247962
72	0xbd274157	-0.040833797
73	0xbce2fc47	-0.027708186
74	0x3d42d178	0.047563046
75	0xbc7e20d9	-0.015510761
76	0xbd12c5d9	-0.035833213
77	0xbcca6dc8	-0.02471055
78	0x3d92c214	0.07165924
79	0xbd1fbe25	-0.038999695
80	0x3d7cb02e	0.061691456
81	0x3d74af7a	0.05973766
82	0x3da42160	0.08014178
83	0xbcb8c273	-0.022553658
84	0x3d8b3631	0.067974456
85	0x3db3d145	0.08780149
86	0x3ca6339e	0.020288285
87	0x3cbf8812	0.023380313
88	0x3d579447	0.052631643
89	0x3db2d5d1	0.087321885
90	0x3d16bb36	0.036799632
91	0x3d408440	0.047001123
92	0xbd98c5ab	-0.07459577
93	0xbdaa649a	-0.083199695
94	0x3d193b3b	0.037410002
95	0x3d1de0ac	0.038544342
96	0xbda734ed	-0.08164392
97	0x3d0a4bfa	0.033763863
98	0xbc3464d7	-0.01101037
99	0x3d351817	0.044212427
100	0x3da4f6a9	0.08054859
101	0xbb33eb30	-0.0027453415
102	0xbd268d04	-0.040661827
103	0x3c26a742	0.010171713
104	0xbd4a2ea6	-0.049360894
105	0xbd2ca8bd	-0.04215311
106	0xbd921df1	-0.07134617
107	0xbb305d98	-0.0026911255
108	0x38fcc306	0.00012052622
109	0xbbee6754	-0.0072755013
110	0xbd643fdf	-0.055724975
111	0xbcd088f0	-0.025455922
112	0xbdba0ea3	-0.09084823
113	0x3d8a190f	0.06743061
114	0xbc26c4e9	-0.010178783
115	0x3d4f7228	0.050645977
116	0xbd287041	-0.04112268
117	0x3cd3bae4	0.025845952
118	0xbd369271	-0.04457325
119	0xbd8bc061	-0.06823803
120	0x3d5e6351	0.054293934
121	0xbd5ee328	-0.05441585
122	0xbd98c77d	-0.07459924
123	0x3d9a5fe0	0.07537818
124	0xbd83cc0d	-0.06435404
125	0x3d433e13	0.04766662
126	0x3cdf69cd	0.02727213
127	0xbce24184	-0.02761913
128	0x3d1f6295	0.038912375
129	0x3c2f5c1a	0.010703111
130	0x3c538e9a	0.012912417
131	0xbd5efbf8	-0.054439515
132	0xbd88e716	-0.06684701
133	0xbd6efa3c	-0.05834411
134	0x3c2b99b3	0.0104736565
135	0x3d4d36c2	0.05010105
136	0xbd533fd6	-0.05157455
137	0x3c81c0d7	0.015839024
138	0x3da42a17	0.080158405
139	0x3ca0adb1	0.019614073
140	0x3db2d2f7	0.087316446
141	0xbb03ab0f	-0.0020090973
142	0x3d99013f	0.07470941
143	0x3d336c6c	0.04380457
144	0xbd69fb31	-0.05712432
145	0x3d597361	0.05308855
146	0xbd9aa235	-0.0755047
147	0x3d423f6b	0.04742376
148	0x3da30e11	0.07961667
149	0xbd973420	-0.07382989
150	0x3cf60a85	0.030034313
151	0x3d10809d	0.035278905
152	0xbc0a216c	-0.00843082
153	0x3c4b5c3b	0.012412126
154	0xbbb113a4	-0.0054039527
155	0x3d4e0083	0.050293457
156	0x3da22bb1	0.0791849
157	0x3d744560	0.059636474
158	0x3d09af1d	0.033614267
159	0xbd231f4f	-0.03982478
160	0xbd2e1781	-0.042502884
161	0x3d0a7beb	0.033809584
162	0x3c048256	0.008087715
163	0x3c1005a8	0.008790411
164	0x3d35eacc	0.044413373
165	0x3db8eb31	0.09029234
166	0x3dd6f82d	0.104965545
167	0xbd094c5f	-0.0335201
168	0x3d190d50	0.03736621
169	0xbd9a99db	-0.07548877
170	0x3c654d31	0.013995455
171	0x3d214e09	0.03938106
172	0x3da69870	0.08134544
173	0x3c7f9bd0	0.015601113
174	0xbcb581c1	-0.022156598
175	0x3d945d55	0.07244364
176	0x3dcfc570	0.1014508
177	0xbd4bb422	-0.049732335
178	0x3d727a30	0.05919856
179	0x3d1eb2b7	0.038744655
180	0x3c2c7dd7	0.010528049
181	0x3dbc14fe	0.091836914
182	0xbdb0fde9	-0.086421795
183	0xbd8d4c17	-0.068992786
184	0x3c38698c	0.011255633
185	0x3dd5e535	0.104441084
186	0x3bf71c34	0.007541204
187	0x3d99cc8e	0.07509719
188	0xbd0198f1	-0.031639997
189	0xbc08bc22	-0.008345636
190	0x3d32d62f	0.043661293
191	0x3ced6c0f	0.02898219
192	0xbbccba93	-0.0062478273
193	0x3d12335b	0.035693508
194	0xbd8d3d45	-0.06896452
195	0xbd738d8f	-0.059461173
196	0x3d557789	0.05211595
197	0x3d1768ab	0.036965054
198	0x3d718b35	0.05897065
199	0xbb6562c3	-0.0035001494
200	0xbd07575d	-0.0330423
201	0xbd069f79	-0.03286693
202	0x3d714bd2	0.0589102
203	0x3cb794d5	0.022409836
204	0x3d9a543e	0.07535599
205	0x3dad5489	0.084633894
206	0xbd4b4738	-0.049628466
207	0xbd54bdfd	-0.051939
208	0x3c9e1612	0.019297633
209	0x3c6ac719	0.014329695
210	0x3d499bcb	0.04922084
211	0x3d4b755e	0.049672477
212	0xbcd8e390	-0.026475698
213	0xbcc7e3dc	-0.024400644
214	0xbd074ef4	-0.03303428
215	0x3c71b998	0.014753722
216	0xbd81f0a0	-0.06344724
217	0x3d452d18	0.048138708
218	0x3c734ad2	0.0148493815
219	0x3d47c11f	0.04876816
220	0xbd3b29dd	-0.04569422
221	0x3d509cab	0.05093066
222	0xbd065aa8	-0.0328013
223	0xbd2a2c51	-0.04154617
224	0x3dc8381f	0.09776329
225	0xbbbd3337	-0.0057739276
226	0x3ae23df2	0.0017260893
227	0x3c044783	0.00807369
228	0x3a846be5	0.0010102956
229	0xbd827b16	-0.06371133
230	0x3d5fc3f4	0.054630235
231	0xbda1762d	-0.07883868
232	0x3c322bcd	0.010874701
233	0xbd0ea494	-0.034824923
234	0xbc575824	-0.013143573
235	0x3d073276	0.033007108
236	0x3d13a86f	0.036049303
237	0xbdafafb0	-0.085784316
238	0x3c6de09c	0.014518883
239	0xbd93c498	-0.07215232
240	0x3d5203c8	0.051273137
241	0xbd9b243a	-0.07575269
242	0xbd9f6f23	-0.077848695
243	0x3de4af35	0.111662306
244	0xbd01fb50	-0.03173381
245	0xbd09a3ac	-0.033603355
246	0x3d9e7e60	0.07738948
247	0x3aced095	0.0015778715
248	0x3cb1a885	0.021686802
249	0xbb2c23a2	-0.0026266356
250	0x3d8addbe	0.06780575
251	0xbcd7eb57	-0.026357336
252	0x3cb238b1	0.021755548
253	0x3cbea571	0.023272248
254	0x3d8e39a4	0.06944588
255	0xbce29935	-0.027660945

classifier.2.bias f4 [64]
0	0xbd2384d8	-0.03992161
1	0x3cc38a4a	0.023869652
2	0xbd9e4072	-0.07727136
3	0x3e06cb5c	0.13163513
4	0x3db5d531	0.08878554
5	0x3db49a32	0.08818473
6	0xbd107165	-0.03526439
7	0x3de3cef1	0.11123455
8	0xbccab71a	-0.024745513
9	0xbdaaa65a	-0.0833251
10	0x3de20ee3	0.11037996
11	0x3d65d3df	0.05611026
12	0x3d8e7b5d	0.069571234
13	0xbd0aefb7	-0.033920016
14	0x3da7dd8e	0.08196555
15	0x3c11e0cf	0.008903696
16	0x3d7fae65	0.062422175
17	0xbc86a1d9	-0.016434597
18	0x3d5f9d2d	0.054593254
19	0x3a8bf238	0.0010677045
20	0xbc08d367	-0.0083511835
21	0xbd2a9703	-0.041647922
22	0xbd05412d	-0.03253286
23	0x3b35a40a	0.0027716183
24	0x3c20c757	0.009813151
25	0xbda131eb	-0.07870849
26	0xbd3d3151	-0.04618961
27	0x3d812a14	0.06306854
28	0x3c6d751a	0.014493251
29	0x3bd09f1d	0.006366624
30	0x3c5a55ff	0.013326167
31	0x3dd2cd42	0.10293056
32	0x3da7858a	0.081797674
33	0xbd89eec5	-0.06734995
34	0x3d75482f	0.059883293
35	0x3d638b3b	0.055552702
36	0x3dbf3e80	0.09338093
37	0xbd62c097	-0.05535945
38	0xbd9e2157	-0.07721203
39	0x3dfc43dd	0.123176314
40	0x3d8cf044	0.068817645
41	0x3d6d2a3d	0.05790161
42	0x3dea0aaf	0.11427819
43	0xbcb96376	-0.022630434
44	0xbd4245f6	-0.04743
45	0xbd1fd0ce	-0.03901749
46	0xbdac87e2	-0.08424355
47	0x3cdd1475	0.026987294
48	0x3cda7a49	0.026669638
49	0x3d860751	0.06544364
50	0x3d3bb3a0	0.0458256
51	0xbd4fe521	-0.050755624
52	0xbb034e6a	-0.0020035752
53	0xbd495dc4	-0.049161687
54	0x3d5e2602	0.054235466
55	0xbd2ab2e4	-0.04167451
56	0xbd95d229	-0.073154755
57	0x3da54d6a	0.08071406
58	0x3dc25cb0	0.09490335
59	0x3dbb979a	0.09159775
60	0x3ce95de2	0.02848715
61	0x3d875138	0.06607288
62	0xbc2f99ae	-0.010717792
63	0x3dbd4eca	0.092435434

classifier.4.weight f4 [1, 64]
0	0xbd643e44	-0.055723444
1	0x3e813e88	0.2524302
2	0xbc5c48e3	-0.013445112
3	0x3ed6b56c	0.4193529
4	0xbe3e33be	-0.18574426
5	0x3e0d7cd2	0.13817146
6	0xbca39215	-0.019967118
7	0x3efba9cb	0.4915298
8	0xbe92fb3c	-0.28707302
9	0x3ba1501c	0.00492288
10	0x3eaeccdb	0.34140667
11	0x3c1bed52	0.009517031
12	0x3e14aecc	0.14519805
13	0x3dcc1bb6	0.09966223
14	0xbe84a658	-0.2590816
15	0x3da7a71c	0.081861705
16	0x3e665e91	0.22497012
17	0xbc939b45	-0.018018374
18	0xbe76bbb8	-0.24095047
19	0x3ec922f3	0.39284477
20	0xbb992666	-0.004673767
21	0xbda7d855	-0.08195559
22	0xbd86bade	-0.06578611
23	0xbdec60af	-0.115418784
24	0x3eb91558	0.36149096
25	0xbc998b81	-0.018743278
26	0x3e588eb6	0.2114819
27	0x3e306a8c	0.17228144
28	0x3c8086b1	0.015689226
29	0x3db6b42e	0.08921085
30	0xbddeac5b	-0.10872718
31	0xbf1939c8	-0.5985379
32	0xbe0c33d9	-0.13691653
33	0x3d14653b	0.036229353
34	0xbdbe1af8	-0.09282488
35	0xbdeba8f4	-0.115068346
36	0x3dc44685	0.09583763
37	0x3beb64db	0.007183654
38	0x3e02465b	0.12722151
39	0xbee2904c	-0.44250715
40	0xbe3fb07b	-0.18719666
41	0xbe86bd16	-0.26316136
42	0xbeb52d5a	-0.35386163
43	0xbe29326b	-0.16523139
44	0xbdd683ab	-0.104743324
45	0xbdef9546	-0.116983935
46	0xbdc5443c	-0.09632155
47	0x3bfb3a1d	0.0076668398
48	0xbe715077	-0.23565851
49	0xbe6caec8	-0.23113549
50	0x3e05716b	0.13031547
51	0x3c9dbbde	0.019254621
52	0xbedb5e2d	-0.42845288
53	0xbe03c75d	-0.1286902
54	0xbdaed806	-0.08537297
55	0xbdecb5b9	-0.11558098
56	0x3cceecc1	0.025259377
57	0x3daa0a8b	0.08302792
58	0x3ddaa0d0	0.10675204
59	0x3e587778	0.21139324
60	0xbdfb0569	-0.12256891
61	0x3eb52737	0.3538148
62	0x3d8e3bca	0.069449976
63	0x3eb91c13	0.3615423
