checkpoints/mlp_model/fold_3.pth (torch, 58814 bytes, 5 tensors)

classifier.0.weight f4 [128, 40]
000000 3e de 0b be e3 ad 54 bc 45 54 90 bd a5 5f f4 bd
       -0.13658997 -0.012980911 -0.07047323 -0.11932305
000010 94 b7 af bd 70 74 9b bd 83 8b b0 bd 41 8e 0a bd
       -0.085799366 -0.07590568 -0.0862036 -0.03382707
000020 ff 20 a6 3d c0 f3 dc bd 23 2e 0d be 5c c3 87 3d
       0.08111762 -0.10788679 -0.13787131 0.06629059
000030 f0 04 27 3e 74 96 c4 bc 3a f1 7b 3d 8f 5b a2 bd
       0.16310477 -0.023997523 0.06150935 -0.0792762
000040 ad dc 2f be 8c 1e 91 3d f5 a4 09 3e 5f 25 a5 bd
       -0.17174025 0.070859045 0.13441832 -0.080637686
000050 a5 02 d1 bc e9 6c 1f 3e 34 e2 c0 bd d1 e8 07 3d
       -0.025513956 0.1556889 -0.09418145 0.033181015
000060 af eb de bd 72 ef 2c 3e 6c 78 87 bd ee df e5 3d
       -0.10884797 0.16888216 -0.066147655 0.11224352
000070 04 50 9e 3d 27 13 77 3d c9 70 a3 bd 1f 4a e8 3d
       0.077301055 0.060321 -0.079804964 0.113422625
000080 75 00 b9 bd 99 56 ad bc 28 b4 ae 3c be 36 51 3d
       -0.0903329 -0.021159457 0.02132614 0.051077597
000090 54 e4 17 3e 50 85 be 3c 35 03 14 be 32 62 07 be
       0.14833194 0.023256928 -0.14454348 -0.13221052
0000a0 ce 13 d8 bb 06 0f 89 3d 5a 13 cf 3d 4d 3d 37 bd
       -0.006594158 0.066923186 0.10111113 -0.044736195
0000b0 90 38 0d 3b 3f 98 1e 3e a8 c6 32 bd c0 1f a4 bd
       0.0021548606 0.15487765 -0.043646485 -0.08013868
0000c0 69 c7 0c be be d9 cd 3a a7 0e fc bd bd b3 e0 bd
       -0.13747944 0.0015705151 -0.12307482 -0.10971782
0000d0 f9 ca 8e bd d2 42 0d 3d 42 ba f8 bc 1d b7 df bc
       -0.06972308 0.034487553 -0.030362252 -0.027308995
0000e0 d8 b1 95 3d 90 8a 18 be 33 5a f8 3d fa 43 b6 3d
       0.07309312 -0.14896607 0.12126579 0.08899684
0000f0 60 4b 2d bc 52 65 4c bd cd cf af bd be d2 87 bd
       -0.010577053 -0.049901314 -0.08584557 -0.06631993
000100 54 d1 98 3d e4 b6 37 3c c4 7d 13 3e cd 2d d2 3d
       0.07461801 0.011213038 0.14403445 0.10262642
000110 d8 7e 15 3d 49 b0 15 be 25 3a c9 bd e5 7a 0b 3d
       0.03649792 -0.14618029 -0.09825543 0.03405275
000120 7c cf bf bc 85 e7 08 be 93 a4 0d be 2b 56 06 3e
       -0.023414366 -0.13369568 -0.13832311 0.13118808
000130 77 15 8c 3d d0 d9 fa 3d 8f d2 e1 3d 95 4e 1e 3d
       0.068400316 0.12248576 0.11026489 0.03864916
000140 2b a9 ed 3b 3c ee 16 3c e4 9b 11 bd f0 95 03 be
       0.0072528324 0.009212073 -0.03554906 -0.12850165
000150 b8 3c d5 3d 5b c5 06 be 83 fa e0 bd cf 1f 29 be
       0.10411972 -0.13161223 -0.10985281 -0.1651604
000160 82 45 4c bd 8f 85 20 be 3d 4d e1 3d 31 4b a6 bd
       -0.049870975 -0.15675949 0.1100106 -0.081198104
000170 bb 17 2f bd 4e ce a7 3d a9 9e 21 be 4c 1d a3 bb
       -0.04274724 0.08193646 -0.1578318 -0.0049778577
000180 b8 ef c4 3c d3 59 d5 bd cf d9 fa 3d 1a f6 31 3d
       0.024040088 -0.10417523 0.12248575 0.04344759
000190 48 e9 3b 3d c2 b1 ca 3d 17 d8 ac 3d 62 76 88 bc
       0.04587677 0.09897186 0.08439653 -0.016658012
0001a0 71 09 1c 3d 38 e0 59 3d 9e 39 23 3e 7f 1c 0e bc
       0.03809494 0.053192347 0.15939948 -0.008673786
0001b0 c8 16 7b 3d 1f d7 ab bb c2 c6 28 bd 1f 1d 14 3e
       0.061301023 -0.0052441503 -0.041205175 0.14464234
0001c0 eb 1c 16 3e f8 9d 04 3e 6c c0 d0 bb 3e 0f 3c bc
       0.14659469 0.12950885 -0.0063705947 -0.011478243
0001d0 7b f7 9d 3d 09 89 a0 3d 8e 8c 96 3d db 53 f5 3d
       0.07713219 0.078386374 0.073510274 0.11978885
0001e0 45 76 98 3c 14 38 2a 3d 38 2d 74 bc cf bf 4d bc
       0.018611083 0.041557387 -0.014903359 -0.012557938
0001f0 5e 04 e4 3d f9 3f 37 3c af c0 14 be cd 29 e9 3b
       0.111336455 0.011184686 -0.14526628 0.0071155787
000200 f4 ca 0a 3e 67 fa 4b bd 99 88 87 bc eb 36 16 3e
       0.13553983 -0.04979935 -0.016544627 0.14669387
000210 d4 52 66 bd 85 e2 8e bc f8 49 3e ba 56 76 5b bc
       -0.056231335 -0.017441997 -0.0007258947 -0.013394913
000220 bf 7c 12 3e cc 08 5f 3d 0b d2 00 3d 05 92 eb 3c
       0.143054 0.05445175 0.031450313 0.028756151
000230 6a e3 e7 3d ab 75 b4 bc 8b b7 cb bd 8a 48 32 bd
       0.11322673 -0.022028765 -0.099471174 -0.04352621
000240 67 e2 86 3c 20 26 9c 3d 08 27 c0 3d 2a 85 89 bc
       0.016465379 0.07624459 0.093824446 -0.01678713
000250 9f 14 77 3c c1 2e 74 3d 3a 86 39 3b 52 01 10 3e
       0.0150806 0.0596149 0.0028308765 0.14063004
000260 62 f4 0e be 54 5f 93 3d 09 d2 f1 bd 16 f5 5e 3d
       -0.13960412 0.07195917 -0.11807639 0.05443295
000270 97 22 18 be 6e 60 ee bd b8 bf a1 3c d7 ff d1 bd
       -0.14856945 -0.11639486 0.019744739 -0.10253876
000280 e5 63 07 3e b1 dc 6e 3c 1d 9e 0e bd f8 18 d7 3d
       0.132217 0.014578984 -0.034818757 0.10502809
000290 4e 41 9b bd 31 d0 a3 bd 96 d4 39 bd 7a 5c 0d be
       -0.07580815 -0.07998694 -0.045368753 -0.13804808
0002a0 94 cd da 3d af 9e 58 bd 40 7c be bd 04 5b e6 bd
       0.10683742 -0.052885707 -0.093010426 -0.112478286
0002b0 7c dc b5 bd 52 01 e5 bd 3c fd c5 3d 54 1d 10 be
       -0.08879945 -0.111818925 0.09667441 -0.14073688
0002c0 09 cd a0 3d ee 15 d9 bb 37 e6 18 be 9e 14 48 bd
       0.07851607 -0.0066249287 -0.1493157 -0.048847787
0002d0 a0 6b e5 3d b5 78 d0 bd 59 86 cf bd 0f 0a 35 3d
       0.112021685 -0.10179273 -0.10133047 0.044199046
0002e0 98 6b b6 bc 53 43 00 be 9b 64 12 3e 9c 91 25 3c
       -0.022268102 -0.12525682 0.1429619 0.010105517
0002f0 7e 5d 55 3c 2e b8 fd 3d 74 1e e4 3d ad 33 e0 3d
       0.013022779 0.12388645 0.11138621 0.109473564
000300 79 6f d9 bd 0d c1 01 3d ab a5 98 bd 12 cd ed bd
       -0.10616965 0.03167825 -0.07453474 -0.1161138
000310 6c 89 9b bd 3d 41 5c bc 7f 7d e8 bd 5c d0 b4 bd
       -0.075945705 -0.013443288 -0.113520615 -0.08828804
000320 32 0e 0b 3e 81 25 cc 3c ff e4 12 3e b4 4d 0e 3d
       0.13579634 0.024920227 0.14345168 0.034742072
000330 e8 fc f9 bd ea d9 15 3d d9 44 87 bd 9c 76 ce bd
       -0.12206441 0.036584772 -0.066049285 -0.10081217
000340 26 9c f4 bd bc 20 75 bd 93 87 a4 bd fd 5c 81 3d
       -0.119438455 -0.05984567 -0.08033671 0.06316564
000350 c6 18 dd bb bf 8e 0f bd 9d 3d 8c bb ed 86 78 bd
       -0.006747338 -0.035048243 -0.004279806 -0.06067555
000360 ae 60 0e 3d 43 77 63 3d 91 da 10 3e 67 93 1b be
       0.03476017 0.05553366 0.14145876 -0.15192948
000370 67 1a 5d 3d c7 d8 48 3d 35 26 40 3d ed 8e 96 bd
       0.053980257 0.04903486 0.046911437 -0.0735148
000380 6d 69 79 3d f5 a7 20 3d 03 75 7b 3c e9 ad 93 3d
       0.060891557 0.039222676 0.015347722 0.07210905
000390 c3 b4 c6 3d c6 f3 d8 bd e3 3f 08 3e e4 18 86 3d
       0.09702446 -0.10593371 0.13305621 0.06547716
0003a0 59 33 43 3d 57 3f f9 bb 8f 72 07 3e dc 48 dc bd
       0.04765639 -0.0076064277 0.13227294 -0.10756084
0003b0 90 34 f3 bd 9c 9c a4 bc 66 89 4f 3c ec b0 1b be
       -0.1187526 -0.020094208 0.012667036 -0.15204209
0003c0 36 71 e7 3b 14 7d 89 bc 94 05 bc bd db 31 13 be
       0.0070630563 -0.016783275 -0.091807514 -0.14374487
0003d0 a0 1e 36 3a 18 d9 b3 bd 94 90 0a 3e da f5 18 bd
       0.00069473125 -0.08781642 0.13531715 -0.037343837
0003e0 c1 a5 b6 3d e2 d8 0a be d1 85 da bd 74 52 20 bd
       0.08918334 -0.13559297 -0.10670055 -0.039141133
0003f0 0b 11 c9 bc 41 04 87 3d 8f e7 4d bc a9 91 00 bd
       -0.02454426 0.06592608 -0.012567415 -0.031388912

classifier.0.bias f4 [128]
000000 8c d2 3f 3e 58 d4 ba bd 82 98 e0 3d 8a 6d 04 be
       0.18732661 -0.091225326 0.109665886 -0.12932411
000010 4f 49 16 3e cd 57 f3 bd bc 28 07 3d 96 0f e4 3c
       0.14676403 -0.11881981 0.03299783 0.027839463
000020 d1 0d b9 3d 6d dd 52 bd 2f 39 b7 3d b8 37 23 3e
       0.090358384 -0.0514807 0.08946454 0.15939224
000030 19 e6 ff bc 1c 4f 16 3d f5 59 0e 3e bd 23 d8 bd
       -0.031237649 0.03669654 0.13901503 -0.105536915
000040 92 e8 c3 bd 87 2a 43 3d b2 41 1e 3e bc ab 4f 3e
       -0.09565844 0.04764798 0.15454748 0.20280355
000050 28 36 58 bd 29 da 06 bd 77 12 e4 3d c2 cd c6 bd
       -0.052786022 -0.032922897 0.111363344 -0.09707214
000060 57 f8 28 3c 63 ff bb bd 70 bc 91 3d c0 6e 03 bd
       0.010313115 -0.091795705 0.0711602 -0.03208804
000070 97 db ef bd df f9 05 be f7 4c 13 3e 53 dc 78 bd
       -0.11711805 -0.130836 0.14384829 -0.060756993
000080 ba b4 9f 3d d0 13 b4 3d da 08 94 bd 4a b7 cb bd
       0.07798143 0.087928414 -0.07228251 -0.09947069
000090 84 71 fa 3d 51 ad 29 3e e5 cd 93 bc c2 ef e4 3d
       0.12228683 0.16570021 -0.018042514 0.11178543
0000a0 d1 39 69 bd 3c 8b a2 bd d1 88 1e 3e 57 c2 8a 3c
       -0.056939904 -0.07936713 0.15481879 0.016938372
0000b0 33 c4 25 3e 1e bc 9f 3b 24 7e 75 bd c6 92 af bd
       0.16188125 0.0048747202 -0.05993475 -0.08572917
0000c0 78 7c c7 bd f1 1a f9 bd 63 a0 24 3e 2d db 8f bd
       -0.097405374 -0.12163342 0.16076808 -0.07024226
0000d0 ba aa 60 3d 62 3c d4 bd e6 c9 a6 3d 6e 16 08 3e
       0.054850318 -0.103630796 0.08143978 0.13289806
0000e0 db b9 c9 3d fe 88 cd bd 4e 41 ec bd 7f 48 4e 3c
       0.09849902 -0.10035895 -0.115358934 0.012590527
0000f0 36 c2 4d bb 76 e2 05 3e f5 c2 ff bd 93 de 01 be
       -0.0031396276 0.13074669 -0.12488357 -0.12682562
000100 e0 71 55 3d 36 39 48 bd 13 c5 19 3e c3 de 6b bc
       0.052110553 -0.048882686 0.15016584 -0.014396372
000110 35 85 a1 3d a4 4f 0b 3e 18 a5 15 3e d7 ef 95 3d
       0.07886735 0.13604599 0.1461376 0.073211364
000120 70 24 9e 3d a6 f5 0c be 8c 27 d8 3d de c0 10 be
       0.07721794 -0.13765582 0.10554418 -0.14136073
000130 b0 1c 44 bd 4e 5b e8 3d 86 e9 37 3d 40 e4 75 3d
       -0.04787892 0.1134554 0.04490044 0.06003213
000140 3b a5 c0 3d 49 a9 f3 bd 09 ce 92 3d 44 01 ca 3b
       0.09406515 -0.11897523 0.07168204 0.0061647017
000150 a3 ae 19 be 63 64 51 bd c7 ee 2a bc 78 d2 c2 3d
       -0.15008025 -0.051121127 -0.0104329055 0.095128
000160 4e b0 3a 3e a7 3a 9d 3d 1d 1e e3 3d 45 75 54 bc
       0.18231317 0.07677203 0.11089728 -0.012967412
000170 96 89 e1 bd 94 b4 d3 bc ad f9 c9 bd ff ab 11 be
       -0.110125706 -0.025842942 -0.09862075 -0.14225768
000180 f8 29 ee 3d 58 da 0f 3e 41 92 2a 3d 2b 6f b3 bd
       0.11629099 0.14048135 0.041643385 -0.08761438
000190 63 42 05 be 40 0c 0b be f1 e0 90 bd c2 aa 06 be
       -0.13013606 -0.13578892 -0.07074154 -0.13151076
0001a0 51 8e 74 bd a3 50 66 3d 3f cb a5 3d ac 50 e5 bd
       -0.059706036 0.056229245 0.08095407 -0.111970276
0001b0 8a d9 fa bd 51 cd 2f 3e 4a 2a aa 3d 06 6f 5c 3d
       -0.122485235 0.17168166 0.08308847 0.053816818
0001c0 d0 ef a5 3d a5 0e f3 bc 8f 71 3c bd b1 e8 16 bc
       0.08102381 -0.029670069 -0.046006735 -0.009210751
0001d0 39 39 7f bd 13 93 f0 bd 7d a4 69 3d 64 ce ca 3d
       -0.06231043 -0.11746802 0.057041634 0.09902647
0001e0 15 62 85 bd ce 9e a4 bd 5f de 95 3d 67 d3 9c 3d
       -0.06512848 -0.08038102 0.073178045 0.07657509
0001f0 be 08 df 3d 20 6c a0 bd 73 7b de 3c 57 b7 95 bd
       0.10890339 -0.07833123 0.027158475 -0.0731036

classifier.2.weight f4 [64, 128]
000000 52 29 1b bd 53 ad c7 3c 2e 57 37 3d 71 2b 5c bd
       -0.037881203 0.02437464 0.044760875 -0.053752366
000010 0c 8a 38 bd 4c 7d 1b 3c b3 55 8b 3d f8 fd 95 3c
       -0.045053527 0.009490322 0.06803455 0.018309578
000020 86 e4 41 ba c2 0f 4b bd b5 ce 28 bd 94 ee 62 3d
       -0.00073964184 -0.049575575 -0.041212756 0.055403307
000030 0e 4a db 3c 25 6c 91 bd 79 f6 be b5 ed 50 19 bb
       0.02676871 -0.07100705 -1.4227836e-06 -0.0023394183
000040 48 d3 1f bd c9 98 18 3d 65 87 23 bc 57 3a 0b 3e
       -0.039019853 0.037255082 -0.009981011 0.13596474
000050 33 77 54 3d e4 fd 77 bd 6b 1d 11 3e fd ba 57 3c
       0.05187149 -0.060544863 0.14171378 0.01316714
000060 21 20 53 3d 24 6b ee 3c db 91 10 3d 53 15 70 3d
       0.051544312 0.029103823 0.03529535 0.058614086
000070 52 8a 30 bd c9 80 98 bd 48 bd 51 bd da 4e 90 3d
       -0.043100663 -0.07446439 -0.051205903 0.0704629
000080 46 7f 82 3b 4e 48 8f 3d 04 3a 6a 3d 16 39 13 bd
       0.0039824573 0.06996213 0.057184234 -0.035943113
000090 ae 9e a9 bd 8c 41 09 bc 7f 71 3c bd 74 a0 0e bb
       -0.08282219 -0.008377444 -0.046006676 -0.0021763118
0000a0 f8 f0 87 bc 6f c4 c3 3c 65 a7 23 3d 09 08 68 bd
       -0.016594395 0.023897378 0.03995456 -0.056648288
0000b0 97 2b 46 bc d1 fd 55 bc 2c a0 7a bc dc ef 47 bd
       -0.012095354 -0.013061003 -0.015296977 -0.048812732
0000c0 79 00 ce 3d d3 30 25 bc 89 97 85 3d 3c d8 45 3d
       0.10058684 -0.010082441 0.06523044 0.04830192
0000d0 95 8d 56 bd e4 f7 3c 3d 96 a2 30 bd d8 5c ae bd
       -0.052381117 0.046134844 -0.043123804 -0.08513802
0000e0 1e 4a 8c 3b 92 96 54 bd 7e 83 af 3b 12 74 20 3d
       0.0042812964 -0.051901408 0.0053562513 0.039173193
0000f0 4e ce 57 bd 46 4f 5a 3d a3 68 53 3c 93 b4 37 bd
       -0.05268698 0.053298257 0.012903365 -0.044849943
000100 3e 42 19 bb b0 c9 58 bc bd 9a 42 3d 50 f5 8b 3d
       -0.002338543 -0.01323168 0.04751085 0.06833899
000110 01 1c 0e bc ed bc 35 3d 6c 9d 52 bd 86 ac 9f 3d
       -0.008673669 0.044369627 -0.05141966 0.07796578
000120 e0 7b 5d 3d 53 7e 13 3d 34 8d 75 3d bc 2a 6d bd
       0.054073215 0.036009144 0.059949115 -0.057902083
000130 92 1c 65 bc 3f 2a 83 3a 78 80 a5 3a e3 21 8e 3d
       -0.0139838625 0.0010007097 0.0012626788 0.06940057
000140 b9 dd d6 3d 16 9b 97 bd 35 c1 65 bc 94 b2 28 3d
       0.10491509 -0.07402627 -0.014023115 0.04118593
000150 46 be 20 bd 16 f8 6c 3d 2e 3a f4 3d 94 ca 2c 3d
       -0.03924396 0.05785378 0.119251594 0.04218538
000160 c8 04 ee 3d d7 f2 62 bd 9d bc 14 bd ed 51 4c bd
       0.11622006 -0.05540737 -0.03631269 -0.049882818
000170 da c5 fd 3d d9 6d 55 3d 52 5b 4b 3c a6 32 54 3b
       0.12391253 0.052106712 0.012411909 0.0032378822
000180 03 da 8d 3d de ae 96 3d 08 e4 ea 3d 69 f8 bf 3d
       0.06926348 0.07357572 0.11469275 0.09373552
000190 2f 94 a6 3c 08 93 ad bc 81 a3 89 bd e4 c6 4b bd
       0.020334331 -0.021188274 -0.06720639 -0.049750224
0001a0 b7 8f 84 bd bb a9 ef ba f5 11 be 3c a4 7c 38 bc
       -0.06472724 -0.0018284837 0.023201922 -0.011260185
0001b0 c3 7e 97 3d bf f0 86 bd 58 87 9d bc b6 bf 1a 3d
       0.07397225 -0.065888874 -0.019229576 0.037780486
0001c0 59 03 b8 3d d0 c8 18 3e b3 3f 26 bc e9 e0 4e 3c
       0.089850135 0.14920354 -0.010147023 0.012626865
0001d0 77 46 53 bd 52 42 61 bd f3 1b 30 bd c9 c6 c4 bc
       -0.051580872 -0.05499489 -0.042995404 -0.02402057
0001e0 ec ae 9f bd de cf db bc fe d9 b7 3d 95 20 28 bb
       -0.077970356 -0.026832517 0.089771256 -0.0025654186
0001f0 a5 35 f9 bc 17 3f 8e 3b 02 42 5a bc ab 9a d8 3d
       -0.030421088 0.004341017 -0.013321402 0.105763756
000200 4e 13 21 3e c9 4d 84 bd 8b 29 e4 3d 07 48 de bc
       0.1573002 -0.06460149 0.11140736 -0.027133955
000210 69 45 43 bd f9 d0 ee 3c 5e e5 1c bd fb 03 de 3c
       -0.047673617 0.02915238 -0.03830468 0.027101507
000220 a4 a9 c4 3c 47 d2 01 3e 4f 42 95 3d b5 06 ba bd
       0.024006672 0.1267787 0.07288038 -0.090833105
000230 1e ac a9 3d b5 77 8c 3d b1 ce 8e bd 2f c8 23 3c
       0.08284782 0.0685877 -0.06973017 0.009996458
000240 0e 86 60 bc e7 a2 fb 3d a2 c2 d9 3c ce 38 40 bd
       -0.013703836 0.122869305 0.026582066 -0.046929173
000250 28 c6 61 bd 61 10 99 3c bb 26 f0 bc ab e5 8a 3d
       -0.055120617 0.018684568 -0.029315343 0.06782087
000260 97 54 87 bd 0a 0c ac 3d 2a d1 45 3d f1 b2 1a 3d
       -0.06607931 0.08400734 0.048295178 0.037768308
000270 ce e6 83 bb e9 8d 8c 3d bb 15 1f 3d 11 69 d9 3d
       -0.004025317 0.06863005 0.038839083 0.10615743
000280 77 7b 49 bd 66 df 11 bd 7a 42 6f 3d 72 a1 ec 3d
       -0.04919001 -0.03561344 0.058413006 0.11554231
000290 8f b7 c2 3d 16 a0 1d 3e ce 58 01 bd 57 c6 ae 3d
       0.09507667 0.15393099 -0.03157883 0.08533924
0002a0 20 42 5d 3d 1b e2 b0 bb 32 9b 98 bb f5 e7 b3 3d
       0.05401814 -0.0053980476 -0.0046571726 0.08784477
0002b0 f7 2a 86 3d 2a f1 53 bd 2e 09 6a 3c c0 d0 29 bd
       0.06551164 -0.051743664 0.014284415 -0.041458845
0002c0 d8 0f dc bd 12 a1 c6 bc c4 5a b3 bc 03 46 8d bd
       -0.107452095 -0.024246726 -0.021893866 -0.06898119
0002d0 2f 06 9a 3b 60 c5 aa bd bb 7c 07 3d 3f 74 fe 3c
       0.004700444 -0.083384275 0.033077937 0.03106129
0002e0 15 50 ab 38 3b de 02 3d 8e f2 0b 3d 73 bd 25 bd
       8.168832e-05 0.031950217 0.034166865 -0.040463876
0002f0 ad 87 e2 3c 59 a3 6a 3d 9e 8a e1 3d 28 8a 9e 3c
       0.027652586 0.057284687 0.11012767 0.019352987
000300 6d 92 d6 3d 1a 75 fe bc 20 31 c0 3d ef ce 01 bd
       0.10477147 -0.031061698 0.0938437 -0.031691488
000310 6d a4 d4 3d 27 61 4e bb 45 01 b8 bd df dc a7 bd
       0.10382924 -0.0031491013 -0.08984617 -0.08196425
000320 2f 1c 5f 3a e2 f8 1e bd c4 e4 9f bb fa 0a 26 3d
       0.00085109746 -0.038811572 -0.004879566 0.04053781
000330 d2 7c a0 3c e3 37 2a bd 08 0e 8a bc c2 30 17 3c
       0.019590769 -0.041557204 -0.016852394 0.009227933
000340 14 67 b7 bd 41 36 c5 3c e5 d9 9c 3d 0a e6 73 bd
       -0.089552075 0.024073722 0.076587476 -0.059545554
000350 9f c4 61 3c 57 84 56 bd ee 5d e7 bb b7 71 cc 3d
       0.013779788 -0.052372303 -0.007060758 0.09982627
000360 1d 7e 01 3c b6 23 17 bd d8 47 8e 3d 7f bc 8b 3d
       0.007903603 -0.03689929 0.06947297 0.06823062
000370 39 0f 0a bd bf 32 86 bd ba 99 86 3d 69 a5 76 bc
       -0.033705924 -0.06552648 0.0657229 -0.015054085
000380 5f 27 e2 3d 2e 3d 8b 3d 8f 04 57 bd 29 cf 85 bc
       0.11042666 0.067987785 -0.05249458 -0.016334133
000390 e8 f1 75 3d e4 92 f6 3c ad ac fd 3d e0 b3 40 3d
       0.060045153 0.03009934 0.12386451 0.047046542
0003a0 82 c8 49 ba 8c 1f 34 3c 9a 95 34 bc ec ac 1d bd
       -0.00076974195 0.0109938495 -0.011021996 -0.03849499
0003b0 fa db 18 3d ec e2 1c 3e 8e e7 3b 3d e3 01 9b 3d
       0.03731916 0.15320939 0.045875125 0.07568719
0003c0 8f f8 9c 3d fa c7 71 3c 61 5e a3 3c 23 c4 c1 3d
       0.07664596 0.014757151 0.019942464 0.09461238
0003d0 de de 67 3d 34 a0 ab 3c ac 72 a1 3d 31 5e aa 3d
       0.056609027 0.020950414 0.078832 0.08318747
0003e0 d4 2f cf 3d 84 0a e8 3d ba 22 91 bd 1f 39 ff 3c
       0.10116544 0.11330131 -0.07086702 0.031155167
0003f0 85 6e d1 3d d8 26 37 bd 49 97 92 3d cb a9 a8 3d
       0.10226158 -0.04471478 0.071577616 0.082355104

classifier.2.bias f4 [64]
000000 67 76 49 3d f9 57 37 3d 91 a5 a4 bc 13 d6 81 3b
       0.049185183 0.04476163 -0.02009848 0.003962287
000010 8a c5 dc bc ab 72 09 bc a9 e0 d3 3b ec b8 1c 3e
       -0.026949663 -0.008389155 0.0064659906 0.15304917
000020 00 e0 52 3c c7 25 21 3e b8 86 90 bd 01 3d ac bc
       0.012870789 0.15737067 -0.070569456 -0.021025183
000030 10 c7 0e 3d 6b 02 8b 39 36 75 5a bd 2a 22 f0 bc
       0.03485781 0.00026513948 -0.053334437 -0.029313166
000040 0a 37 b8 3d c2 94 9a 3d af 02 aa bd da d0 bf 3d
       0.08994873 0.075479046 -0.08301293 0.09366007
000050 37 8a c0 3c ae b5 70 bd a8 b3 db 3c 5b fb 83 bd
       0.023503406 -0.058767013 0.026819065 -0.064444266
000060 62 8e 93 bd 07 94 95 bd 46 8c 0e bd ae a5 26 bd
       -0.07204892 -0.073036246 -0.034801744 -0.04068535
000070 52 0e 14 3d be 9d c1 3c 91 c5 c5 bc 32 c9 09 3d
       0.03614647 0.023634788 -0.024142059 0.03363914
000080 c6 aa 9d 3d 4e a0 34 3d de 81 03 3d 90 5a 3e bd
       0.07698588 0.04409819 0.032106273 -0.046473086
000090 b5 77 c4 bc 67 d9 37 3d 2f e0 69 bc 03 68 47 3d
       -0.023982862 0.044885065 -0.014274641 0.048683178
0000a0 c9 20 19 3d 75 6d e6 3c 73 f6 e1 3d 6d 73 94 3d
       0.037384782 0.028128365 0.110333346 0.07248578
0000b0 07 fc 6f 3d a5 1f 09 3d 93 8e db 3a 20 05 d2 3c
       0.05858996 0.033477444 0.0016750864 0.02563721
0000c0 7c 43 4e 3d ef 20 79 bd c8 a6 a6 bd cb 3e 41 bd
       0.050357327 -0.060822424 -0.0813728 -0.047179025
0000d0 fa cb 59 3c 60 55 3a bd bf d2 51 bd 25 84 5f 3d
       0.013293261 -0.045491576 -0.051226374 0.054569382
0000e0 7a 23 2e 3d 0f 99 84 bc 10 57 d5 3c d1 f5 2e 3d
       0.0425143 -0.016186265 0.026042491 0.042714898
0000f0 c9 b8 86 3c d7 75 aa bd 49 b0 2e 3d bd 20 aa bc
       0.016445534 -0.083232574 0.042648587 -0.020767564

classifier.4.weight f4 [1, 64]
000000 37 cb a8 be dc 01 00 3f b7 22 a3 3d 5b c1 3e bd
       -0.3296754 0.5000284 0.07965606 -0.046571117
000010 41 8b e2 bc 6b ea 60 3e 90 cb b0 bd 7a cf 00 bf
       -0.027654292 0.21964423 -0.086325765 -0.50316584
000020 11 fe 85 3d 2d e3 f5 be 22 ac 8d 3d cb 55 3c be
       0.065426 -0.48024884 0.06917597 -0.18392102
000030 09 c4 2c 3d 11 40 f6 3d a5 64 11 3e 1b 8d 9e bd
       0.04217914 0.120239384 0.14198549 -0.077417575
000040 e8 db f4 bd d2 7e 07 3d 0b 8f 14 bd 02 8b f5 bd
       -0.11956006 0.03307993 -0.03626923 -0.11989404
000050 d3 1b d7 3b 3c f0 f7 3d b3 92 4d bd 96 96 88 bd
       0.006564596 0.12106368 -0.05018873 -0.06669347
000060 50 64 e9 3d 58 70 29 3d e0 cc b0 3c 67 78 5e 3e
       0.11396086 0.041366905 0.021582067 0.21725617
000070 16 cd 3d bb b3 8f 3b 3d 14 47 99 3c 7d bb 82 be
       -0.0028961352 0.04579134 0.01871065 -0.25533667
000080 04 d8 ec 3e cb 92 38 3e eb e4 c8 3e b7 42 9d bd
       0.46258557 0.18024747 0.3923715 -0.076787405
000090 82 c3 13 bd 23 57 92 3e af 81 bb bc 73 18 08 bf
       -0.036075123 0.28582105 -0.022888986 -0.53162307
0000a0 16 05 94 3b e7 a2 18 be b6 7f 81 be f6 23 48 3e
       0.004517208 -0.14905892 -0.25292748 0.19544968
0000b0 45 fe 12 3e df be 56 3e 5e 42 99 3e 8a 58 11 3e
       0.14354809 0.20971249 0.29933447 0.14193931
0000c0 af a0 5c be c7 7e fb bd 4f 21 07 3d e4 6c c7 bd
       -0.21545671 -0.1228004 0.03299075 -0.09737566
0000d0 cb 62 bb 3d 3a 64 38 bd bf 86 4e 3d 66 40 2c be
       0.09149703 -0.04501746 0.050421473 -0.16821441
0000e0 39 6a ec 3d d6 f1 a4 be ab 0c fc bd 9d 8a 36 be
       0.11543698 -0.32215756 -0.12307104 -0.17826314
0000f0 8c 77 88 3e 32 97 7c 3d d6 5a ab 3e 99 7b 4e 3e
       0.26653707 0.06166763 0.3346774 0.20164336
