checkpoints/mlp_model/fold_2.pth (torch, 58878 bytes, 5 tensors)

classifier.0.weight f4 [128, 40]
0.018654896 -0.07065355 -0.116928056 0.055042885 0.093856536 -0.02006791 0.0062730447 0.013098245
-0.041516706 0.118380055 0.007290921 0.11373676 0.11049892 -0.09006786 -0.026143549 -0.047088552
-0.100394204 0.13521975 0.10826486 0.15349211 0.0043848255 0.07210808 -0.088737346 0.037147745
-0.12330738 -0.05147288 -0.039604448 -0.0036581054 -0.06413058 -0.13647188 0.09320192 0.0031412025
0.14219359 -0.15524293 -0.03326284 0.1085104 0.05340315 -0.08014888 0.09714583 0.1527291
0.04820412 -0.040993273 0.08084486 -0.047541533 0.035425134 -0.15991507 -0.01833131 0.059018575
0.085668445 0.14855118 0.07814704 -0.024268024 -0.0069335843 0.07443496 0.07756318 -0.120311856
0.024283577 -0.08814561 0.09171346 -0.0065786564 -0.08914684 0.12105499 -0.15314235 0.101932265
-0.037600353 -0.117229246 -0.080325425 0.14701967 0.07541055 -0.04502222 0.04267505 0.07350398
-0.13888404 0.14591204 0.1519976 0.08283417 -0.04825859 -0.09267234 0.012996795 -0.10195075
0.1290177 0.14867699 0.03038294 0.08719558 0.14361231 -0.0008003842 -0.15231004 0.0697436
0.054126237 -0.05916444 0.003914918 0.00083082943 0.10752244 0.15430543 -0.07636928 0.03621907
0.0506034 0.04604911 -0.022996742 0.10434357 -0.011460685 0.041014705 -0.0011381705 0.0066434913
-0.12456125 0.14465103 0.102682516 0.11622099 -0.11252401 0.089355044 -0.12538964 0.07658549
-0.10287711 -0.015891643 -0.12385588 -0.08861263 0.020441057 -0.14328523 0.15002161 0.065456286
-0.08417428 -0.027469812 -0.121493764 0.10297044 0.048869047 0.12091477 0.003428915 0.03243805
-0.14737517 -0.06143671 -0.07836092 -0.12194824 0.11814501 -0.101970084 -0.15733735 -0.13729155
0.11256262 0.07804492 0.05100538 -0.10434147 -0.040176302 0.086789586 -0.026832141 -0.14114535
-0.0819083 0.118188515 -0.11327514 -0.065521024 -0.13299249 0.13963044 -0.008523169 -0.007783754
-0.0049328227 -0.13595651 -0.11238507 0.033378214 -0.103856415 -0.056177728 0.10836294 -0.011224031
0.08574685 0.14549421 -0.001858759 0.11470725 0.10613192 0.09030907 0.057626136 -0.14355451
0.06186068 -0.024781158 -0.11553815 -0.011449028 -0.03727955 0.1294027 -0.0921751 0.034445107
-0.08142582 0.15576845 -0.02359419 0.10489838 0.03320351 0.00973411 0.10265152 0.12973091
0.020975199 0.037055798 -0.03614758 -0.0040599452 0.1398793 0.045083456 -0.1244406 0.115662396
0.008731471 -0.027922124 -0.12774687 0.05975865 -0.01891279 0.13635759 -0.12932435 0.08906285
-0.14190452 -0.0069124093 -0.13000683 0.031922843 -0.043573752 -0.15071833 0.06755878 0.116571635
0.074540935 -0.08040551 0.14560619 -0.15865302 0.16933867 -0.029410042 0.06353872 0.089837685
-0.0115260035 -0.08173481 0.14926942 0.0005191844 0.08657858 0.05441895 -0.07711018 -0.06720461
-0.013496327 -0.11974524 -0.054782066 0.044665113 0.14379545 0.058666494 -0.060886823 0.07150323
-0.06317216 0.05151253 -0.13740873 0.014713044 0.09719226 0.04970533 0.025224216 -0.0004301591
-0.07831288 -0.056472182 0.10048903 -0.13635981 0.03770854 0.002428885 -0.06431413 0.08112458
0.12924428 -0.047605064 0.069263935 0.11703562 -0.12910262 -0.16559431 -0.03988704 -0.008513638
00000000: 27d2 983c cfb2 90bd fa77 efbd a674 613d
00000010: db37 c03d 7565 a4bc 1d8e cd3b 059a 563c
00000020: 6c0d 2abd 3e71 f23d aee8 ee3b d2ee e83d
00000030: 424d e23d 8075 b8bd ff2a d6bc eddf 40bd
00000040: 7a9b cdbd 0c77 0a3e f8b9 dd3d 092d 1d3e
00000050: 95ae 8f3b 67ad 933d edbb b5bd 3c28 183d
00000060: 9488 fcbd 3ad5 52bd 4638 22bd d3bc 6fbb
00000070: e556 83bd 49bf 0bbe a6e0 be3d a2dc 4d3b
00000080: 329b 113e 01f8 1ebe 9e3e 08bd b33a de3d
00000090: 43bd 5a3d 1925 a4bd 65f4 c63d 0465 1c3e
000000a0: af71 453d 90e8 27bd fd91 a53d e9ba 42bd
000000b0: f219 113d c7c0 23be 8b2b 96bc 76bd 713d
000000c0: f072 af3d cd1d 183e 8e0b a03d bccd c6bc
000000d0: 1f33 e3bb 5b71 983d 72d9 9e3d 1066 f6bd
000000e0: 5aee c63c b085 b4bd 44d4 bb3d c591 d7bb
000000f0: 9e92 b6bd aeeb f73d 59d1 1cbe ddc1 d03d
00000100: d402 1abd e315 f0bd a881 a4bd 538c 163e
00000110: d970 9a3d 3869 38bd 09cc 2e3d 4189 963d
00000120: 9e37 0ebe f769 153e 42a5 1b3e f6a4 a93d
00000130: cdaa 45bd ffca bdbd 82f0 543c 8ecb d0bd
00000140: 371d 043e c83e 183e a5e5 f83c 9993 b23d
00000150: 1b0f 133e e0d0 51ba 2af7 1bbe bcd5 8e3d
00000160: 79b3 5d3d 6956 72bd b648 803b 05cc 593a
00000170: ba34 dc3d 3e02 1e3e 7f67 9cbd 735a 143d
00000180: 8345 4f3d fe9d 3c3d aa63 bcbc 15b2 d53d
00000190: 99c5 3bbc 09ff 273d aa2e 95ba a5b1 d93b
000001a0: f819 ffbd 661f 143e 364b d23d 4505 ee3d
000001b0: fd72 e6bd c7ff b63d 2466 00be dad8 9c3d
000001c0: 3cb1 d2bd 312f 82bc 27a8 fdbd 8a7a b5bd
000001d0: 0174 a73c 5db9 12be 449f 193e f20d 863d
000001e0: 9163 acbd 5f08 e1bc b9d1 f8bd 2be2 d23d
000001f0: e92a 483d 2aa2 f73d a6b7 603b c3dd 043d
00000200: 84e9 16be 0fa5 7bbd b17b a0bd 00c0 f9bd
00000210: 03f6 f13d b1d5 d0bd 0b1d 21be 2896 0cbe
00000220: 3b87 e63d 04d6 9f3d 04eb 503d fbb0 d5bd
00000230: e88f 24bd bdbe b13d 14cf dbbc 6888 10be
00000240: 8abf a7bd d20c f23d ccfc e7bd e32f 86bd
00000250: 2f2f 08be 48fb 0e3e c3a4 0bbc dc0e ffbb
00000260: 84a3 a1bb 2f38 0bbe 252a e6bd 98b7 083d
00000270: acb2 d4bd 9e1a 66bd 64ed dd3d 00e5 37bc
00000280: 0b9c af3d 6ffc 143e 9aa1 f3ba a2eb ea3d
00000290: b15b d93d f6f3 b83d 6209 6c3d f4ff 12be
000002a0: a061 7d3d db01 cbbc 449f ecbd b494 3bbc
000002b0: 71b2 18bd 2482 043e 4dc6 bcbd 5016 0d3d
000002c0: 95c2 a6bd c481 1f3e 9a48 c1bc f6d4 d63d
000002d0: 6700 083d d17b 1f3c f63a d23d 2ed8 043e
000002e0: 2ed4 ab3c d2c7 173d 7c0f 14bd 4a09 85bb
000002f0: 853c 0f3e 6ea9 383d b7da febd 68e0 ec3d
00000300: 720e 0f3c f0bc e4bc 13d0 02be 7cc5 743d
00000310: ffee 9abc 53a1 0b3e 9a6d 04be 9566 b63d
00000320: 6b4f 11be 7e81 e2bb 8320 05be 87c1 023d
00000330: 647a 32bd e855 1abe 425c 8a3d 1cbd ee3d
00000340: eba8 983d a5ab a4bd ca19 153e f075 22be
00000350: 1e67 2d3e 54ed f0bc 9720 823d d2fc b73d
00000360: 90d7 3cbc 9464 a7bd 15da 183e e019 083a
00000370: 1c50 b13d 68e6 5e3d f1eb 9dbd 92a2 89bd
00000380: b31f 5dbc fe3c f5bd 2963 60bd c4f2 363d
00000390: 1d3f 133e 474c 703d 7664 79bd 4970 923d
000003a0: 6860 81bd cdfe 523d e0b4 0cbe fb0e 713c
000003b0: bc0c c73d d197 4b3d 04a3 ce3c fa86 e1b9
000003c0: 8162 a0bd 604f 67bd 31cd cd3d e8a1 0bbe
000003d0: 4574 1a3d ee2d 1f3b 20b7 83bd a524 a63d
000003e0: 9d58 043e 87fd 42bd 40da 8d3d 5fb0 ef3d
000003f0: 7a33 04be 8e91 29be 9860 23bd c97c 0bbc

classifier.0.bias f4 [128]
0.110876076 0.137831 -0.0010143763 -0.066393316 -0.004415852 -0.121005066 -0.019351931 0.14903894
-0.037400648 -0.009866719 0.044375904 -0.10589697 0.03339849 0.15796195 -0.022713944 -0.07573311
-0.061091963 -0.12401138 0.0013220208 -0.0003375712 -0.027347088 0.01712614 0.1206318 -0.06527498
-0.051876172 -0.13867861 -0.12416662 -0.1035201 -0.121688396 0.0068758316 0.027634216 -0.057926033
-0.05155296 -0.009680357 -0.09700328 0.116018474 0.0752065 -0.11626384 0.004204088 0.10912211
-0.048383586 0.0087519195 0.0043668537 -0.0330584 0.12629288 -0.01888833 -0.14862373 0.091261104
0.06725667 0.10670382 -0.02597476 0.07732911 0.038989913 -0.14486347 0.1477165 0.14967854
0.118465476 -0.031126885 0.06243823 0.055300582 -0.11802021 -0.08497502 0.09553596 0.11698296
0.107987896 -0.06400851 0.081930876 -0.08422405 0.12919964 -0.0766403 -0.011712704 0.15237728
0.12135691 0.054167684 0.020375943 -0.09014082 0.17201436 0.06537202 -0.07384556 0.14593445
0.02948539 0.063653186 -0.012338948 0.1469737 0.08332085 0.0029096752 0.00069977564 -0.020979794
-0.14372529 0.13873067 0.0042538126 -0.10330686 -0.014052347 0.14285268 -0.12151391 0.020102333
0.16850334 0.07293307 -0.0021464038 -0.15408719 0.13152783 0.11603012 -0.07567131 -0.1257095
-0.1327911 -0.043023247 0.15932648 -0.002037827 0.17294012 -0.11397268 -0.11796768 -0.032934204
-0.088348 0.15306082 -0.08901414 -0.036870852 -0.075225554 0.111198224 0.15752815 -0.11465249
0.07984323 0.0024880127 0.15424547 0.040625326 0.14838246 -0.018532045 -0.00897493 -0.0732047
00000000: ff12 e33d 9223 0d3e d2f4 84ba 38f9 87bd
00000010: dab2 90bb 81d1 f7bd f187 9ebc aa9d 183e
00000020: 6c31 19bd 05a8 21bc 82c3 353d 83e0 d8bd
00000030: dbcc 083d c7c0 213e 9812 babc f619 9bbd
00000040: 913b 7abd aef9 fdbd a847 ad3a 0afc b0b9
00000050: 0007 e0bc 1e4c 8c3c ce0d f73d e4ae 85bd
00000060: 1c7c 54bd c401 0ebe 124b febd 5902 d4bd
00000070: c437 f9bd a84e e13b 2761 e23c d943 6dbd
00000080: 3229 53bd 5c9a 1ebc a8a9 c6bd 189b ed3d
00000090: de05 9a3d bc1b eebd 72c2 893b 6a7b df3d
000000a0: de2d 46bd 3664 0f3c d317 8f3b 3f68 07bd
000000b0: ec52 013e b3bb 9abc d230 18be 1ae7 ba3d
000000c0: ddbd 893d 8887 da3d 05c9 d4bc b95e 9e3d
000000d0: e3b3 1f3d 1757 14be ff42 173e 5545 193e
000000e0: 079e f23d cffd febc 3bbf 7f3d dd82 623d
000000f0: 94b4 f1bd 6207 aebd 5ba8 c33d c394 ef3d
00000100: c228 dd3d e516 83bd 60cb a73d a97d acbd
00000110: e94c 043e 97f5 9cbd a4e6 3fbc ca08 1c3e
00000120: f989 f83d efde 5d3d 73eb a63c c09b b8bd
00000130: 8824 303e c4e1 853d 573c 97bd d76f 153e
00000140: 588b f13c 9a5c 823d 4d29 4abc 4680 163e
00000150: 1fa4 aa3d 40b0 3e3b 2671 373a d1dd abbc
00000160: b92c 13be 6a0f 0e3e 9163 8b3b 8c92 d3bd
00000170: d13b 66bc f947 123e 49dc f8bd a6ad a43c
00000180: 248c 2c3e ef5d 953d aeaa 0cbb 08c9 1dbe
00000190: 3baf 063e 33a1 ed3d 8ff9 9abd feb9 00be
000001a0: 64fa 07be 2539 30bd 7b26 233e 108d 05bb
000001b0: 3717 313e 826a e9bd 0a99 f1bd 04e6 06bd
000001c0: ccef b4bd fabb 1c3e 0c4d b6bd e405 17bd
000001d0: db0f 9abd e5bb e33d 0f4f 213e edce eabd
000001e0: d984 a33d ed0d 233b 86f2 1d3e be66 263d
000001f0: 92f1 173e 84d0 97bc 960b 13bc 59ec 95bd

classifier.2.weight f4 [64, 128]
0.048754785 0.048864953 -0.055163164 0.0024241437 0.07661111 0.0015682129 0.051756475 -0.050620176
0.0070632924 -0.054276653 -0.06421933 0.026602954 -0.03078909 -0.025305988 0.055847667 -0.04296914
-0.050924886 -0.013204742 0.07143741 0.079096064 -0.08120023 -0.018859904 0.07758249 -0.047570888
-0.048055828 0.025138563 -0.052058235 -0.054057717 -0.029581314 -0.065983795 0.04503948 -0.024182534
0.057137225 0.0024338765 -0.036075227 0.03747901 -0.008981501 -0.027323453 0.05914716 0.055276252
0.051664416 0.05855948 -0.074867085 0.088720664 0.072297975 -0.06533464 -0.026936641 -0.09237846
0.0869086 0.012473228 -0.027850546 -0.01449865 0.08188706 -0.067373246 -0.015438938 -0.008243519
0.091361925 0.0463522 -0.05570694 -0.06126503 -0.0759867 0.10202467 0.043878347 0.11195935
0.00013697133 0.095781304 0.106260926 0.00087675406 0.027350202 -0.06653143 -0.04168918 -0.017301274
-0.03650548 0.070401095 0.015720364 0.06282711 -0.07722611 0.08799747 -0.03911368 -0.049962625
-0.03343931 -0.028635997 -0.042533707 -0.031856146 0.042306382 -0.027357759 0.06346816 0.016461076
0.03180534 0.019901305 0.027608337 0.09817501 0.06554802 -0.04380493 0.016434645 0.027789313
-0.005791191 -0.0088312365 0.05828527 0.057639707 0.011318997 0.03949619 0.024275092 0.038061358
0.04969391 0.060470294 -0.071741946 0.044540163 -0.036978345 0.08274773 0.07920037 -0.013213444
0.021269035 -0.008584845 -0.05785764 0.0071493317 0.073492296 -0.056400675 -0.002405191 0.0013123971
0.0868436 0.07053488 0.019662011 0.04777968 -0.013905471 0.087100334 -0.071323976 0.077775225
-0.040593684 0.01255554 0.052085683 0.088165194 -0.052239563 -0.032858625 -0.031637073 0.0981608
-0.012132907 0.08298486 0.05084174 0.02479996 0.017409204 0.0676375 0.07135491 -0.02225848
-0.09430639 0.08008802 -0.006536411 -0.047146447 0.011729257 -0.08328912 0.040955093 0.0615615
0.04155098 0.07930398 0.078026816 -0.02705325 -0.012848628 -0.003920169 -0.08098611 0.008182253
0.019817745 -0.07796746 -0.010574057 0.029549068 -0.024111817 -0.058297765 -0.037194025 0.061153844
0.07410789 -0.07441697 -0.0043943543 0.07328876 -0.053212583 -0.061290257 0.06428457 0.052736785
-0.031080004 0.06883846 -0.026325252 0.06488204 0.04078942 0.039529067 0.069901966 0.045855872
-0.042593326 0.093241364 -0.05863412 -0.08949217 -0.004711151 0.09586093 -0.057738543 3.7347654e-05
0.08270653 -0.06507025 0.03514526 0.06736485 -0.03449919 -0.0889954 -0.07355402 0.012926847
0.007936579 0.011518745 -0.05809481 -0.072590224 -0.048585195 0.072059065 -0.020656712 -0.0055531994
-0.041293047 -0.0015297905 0.07254622 0.09287089 0.06975761 0.04882115 -0.013795191 0.06880627
0.010872526 0.049584404 -0.011811161 0.068825476 0.008567502 -0.0023213841 -0.06174021 0.0132491905
-0.030752167 -0.037684366 -0.08557526 -0.07807846 0.029688574 -0.005606319 -0.025775092 0.06622964
-0.039873585 -0.030666519 0.027075017 0.013207372 -0.07048802 0.007289774 0.049702924 0.064240105
-0.04655482 -0.075962715 -0.009192717 0.051812883 -0.067765005 0.08951819 -0.037715163 0.054439586
0.06491306 -0.0573331 0.083176546 -0.013625022 0.020737415 -0.0011295482 0.09145064 -0.026856314
00000000: 19b3 473d 9e26 483d c5f2 61bd 62de 1e3b
00000010: 49e6 9c3d 7e8c cd3a 99fe 533d 1a57 4fbd
00000020: 3173 e73b 3251 5ebd 6d85 83bd 70ee d93c
00000030: 6739 fcbc 814e cfbc 86c0 643d 6900 30bd
00000040: 9d96 50bd b458 58bc c74d 923d 1efd a13d
00000050: 4e4c a6bd 1680 9abc 92e3 9e3d b1d9 42bd
00000060: 30d6 44bd 63ef cd3c 043b 55bd a06b 5dbd
00000070: 8354 f2bc 8322 87bd 517b 383d 731a c6bc
00000080: b908 6a3d ac81 1f3b 9ec3 13bd 9783 193d
00000090: 2527 13bc 6fd5 dfbc 4b44 723d 5a69 623d
000000a0: 119e 533d 11dc 6f3d ea53 99bd 2eb3 b53d
000000b0: f610 943d 2bce 85bd 3baa dcbc eb30 bdbd
000000c0: 23fd b13d 835c 4c3c d426 e4bc bf8b 6dbc
000000d0: 67b4 a73d fcfa 89bd 99f3 7cbc d30f 07bc
000000e0: f61b bb3d cedb 3d3d f62c 64bd 0af1 7abd
000000f0: ea9e 9bbd 4ff2 d03d c8b9 333d f24a e53d
00000100: f69f 0f39 fd28 c43d 549f d93d f8d5 653a
00000110: 880d e03c a141 88bd 46c2 2abd 67bb 8dbc
00000120: c586 15bd 732e 903d fec7 803c 80ab 803d
00000130: b928 9ebd 0438 b43d ab35 20bd 9ca5 4cbd
00000140: a8f7 08bd 0a96 eabc d337 2ebd 977b 02bd
00000150: 7549 2d3d 611d e0bc 98fb 813d 61d9 863c
00000160: 5146 023d 1008 a33c e12a e23c fb0f c93d
00000170: 0a3e 863d cc6c 33bd f3a1 863c 6aa6 e33c
00000180: 08c4 bdbb e4b0 10bc 89bc 6e3d 9d17 6c3d
00000190: 5073 393c c2c6 213d 8fdc c63c 3ae6 1b3d
000001a0: d78b 4b3d b3af 773d 71ed 92bd bf6f 363d
000001b0: 9b76 17bd a477 a93d ce33 a23d 337d 58bc
000001c0: 663c ae3c 73a7 0cbc 22fc 6cbd f144 ea3b
000001d0: 2183 963d 6504 67bd 69a0 1dbb bd04 ac3a
000001e0: 0fdb b13d 9774 903d 3a12 a13c a0b4 433d
000001f0: c6d3 63bc a961 b23d 4e12 92bd 9e48 9f3d
00000200: 9045 26bd c0b5 4d3c cc57 553d f48f b43d
00000210: 27f9 55bd c496 06bd e095 01bd 8808 c93d
00000220: 1ac9 46bc f7f3 a93d 6e3f 503d 4929 cb3c
00000230: bf9d 8e3c 8885 8a3d 8622 923d 6a57 b6bc
00000240: b523 c1bd 3005 a43d 642f d6bb a21c 41bd
00000250: 122c 403c 7c93 aabd 87c0 273d e927 7c3d
00000260: 5c31 2a3d 206a a23d 86cc 9f3d c79e ddbc
00000270: 0d83 52bc c374 80bb 0cdc a5bd db0e 063c
00000280: d358 a23c 67ad 9fbd cf3e 2dbc e310 f23c
00000290: 2586 c5bc a3c9 6ebd c358 18bd 747c 7a3d
000002a0: e1c5 973d ed67 98bd 84fe 8fbb 6b18 963d
000002b0: 70f5 59bd 7e0b 7bbd a1a7 833d 8702 583d
000002c0: 7e9b febc 2efb 8c3d 0ea8 d7bc e0e0 843d
000002d0: cf12 273d 3be9 213d c328 8f3d 5ed3 3b3d
000002e0: 5776 2ebd 54f5 be3d 552a 70bd ac47 b7bd
000002f0: 0060 9abb bc52 c43d 407f 6cbd bda5 1c38
00000300: 0b62 a93d 8d43 85bd 7af4 0f3d 95f6 893d
00000310: 064f 0dbd 3843 b6bd 7da3 96bd 20cb 533c
00000320: 6d08 023c 1eb9 3c3c d3f4 6dbd 2faa 94bd
00000330: 4501 47bd b493 933d 4438 a9bc 9df7 b5bb
00000340: e622 29bd 4083 c8ba 1d93 943d 1833 be3d
00000350: 14dd 8e3d b0f8 473d 3a05 62bc 4dea 8c3d
00000360: ae22 323c 0419 4b3d 9a83 41bc 5ff4 8c3d
00000370: b55e 0c3c 5d22 18bb 4de3 7cbd 2213 593c
00000380: f8eb fbbc ec5a 1abd 1542 afbd 9ae7 9fbd
00000390: 7435 f33c 36b5 b7bb 4926 d3bc 68a3 873d
000003a0: 7c52 23bd 5a38 fbbc 6dcc dd3c bc63 583c
000003b0: 065c 90bd 0edf ee3b 4b95 4b3d 5190 833d
000003c0: 44b0 3ebd 5792 9bbd 0d9d 16bc bf39 543d
000003d0: 61c8 8abd 5055 b73d 377b 1abd 0bfc 5e3d
000003e0: 23f1 843d 1dd6 6abd 7758 aa3d 7c3b 5fbc
000003f0: 83e1 a93c 590d 94ba 794a bb3d c601 dcbc

classifier.2.bias f4 [64]
0.0906007 0.0914489 -0.037688695 -0.05150438 0.009352434 0.06807416 -0.036473677 -0.08123331
0.027476352 0.034510773 0.064964324 0.07874821 0.05758325 0.068820685 -0.017257512 -0.0053105555
0.07120005 0.05302506 0.055085696 0.011556516 0.020468043 -0.038944975 -0.02310534 0.03046307
0.01918974 -0.057235796 0.07293559 -0.018968761 0.03603165 0.07933764 -0.042179007 -0.07587686
0.01905779 0.028443066 -0.07427388 0.027248012 -0.064163335 -0.068330646 -0.045994613 -0.026950894
-0.022118963 -0.07252686 -0.054846253 -0.0150866 0.1512391 0.012519869 0.15866537 0.030395053
-0.012808344 0.024417784 0.05808958 0.0064430996 -0.0120815085 0.07159042 0.005881774 0.03944818
0.017759016 0.09871625 -0.06259734 0.101806946 -0.016749043 0.0493975 -0.08258952 -0.017043542
00000000: dc8c b93d 9049 bb3d 765f 1abd 42f6 52bd
00000010: f43a 193c 776a 8b3d 6c65 15bd a65d a6bd
00000020: 1616 e13c 2b5b 0d3d 040c 853d be46 a13d
00000030: 6adc 6b3d dcf1 8c3d a05f 8dbc 2b04 aebb
00000040: 55d1 913d ce30 593d 8aa1 613d 8b57 3d3c
00000050: 99ac a73c c484 1fbd 6947 bdbc b08d f93c
00000060: cd33 9d3c 1570 6abd 415f 953d 6064 9bbc
00000070: ec95 133d c67b a23d e5c3 2cbd 5465 9bbd
00000080: 151f 9c3c 6f01 e93c e71c 98bd 3937 df3c
00000090: 1168 83bd f0f0 8bbd d964 3cbd 1fc8 dcbc
000000a0: d432 b5bc f688 94bd 77a6 60bd c92d 77bc
000000b0: 6cde 1a3e 2320 4d3c 2d79 223e 0cff f83c
000000c0: 17da 51bc ce07 c83c 57ef 6d3d a320 d33b
000000d0: 85f1 45bc 009e 923d e5bb c03b 6a94 213d
000000e0: 5b7b 913c bf2b ca3d 0933 80bd 2980 d03d
000000f0: 4a35 89bc 0855 4a3d b224 a9bd e69e 8bbc

classifier.4.weight f4 [1, 64]
-0.21878503 -0.19492589 0.11950953 0.01028627 -0.2471184 0.3967493 0.2043755 -0.037272554
0.15067278 0.32424203 -0.1900365 0.11208212 -0.2765632 -0.09172765 0.22140594 0.030242728
-0.22869143 0.12878142 -0.032441016 -0.0138604 -0.12161042 0.39976865 -0.11432018 -0.15987824
0.071324326 0.022108318 -0.12942293 0.2491186 -0.015336662 0.15799479 -0.052717872 -0.11892894
-0.08912295 -0.07130419 -0.054325856 0.020223012 0.07061001 0.12392514 -0.018438568 0.20299333
-0.049243405 0.02305465 0.089754514 0.12213942 -0.3767304 -0.22325552 -0.47059324 0.13727789
0.05300107 -0.49719036 0.02875278 0.09696551 -0.05595839 0.04192815 0.13010192 -0.3883534
-0.05053853 -0.09128931 -0.100840665 0.24932788 0.15473838 0.55828166 -0.09261857 0.089366905
00000000: 2f09 60be a79a 47be 6ac1 f43d be87 283c
00000010: 9b0c 7dbe b922 cb3e d047 513e 1bab 18bd
00000020: f749 1a3e 0d03 a63e ee98 42be 4f8b e53d
00000030: b199 8dbe b5db bbbd 3db8 623e 99bf f73c
00000040: 162e 6abe 47df 033e dfe0 04bd bb16 63bc
00000050: e20e f9bd 7aae cc3e b320 eabd 1fb7 23be
00000060: 7d12 923d 811c b53c 7287 04be f218 7f3e
00000070: 9f46 7bbc 63c9 213e b2ee 57bd 0491 f3bd
00000080: 1886 b6bd ee07 92bd ca84 5ebd bbaa a53c
00000090: fb9b 903d 77cc fd3d 7b0c 97bc 7cdd 4f3e
000000a0: 74b3 49bd 1bdd bc3c 37d1 b73d 3b24 fa3d
000000b0: cfe2 c0be 189d 64be 99f1 f0be 9392 0c3e
000000c0: a617 593d bc8f febe f38a eb3c da95 c63d
000000d0: a034 65bd dabc 2b3d 7039 053e 42d6 c6be
000000e0: 7d01 4fbd e4f5 babd 8d85 cebd cf4f 7f3e
000000f0: bd73 1e3e 8ceb 0e3f ceae bdbd ff05 b73d
