checkpoints/mlp_model/fold_1.pth (torch, 58878 bytes, 5 tensors)

classifier.0.weight f4 [128, 40]
000000 d4 5c 10 3d 9e 12 89 bd e5 0d fe bd 02 09 c5 bc
       0.035244778 -0.06693004 -0.12404994 -0.024052147
000010 70 69 7d 3b cb a9 8c bd b2 1c 0c 3e 89 8d 6e 3c
       0.0038667582 -0.06868323 0.13682821 0.014560112
000020 ae 91 d0 bd 13 93 92 3d 0e c2 f1 bd 5a 41 c6 3b
       -0.10184036 0.071569584 -0.11804591 0.006050271
000030 53 0b 4c 3d ab a3 02 3d 5b f0 d8 bd 04 3a 8c 3c
       0.049815487 0.031894367 -0.10592719 0.017117508
000040 48 d4 ad bd 77 f3 00 3c 3b db bf 3d 5a 53 47 3d
       -0.08487755 0.007870547 0.09367987 0.048663475
000050 a8 cb 01 37 d4 d0 d8 bd f5 5e bb bd f2 9c c3 3c
       7.736417e-06 -0.10586706 -0.09148971 0.023878548
000060 dc 9c d2 bb ef be 31 3d fe 84 bc 3d 42 3e 0a be
       -0.0064273905 0.04339498 0.09205054 -0.13500312
000070 80 da d4 bd e4 a8 e6 bd 0b d0 82 3d ec 11 77 bd
       -0.10393238 -0.11262682 0.06387337 -0.060319826
000080 94 8d f0 bd a0 e3 3d 3d d0 b9 eb bd 04 6a bb 3a
       -0.11745754 0.04635966 -0.1151005 0.0014298563
000090 4b 79 7b 3d 9a cf ff bd 47 c5 8b bb 65 d4 d2 bd
       0.06139497 -0.12490769 -0.0042654607 -0.10294417
0000a0 37 03 2b 3e bd 68 1e 3e bb 81 01 3e be 94 5b bb
       0.16700445 0.15469642 0.12647144 -0.0033505405
0000b0 9e 7c cf bd a4 de a9 bd 7f f0 a3 ba 82 c1 9c 3c
       -0.10131191 -0.082944185 -0.0012507587 0.01913524
0000c0 94 bf be 3d 23 96 b3 3d eb d0 1a 3d 83 fb c4 3b
       0.093138844 0.08768871 0.037796896 0.006011428
0000d0 06 5e 5b 3c b3 0b e2 3d 2b 5f ff 3d 3e 8c 0f bd
       0.013389116 0.11037388 0.12469324 -0.035045855
0000e0 fc 5c 7a 3d fe 43 b5 3d fc c1 f1 3c 37 af d6 bd
       0.061123833 0.08850859 0.029511444 -0.10482638
0000f0 76 8f 96 3d 7a 0e 0f be 8c 63 31 3d 0a 6e 61 3d
       0.07351582 -0.13970366 0.043307826 0.055036582
000100 5f a6 08 3e 49 68 31 be a0 e0 f2 bd 31 e4 14 bb
       0.13344716 -0.17324938 -0.1185925 -0.002271902
000110 d3 9d bb 3d 93 e2 fa 3c f3 76 c4 bd fe 1f cc 3d
       0.09160962 0.030625617 -0.09593 0.099670395
000120 db 39 16 bd 35 78 19 be 47 04 d5 bd 60 d0 88 3c
       -0.03667627 -0.14987262 -0.104012065 0.016700923
000130 34 7d 6e 3c 98 55 d4 3d 7f 5d be bd 18 86 04 bd
       0.014556218 0.10367888 -0.09295177 -0.032354444
000140 b1 d5 16 be c6 17 20 bb 61 23 2f bd 76 6e e9 3d
       -0.14729954 -0.0024428233 -0.04275835 0.11398022
000150 56 40 cb bd af 04 0c 3e 4e 38 0c be 0e 59 fc 3d
       -0.099243805 0.13673662 -0.13693354 0.12321673
000160 0a e3 9f 3d ec c5 64 3c 2b 01 dc 3d 70 68 cb bd
       0.07806976 0.013963204 0.1074241 -0.09932029
000170 a3 50 1b be b4 fa 87 3d 58 9a fc bd 35 50 01 be
       -0.15167479 0.06639615 -0.12334126 -0.12628253
000180 6b d5 5f bc 74 5e dc bd 49 eb f0 bd 89 cd b0 bd
       -0.013661723 -0.10760203 -0.11763627 -0.08632953
000190 81 74 6d 3d 1d 4a 8c bb ea 21 b6 bb 39 ef b7 3c
       0.057972435 -0.004281296 -0.005558242 0.022452937
0001a0 59 b7 d2 3d f0 0d bb 3d d1 b5 0b 3e 62 bb 66 3a
       0.10288877 0.09133518 0.13643576 0.0008801726
0001b0 9c f5 1d be de 11 e6 3c 92 18 93 3d 84 e5 50 bd
       -0.15425724 0.028084692 0.07182421 -0.051000133
0001c0 4a 68 0e be 04 ef 08 bd 11 fb 02 3d 7e f9 f4 bd
       -0.1390697 -0.033431068 0.031977717 -0.11961649
0001d0 df 20 1b be 56 e1 f3 bd 41 36 30 3d 8a 64 1b be
       -0.15149258 -0.11908214 0.04302049 -0.15175071
0001e0 1e 66 19 be a9 d5 d5 bd fc 9e 16 3d 69 20 91 3d
       -0.14980361 -0.10441143 0.036772713 0.0708626
0001f0 b1 e0 93 3d 2e a5 6c 3d c6 bd 94 bd 4f b3 d4 3b
       0.07220591 0.057774715 -0.07262759 0.006491102
000200 b2 17 1c 3d 5e fd f3 3d 11 b2 03 3e d4 6b cb 3d
       0.038108535 0.1191356 0.12860896 0.09932676
000210 46 24 a4 3d 2a a5 6d bd 68 26 d8 3c 3c fa 2c 38
       0.08014731 -0.05801884 0.026385501 4.1241045e-05
000220 92 1d 10 bd 34 1e 26 bd 74 1c 0c 3e 19 8f eb 3b
       -0.03518445 -0.040556148 0.13682729 0.0071886894
000230 08 6f c3 3d 7d 1a fb 3d 21 68 59 bd 44 83 9c 3c
       0.09542662 0.122609116 -0.05307782 0.019105561
000240 f2 a4 27 bb 92 ce ec bd 69 11 19 be c9 65 d8 bd
       -0.0025580493 -0.11562838 -0.14948048 -0.10566289
000250 49 05 5b bd 89 9e ce 3b 2c d3 ab bb a6 53 13 bd
       -0.053471837 0.00630552 -0.0052436795 -0.035968445
000260 7a 99 af bd 59 7d ce 3d 83 f6 92 bd 01 23 e8 bd
       -0.08574195 0.10082502 -0.07175925 -0.113348015
000270 1a cd 82 3d 19 ae cb 3c 73 57 10 bd fe 58 e3 bd
       0.06386776 0.02486329 -0.035239648 -0.11100958
000280 cf 9b 72 3d f0 04 61 bd bc b0 a4 bd 1c 02 be bd
       0.059230622 -0.05493635 -0.08041522 -0.09277746
000290 ab 91 2d 3c 40 68 8d 3d 39 d9 85 bd 05 9b 88 bc
       0.010593812 0.0690465 -0.065355726 -0.016675482
0002a0 8a 6f e8 bd 03 ce f4 3d ff f4 df 3d a6 55 b8 3d
       -0.113493994 0.11953356 0.10935401 0.09000711
0002b0 24 92 2f 3e 31 8b 07 be 2b 37 82 3d 42 a6 34 3d
       0.17145592 -0.13236691 0.06358179 0.04410387
0002c0 a6 e8 d7 bc ce 64 88 bd fa 2d 9c 3c 7e 93 2c bd
       -0.026356053 -0.06659852 0.019064892 -0.042132847
0002d0 03 be 1b 3d a3 5f d8 3d c9 b4 a0 bd a0 ab 1c 3e
       0.038023006 0.10565116 -0.07846982 0.15299845
0002e0 01 6b 19 3e 46 a3 d5 3d 27 07 cb 3d e5 14 31 3e
       0.14982225 0.104315326 0.099134736 0.17293127
0002f0 74 54 2a be 2e 5b e8 bd 80 e4 0f 3e 77 48 2f 3e
       -0.16633779 -0.11345516 0.1405201 0.17117487
000300 ab 53 4e bd 68 34 3e 3e be 42 97 bc ea c8 14 3e
       -0.05037276 0.18574679 -0.018464442 0.14529768
000310 67 f1 2e bc b8 09 fc bd 63 2c f4 3d 86 13 88 bd
       -0.010677672 -0.12306541 0.119225286 -0.06644349
000320 c5 69 b9 3d f7 dd 8e 3d e1 21 53 bd ee 2c 99 3d
       0.09053377 0.0697593 -0.05154598 0.07479273
000330 66 2c 8e bd 9e 3d 6a 3d c5 1b 14 be d3 41 fc bd
       -0.06942062 0.05718767 -0.14463718 -0.123172425
000340 66 b3 26 3e 72 21 ba bb a4 a2 5c bd 9f 36 4d 3c
       0.16279373 -0.0056802565 -0.053866044 0.01252523
000350 d7 96 8f bc 09 d3 2c bb ac 92 83 3c d1 ff 92 bc
       -0.01752798 -0.0026370904 0.01606115 -0.017944248
000360 88 45 1e be a0 f5 5b 3d 50 f4 11 3e cb 76 bc bd
       -0.15456212 0.053701043 0.14253354 -0.092023455
000370 ac 65 d0 3d 7f c9 d5 bd 6b 35 a0 bd 61 bf 24 3e
       0.10175642 -0.10438823 -0.07822689 0.1608863
000380 d8 bb da 3c 30 28 e3 3d 25 43 d7 bc 31 26 09 be
       0.026700899 0.110916495 -0.026277134 -0.13393475
000390 81 22 14 3e 8b fc 20 3e 76 c0 09 be b1 58 b7 3c
       0.14466287 0.15721337 -0.13452324 0.022381159
0003a0 16 e2 07 be ba bb 81 bc 0e 73 bb bc 0e c0 84 3d
       -0.13269839 -0.015836585 -0.02288201 0.06481944
0003b0 da ea 39 bb d9 a7 9c 3d d8 71 0a be bb 2a 16 be
       -0.0028368742 0.07649202 -0.1351999 -0.14664738
0003c0 4c 59 0f bd e7 e9 f9 3d 2b b7 10 3e 88 b2 de bd
       -0.03499727 0.122028165 0.14132373 -0.10873896
0003d0 71 33 10 bc 37 06 46 be 29 4d b0 bd 86 9d df 3d
       -0.008801327 -0.19338308 -0.08608467 0.10918717
0003e0 6d 1c 01 3d e6 7d 10 bd e7 61 e7 3d ed 0a 0b be
       0.03152125 -0.035276316 0.1129797 -0.13578387
0003f0 3f de 75 bd 47 12 21 bd 88 fd 08 3d 31 4e 19 3e
       -0.060026404 -0.03932407 0.03344491 0.14971234

classifier.0.bias f4 [128]
000000 79 cd a7 bd 9e ef c4 3d e0 91 79 3d b8 81 22 3e
       -0.08193488 0.09616016 0.060930133 0.15869796
000010 72 49 62 3d 47 26 08 ba c2 1a 3a 3e a6 8e 44 bd
       0.055245824 -0.0005193692 0.1817427 -0.047987603
000020 56 e0 4b bd b8 19 a2 bd 33 03 86 3c 2b 02 50 bd
       -0.04977449 -0.07915062 0.016358947 -0.050783318
000030 f9 0f 88 bd 89 d9 44 3d 3d 1e 72 bc 8f 96 18 3e
       -0.066436715 0.04805902 -0.014777717 0.14901184
000040 8e dd ba bd f3 f8 00 3e 3e 99 12 bd 22 21 a9 bc
       -0.091242895 0.12594967 -0.035790674 -0.020645682
000050 4f 64 c5 bd e0 17 cb bd e3 5f fe bc 78 58 8e bd
       -0.09638273 -0.09916663 -0.031051582 -0.06950468
000060 ad 7e 71 3d fa b7 81 3b f4 62 35 3d 2e 5e 28 3e
       0.058958698 0.0039586993 0.044283822 0.16442177
000070 f2 08 2d 3d 79 06 37 bd 3c c2 1a 3c 3f 40 89 b9
       0.04224486 -0.044683907 0.009445723 -0.00026178543
000080 82 3b e7 3d bd 46 35 bd 63 0a c0 bd 7c cc 1e be
       0.11290647 -0.044256914 -0.09376981 -0.15507692
000090 02 fb a6 3d 98 2a 10 3e cf 7f 18 bd d4 3d 17 3d
       0.08153345 0.14078748 -0.037231263 0.0369242
0000a0 18 55 96 3c 8b 9b b2 3d 9b 58 24 bd 22 bf d7 3d
       0.018351123 0.08721074 -0.040123563 0.105345026
0000b0 0a 30 d0 bd 60 40 05 be 7c 79 8a 3d 6b 56 03 bd
       -0.10165413 -0.13012838 0.067614526 -0.032064836
0000c0 55 10 18 be 94 94 1c 3e fe 00 3f 3d c4 d8 ae bd
       -0.1484998 0.15291053 0.046631806 -0.085374385
0000d0 3d 66 72 3d 30 07 b2 bd c3 c9 8e 3d 5c 1e cf bd
       0.059179533 -0.08692777 0.06972077 -0.101132125
0000e0 5a 2e 5b bd 5f 36 f5 3d 2a a2 f7 3d 59 ed b2 bd
       -0.053511 0.11973261 0.12091477 -0.08736677
0000f0 d9 6f 80 3d b5 9a bd 3d 49 e7 64 3d 3e bd 06 be
       0.06271333 0.09258024 0.055884633 -0.13158128
000100 d1 67 df bd 4a 0e 02 3d 29 13 13 3e b5 9e fd 3c
       -0.10908473 0.03175191 0.14362778 0.030959466
000110 58 9c 84 3d de 73 82 3c 37 67 12 3e 24 6a 85 3d
       0.06475133 0.01592439 0.14297186 0.06514385
000120 58 bb 64 3d a5 2a 6f bc 37 95 81 bd 3d 7f f7 bc
       0.055842727 -0.01459757 -0.063272886 -0.03021204
000130 14 70 f1 3c 10 85 0c 3e c9 da b2 bc e8 55 26 3e
       0.029472388 0.13722634 -0.02183284 0.16243708
000140 7c 1e d0 bd fc 40 36 3c f7 f9 d3 bd 87 4b 0d be
       -0.101620644 0.011123892 -0.103504114 -0.13798343
000150 52 04 ee bd 9e 36 03 be 87 71 1c 3d 31 df 81 bd
       -0.11621918 -0.12813804 0.038194206 -0.063413985
000160 89 b2 9e 3d 7e b1 ac bb 97 57 78 bc 61 ce 05 be
       0.07748897 -0.005270182 -0.015157602 -0.13067009
000170 9f 17 b8 3d 4d 51 95 3d 37 2a 08 be 5a 04 08 3d
       0.0898888 0.072908975 -0.13297354 0.033207275
000180 b7 8c 98 3d 0d 43 fb bd 07 88 ea bd 55 e3 a4 3d
       0.07448714 -0.12268648 -0.114517264 0.08051173
000190 e0 3d 9c bd bf dc 0b 3e 11 03 e3 3d a7 8a 43 bd
       -0.07628989 0.13658427 0.11084569 -0.04773965
0001a0 f8 c1 be bd 4a 3c 16 3e c9 d1 34 3d 8f db e8 3d
       -0.0931434 0.14671436 0.04414538 0.113700025
0001b0 6a 2a f5 3d dd 5d 06 3c dc 87 bd 3d 47 53 88 bd
       0.119709805 0.00820109 0.09254429 -0.06656509
0001c0 dd 7e 1f 3d f6 82 01 3e 47 1d bf bd dc 1d 5b bd
       0.038939346 0.12647614 -0.09331756 -0.053495273
0001d0 a6 33 00 3e 3b c8 18 3e 1c d9 04 3c b9 81 18 3e
       0.12519702 0.14920132 0.0081084035 0.14893235
0001e0 a9 d7 38 bd 90 66 58 bd ac fa 02 3e ab 30 b7 3b
       -0.045127545 -0.052832186 0.12790936 0.0055905185
0001f0 61 58 b3 3d 2b 53 60 3d 41 ce 7d bb 6a c3 fb bd
       0.08757091 0.054766815 -0.0038727673 -0.12293132

classifier.2.weight f4 [64, 128]
000000 71 ff a8 3d 90 5c fd bc a5 3f 3e bd 29 57 bb 3d
       0.082518466 -0.030927926 -0.046447415 0.09147484
000010 b9 ee b2 3d d9 23 5e bd 04 a7 ed 3d a7 54 29 bc
       0.08736939 -0.054233406 0.11604121 -0.010335124
000020 0d 97 2b bc 3e 70 e3 bc b1 29 ae 3b bf 3c 95 bd
       -0.010473025 -0.027763482 0.0053150286 -0.07286977
000030 ae cf 44 3d d0 fb 0f bd 34 57 da 3b e3 4f 77 bc
       0.04804962 -0.035152256 0.0066632275 -0.01509473
000040 70 63 22 bc b5 fd 7e bd 0b f6 85 3d 89 81 27 bd
       -0.009911403 -0.062253673 0.065410696 -0.04089502
000050 2d f5 a2 3b 00 89 02 bd 42 73 21 3b ed 9b 51 bd
       0.004973075 -0.031868935 0.002463535 -0.051174093
000060 46 aa 71 bd 54 f6 b2 bb 5e e0 04 3d 2a 82 88 3d
       -0.059000276 -0.0054614935 0.032440536 0.06665452
000070 ab a4 bb bd 69 49 c2 bc 67 92 62 3d 8a 12 4e bc
       -0.09162267 -0.023716645 0.0553154 -0.012577662
000080 5f cc 48 3b 06 39 0a bd f3 7e 71 bd d1 71 4c 3d
       0.0030639393 -0.033745788 -0.05895896 0.04991323
000090 c5 30 91 bd ae 8d 5e 3c 3d 79 bd bb b7 1d 3d 3c
       -0.0708938 0.013583584 -0.005782275 0.011542729
0000a0 75 e2 5c 3d 4e 8a 5e bb 32 15 93 bd 01 16 88 3c
       0.053926904 -0.0033956948 -0.07181777 0.016612055
0000b0 78 d4 99 3d 58 ef b6 bb b6 58 35 3d 29 02 93 bd
       0.07511228 -0.005582731 0.044274054 -0.071781464
0000c0 71 1e 91 bd c9 6b 29 bd a5 4e ab 3d b7 58 17 3d
       -0.07085884 -0.041362558 0.0836461 0.03694984
0000d0 d3 94 d5 3d 3b 42 3e bd bc 17 bc bd 11 46 92 bd
       0.104287766 -0.04644988 -0.091842145 -0.0714227
0000e0 85 4f c5 3c b2 e6 ab 3c 5a c1 3c 3d 28 12 cf 3d
       0.02408577 0.020984028 0.046082832 0.10110885
0000f0 89 f8 9b bd 9c eb 9c bc 75 98 76 3c 29 c8 87 3d
       -0.07615764 -0.019155316 0.015050997 0.066299744
000100 8c 1a 9e bd 44 a9 54 3a 0e 4b 2f 3d 76 bf 89 3c
       -0.07719907 0.0008112381 0.042796187 0.016814929
000110 eb c0 95 3d c7 36 0c bd 33 04 71 3d 39 96 67 bd
       0.07312187 -0.034231927 0.058841895 -0.056539748
000120 01 de 0a bc 15 03 24 3c f3 e7 ad bd 3e ff ac ba
       -0.008475781 0.0100105 -0.084915064 -0.0013198627
000130 5a ae f1 bc 33 27 f3 3c 1c 30 8b bd 98 92 1b 3d
       -0.029502083 0.029681778 -0.067962855 0.0379816
000140 ec f0 9b 3d bc 60 d2 3d f5 9b 69 bd 40 f3 ac 3d
       0.076143116 0.10272357 -0.057033498 0.08444834
000150 d2 6b 80 3c 73 84 2a bd cf 5c 13 3d 24 48 68 3d
       0.015676413 -0.04163022 0.03597718 0.056709424
000160 9e 2d 63 3d e4 25 ad bc 8e 21 cd bb 24 d0 44 bd
       0.055463426 -0.021136232 -0.0062601035 -0.04805006
000170 89 fc 1f 3d 7d 4b a5 bd 81 c6 6f 3d 55 95 9c bb
       0.039059196 -0.08071039 0.058538917 -0.004778544
000180 f2 7b 26 3d 81 1f 90 3d cf 75 a5 bc 7f 23 24 3d
       0.040645547 0.07037259 -0.020197777 0.040072914
000190 b3 cc 46 3d c3 5c 9a bc 48 9d 31 bd 95 44 a3 3c
       0.04853506 -0.01884306 -0.043362886 0.019930163
0001a0 55 d7 82 3d 84 10 b8 3d ad d9 72 bd 1b c5 d0 3d
       0.063887276 0.08987525 -0.059289623 0.10193845
0001b0 e8 48 9a bd ba 25 09 bd 99 a1 d4 3d ea c7 ad 3c
       -0.07533437 -0.033483244 0.10382385 0.02121349
0001c0 09 ef 51 3d 9d bb 39 3d af 07 5a bd c0 94 eb 3c
       0.051253352 0.045344938 -0.053229984 0.028757453
0001d0 0b c5 0a 3c 73 53 b7 3d 2c bb bc 3d 33 ae 90 3c
       0.00846983 0.089514636 0.09215388 0.01766119
0001e0 34 4d 70 bb eb 7c c6 bc 94 ed f4 3d 4e e7 64 3d
       -0.003666711 -0.024229487 0.11959377 0.05588465
0001f0 78 e9 44 3d 22 6b 0d 3d d4 8a e3 3c bb 4a aa 3d
       0.048074216 0.034525998 0.02777616 0.08315035
000200 47 88 aa bc f5 73 cf bc 5e d5 7a 3d fa 71 a4 3d
       -0.020816935 -0.025323847 0.06123864 0.08029552
000210 a3 6c ac 3d cf 81 0a bd 52 82 e7 3d 29 b9 ec bc
       0.08419158 -0.0338152 0.113041535 -0.028896885
000220 b7 d2 98 bc 21 f4 8c bc 27 6c ae 3d 54 27 46 3d
       -0.018655164 -0.017206253 0.08516722 0.04837735
000230 67 e0 6d 3d 43 f9 bc bc 62 2e 12 3d d5 dc 50 3c
       0.058075335 -0.023068076 0.035688765 0.012747963
000240 ca 57 a7 b8 27 6a ed bb aa e1 62 bd de c2 82 3d
       -7.9795325e-05 -0.0072453204 -0.05539099 0.06384824
000250 fa cd 05 bd ad f6 b9 bc e9 cb 8d bd 07 17 1e 3d
       -0.032667138 -0.022700632 -0.069236584 0.03859618
000260 f0 21 82 bb 0c ac 5a 3d 8e 73 48 bd 5f e1 56 3d
       -0.003971331 0.053386733 -0.048938327 0.052461024
000270 4c 8f f2 3c 41 97 1c 3d 91 97 bd bc 03 83 b1 bc
       0.029609345 0.038230184 -0.023143562 -0.021668917
000280 cf 53 28 3d 00 df 17 3d 43 bd 9b 3d 9c 65 94 3c
       0.04109555 0.037077904 0.07604458 0.018114857
000290 0d a0 0a bd a1 65 76 3d ab af c1 3d 09 2c 68 3d
       -0.033844043 0.060155515 0.09457334 0.05668262
0002a0 03 32 a3 3d df dd 05 3d e8 ef 29 3d 08 42 86 bd
       0.07968523 0.032682296 0.041488558 -0.06555563
0002b0 5f a1 ba 3d f4 75 94 bc 40 86 94 bd 09 ca 84 bc
       0.0911281 -0.01812265 -0.07252169 -0.01620962
0002c0 e8 ef 98 3d b6 51 a9 bd 77 fd db 3d 5b 70 42 bd
       0.074676335 -0.08267538 0.10741704 -0.04747043
0002d0 56 b7 b8 39 02 ae 32 bd ac 0f 0c bd 2a 82 a2 bd
       0.0003523181 -0.043622978 -0.034194633 -0.07934983
0002e0 a7 9c 71 bd c1 28 21 3d d8 58 1d 3d 86 82 c8 3d
       -0.058987286 0.039345507 0.038414806 0.0979052
0002f0 2a 95 2b bd ae 95 80 bd ab aa 35 3d 44 8b 9c 3d
       -0.0418903 -0.06278549 0.044352215 0.0764375
000300 0d 92 f8 3c 08 72 29 3d 95 2a d9 bc 30 3c f1 3c
       0.03034308 0.041368514 -0.026509563 0.029447645
000310 5d 1d 4e bc e6 7d 0b bd 81 30 8f bd 21 20 85 3c
       -0.012580243 -0.034055613 -0.06991673 0.016250672
000320 15 ba a6 bb 9e 2e bb 3c b1 ee 23 bd dd 85 9d bd
       -0.0050881007 0.022849377 -0.040022556 -0.07691548
000330 51 52 82 bb 4c eb 71 3d 56 b3 17 3d 50 77 18 3c
       -0.003977098 0.059062287 0.037036262 0.00930579
000340 cd 81 3b 3d f4 99 7d bd 88 0d 87 3c 87 e3 74 3d
       0.045778085 -0.0619144 0.016485944 0.0597873
000350 ba c5 ba 3d e1 cc 8a bc 14 d0 1f bd 5d 44 fb b9
       0.091197446 -0.016943397 -0.0390168 -0.00047925385
000360 d6 1d 7a bd 11 17 d4 bc 2f b6 01 3d 95 4f 34 3c
       -0.06106361 -0.025889905 0.031667884 0.011005302
000370 ce 7c a5 bd 3f de 3d 3d a2 67 03 3d e4 65 a3 3c
       -0.08080445 0.04635453 0.032081254 0.019946046
000380 a6 06 96 bd ee 46 71 3d 9e 68 8c bd 73 46 db 3c
       -0.07325487 0.058905534 -0.06855892 0.026766991
000390 65 d9 f9 bb 61 94 cc 3d 08 a3 5c bd c7 8a 83 bd
       -0.0076247924 0.099892385 -0.053866416 -0.06422954
0003a0 62 69 9c 3d 2d 64 08 bd 20 81 9d 3d 98 2d b0 3d
       0.07637288 -0.03329866 0.07690644 0.08602446
0003b0 e8 ef 50 3d 39 33 aa bd d8 4d d8 3b 38 a0 9b 3d
       0.051010042 -0.08310551 0.0066010766 0.07598919
0003c0 4b ae a1 bd f3 4d e6 3b f2 18 0e 3d 5d e9 ea 3c
       -0.07894572 0.0070283352 0.03469176 0.02867573
0003d0 87 ea e7 3c b8 48 40 bc 0d f1 90 bb 9d d4 ae 3d
       0.028310074 -0.0117360875 -0.0044232667 0.085366465
0003e0 0d a4 da bc 0b d1 95 bd ef 64 9c 3d 9f 60 9f bd
       -0.026689554 -0.073152624 0.07636439 -0.07782101
0003f0 77 de 21 3d a1 16 2a 3d 13 8a 25 3d d1 ed da bc
       0.0395188 0.041525487 0.04041488 -0.026724728

classifier.2.bias f4 [64]
000000 98 86 4f bb b7 06 49 3b e7 c4 33 3e e3 b0 bc bc
       -0.0031665917 0.0030674168 0.17555581 -0.023033565
000010 07 ed 82 3d 65 12 aa 3d d3 2b f5 3c ff 35 85 3c
       0.06392866 0.0830429 0.029928124 0.016261099
000020 62 e8 2a 3d 75 f0 39 3d a8 8c 46 3d b0 8d 8d 3d
       0.041725524 0.045395333 0.048473984 0.0691179
000030 8c 94 5a ba 9c 23 c4 3a b3 28 d1 3c 06 d5 32 bd
       -0.0008338175 0.0014964226 0.025532102 -0.043660186
000040 71 89 0d bd b5 7a ce 3d 3c 3b a0 3d ee 3f 55 bd
       -0.034554902 0.10081998 0.07823798 -0.05206292
000050 16 99 89 3d 3f 7c aa 3d 3c d8 43 3d 01 70 fd 3d
       0.06718652 0.08324479 0.04781364 0.12374879
000060 2d 39 4d bc cc f5 6e 3d 61 8e 29 bc 2b 8f ee bc
       -0.012525839 0.05833988 -0.010348887 -0.029121002
000070 80 86 54 3d b7 06 ea bc 8a 38 2d bd 7c 19 49 3d
       0.05188608 -0.028567655 -0.042290248 0.04909657
000080 28 74 8d bc 5e 6f 76 bd 6f e5 4b bc 8d 5d cf bb
       -0.017267302 -0.0601648 -0.012444838 -0.006328291
000090 6f e1 60 3c 0e 70 9b 3d 30 34 d9 3d 0c 8d 07 3d
       0.013725623 0.07589732 0.10605657 0.033093497
0000a0 57 6d 0c bd ea f5 ae 3c d0 3e 36 3c 0d 4d 8c bd
       -0.034283962 0.021357495 0.011123374 -0.06850634
0000b0 33 19 08 3e 73 bd 9e bd e0 a6 ad bd 2e 30 f0 ba
       0.13290863 -0.07750978 -0.084790945 -0.0018324906
0000c0 82 bc 9a bd f2 51 98 3d c4 1e 3c bd 94 28 f7 bc
       -0.07555486 0.07437505 -0.045927778 -0.030170716
0000d0 31 d2 f7 bc 03 64 af 3b 03 e9 36 bc aa ae 83 3d
       -0.030251594 0.0053524985 -0.011163953 0.06429799
0000e0 d4 fc d4 3c eb 3f cb 3a 5a 1f 9e bd 88 3e fe 3c
       0.025999464 0.001550672 -0.077208236 0.031035677
0000f0 f8 0f 88 3c 1a 70 10 bb 44 b4 d1 3d 39 34 4a bd
       0.016609177 -0.0022039474 0.10239461 -0.04936621

classifier.4.weight f4 [1, 64]
000000 77 d4 8a 3e dd d1 5b 3e 52 74 02 bf 47 e1 7f 3b
       0.27115223 0.21466775 -0.5095874 0.0039044188
000010 47 63 9c bd e5 40 2e 3f 81 4d 7e 3d 62 0f 51 be
       -0.07636123 0.6806777 0.062085632 -0.20416024
000020 1a c4 2b 3d 5c 46 c5 3e 56 33 c2 be 15 f5 8a bc
       0.041935064 0.38530242 -0.3792979 -0.016962567
000030 2c c1 8f 3d c2 28 40 3e 56 d2 d6 3e 0b f3 cf 3d
       0.070192665 0.18765548 0.4195735 0.10153779
000040 7c 2f c6 3d 1e 0d 9d be 94 27 b4 3e 2c f5 17 3e
       0.09677026 -0.3067407 0.35186446 0.1483962
000050 32 62 92 bd c9 4f cc 3c 13 32 60 3c c6 56 03 bf
       -0.071476355 0.024940388 0.013683814 -0.5130428
000060 cd be 59 3e e4 d7 d0 bd df 4d 0e be 14 15 b1 bd
       0.21264191 -0.10197428 -0.13896893 -0.086465985
000070 4f ea 0c 3c bc 6e 9b bd a6 a8 3f bd 39 fd fc 3e
       0.008600785 -0.0758948 -0.046791695 0.49411944
000080 b0 99 cb bd c1 bb 85 3e 69 91 36 3e c4 1d ce bd
       -0.09941423 0.26119807 0.17828907 -0.10064271
000090 bc 99 a9 3d e2 a9 85 bd 4a 3e 0b be fe 4a 5a 3d
       0.08281276 -0.06526543 -0.1359798 0.053294174
0000a0 57 fc 6d be 1c 42 32 bd 97 82 0b be ad b7 e8 3d
       -0.23240791 -0.043520078 -0.13624035 0.113631584
0000b0 dc 78 90 be 31 d2 08 3d a5 98 a7 bc 0c ea 54 ba
       -0.28217208 0.03340358 -0.020458529 -0.0008122034
0000c0 20 e7 15 3d ed 95 93 3d ee bd 0d 3b 08 b9 c7 3d
       0.03659737 0.072063304 0.00216281 0.09752089
0000d0 4d 34 22 be 63 c1 6e 3e ab 1d b1 be de e5 a5 bc
       -0.15840264 0.23315959 -0.34592947 -0.02025121
0000e0 80 d3 54 be 77 28 f2 bd f1 5e 95 bd 67 f3 62 3e
       -0.20783806 -0.11824124 -0.07293499 0.22163163
0000f0 b3 13 22 be 03 dd e6 bd 45 3b 80 3e d7 c3 e9 3d
       -0.15827827 -0.112726234 0.2504522 0.114143066
