checkpoints/mlp_model/fold_0.pth (torch, 58878 bytes, 5 tensors)

classifier.0.weight f4 [128, 40]
00000000: af55 d9bd 156c cdbd 96cc cabd 0197 dcbd
00000010: 78b1 24be e5a6 2abd edea 723d 30da d3bd
00000020: cc50 233e 56ed ab3d bd5f 23bd c33d ba3d
00000030: ec8e b73d 906f a23d cfd2 92bd 9f4e 88bd
00000040: bb7c 3f3c 9e57 bebd ee68 4a3d ed1b 1cbc
00000050: ccd0 f9bd a4a4 88bd ced6 ca3d 7a9f d5bd
00000060: e34a 423d 33a6 113d 4adf 013d 4616 2f3d
00000070: dc54 0b3e f565 013e a98a 033e 16dd 843d
00000080: 06c2 35bd e5dd 073e 6551 f23c 0981 2fbd
00000090: d4ec c7bd 3a90 9f3d 22ec bcbd 9fea e3bb
000000a0: 8839 a13d 8ae8 da3d 718f b7bd 5679 ea3d
000000b0: 5150 1cbe 6db6 e1bc cb17 cb3c d825 b1bd
000000c0: c5b9 123d 08b2 1f3e c934 903d 8db8 97bd
000000d0: 676f d2bd 14c5 493c fc40 d4bd 48f3 103d
000000e0: e6a0 fcbd 3cf4 04be 0bdb babd a0e7 083e
000000f0: e35e d83d 1e0d e0bd db15 063e f59b 5f3c
00000100: 5edd 66bd 3b4e 0b3e f2e9 47bd 788e 01be
00000110: f6b5 843d fc4b babb c3e9 edbc d3ba 24bd
00000120: 5d2b 4d3c 147d 8c3d c97c f53d a8e5 93bd
00000130: a3cd 09be 5e1e 0d3e 5706 dbbc 1062 ab3d
00000140: a262 043e 9d6f 0fbe 26a3 263d 56d4 ec3d
00000150: afa6 ad3c 0896 96bd e7c7 62bb 1bc3 eb3d
00000160: d0fe 4abd 35ff e7bd 103d b6bd eed9 b6bd
00000170: 18d0 0bbe a083 adbd 8593 a73d 4cc6 1c3e
00000180: 1e6e d2bd 9c87 b4bc f742 283d 3591 77bd
00000190: 98ad 9ebd 04a2 bcbd f244 0b3e 4614 c93d
000001a0: 6828 833d 5aa9 c9bd 6bce 96bd dbf1 9e3d
000001b0: f839 013d d0ab 033d 5da6 0bbe e134 1e3d
000001c0: 407e b2bd 011a 3c3d 943c ccbd 83af cc3d
000001d0: 3084 aabd e8cd b53c 3e90 f2bd 6270 19be
000001e0: 8ed8 1fbe 8f5e 2fbc 804d 02bd e631 a4bd
000001f0: 7490 583c 8e83 fc3d 2028 94bd d72f 06be
00000200: 2d6b e23c f9ae 183e ef06 1a3b bc6a 77bd
00000210: 5290 02be c99d 21be 2b56 b2bd 1448 f73d
00000220: ecca 033e 98f2 343d 41c3 af3c 699c 1ebe
00000230: 4fbb 16be 674b af3d 001d c6bd e8b7 443d
00000240: 551d 94bd 5040 46bd 3dcc ddbd 465e dd3c
00000250: 5c95 eabd 738e eb3d 9105 1b3e 2a8e 96bd
00000260: 9385 3c3d ad40 17bd 6fc0 adbd fe08 eebd
00000270: f32f 903d bb93 5bbd 8ffd 153e bd82 e1bd
00000280: 936f 463d 9c5e 1a3e 8aee 44bd 3c86 d73d
00000290: fa7e ef3c e286 7bbd 431f 31bd 9cb5 893d
000002a0: ec82 703d f874 013e b06b a1bd 6467 1c3e
000002b0: 4cab 9bbd a158 103e 263c 263b bb8d 0d3e
000002c0: 086b dc3c b01d 773c dea3 0c3e 0a20 033e
000002d0: 9ed3 c23d 6635 afbd e5ca 15be 9b02 c0bd
000002e0: 8a97 d13d f457 903d f1c1 08be 5141 5d3d
000002f0: 2496 1e3e 4660 ed39 2eaf 1a3e dbae 2cbd
00000300: 7acf fd3d 2043 d0bd 64a6 7c3d 37bf 5f3b
00000310: 1648 833c b35c f7bd 8277 6d3c cc0a 9abd
00000320: a17a 58bd b6ad c83c 94c5 fbbb 6788 18be
00000330: c584 b03d b742 9fbd 0e51 ab3d c64e 073e
00000340: e7ee af3d 5095 843d 74f4 55bb 2acc 1c3d
00000350: d980 833d e843 cebd 2c3c 30bc d2e9 203e
00000360: a2ef ea3d c471 c2bd ed26 c9ba 887e 00be
00000370: a411 113d f74b 2ebd e3f4 1b3e 420a 273d
00000380: 33d6 8bbd d391 fb3d d7a2 b4bc 6b9a 06bd
00000390: 3e76 ec3d 7156 593d ab69 923d 271f 553c
000003a0: adc9 db3d 38fb f9bd 795c a7bd 6e7d f03c
000003b0: b86f 24bd f9f9 7c3c 0850 8bbd 1e52 78bd
000003c0: 09c2 1c3e 710e dabd 916c cdbd ff4a d0bc
000003d0: 396e ecbd 2cd7 01bd 2f29 ac3d 1dee 123e
000003e0: 2e61 4d3c 72ee 083e ea9d 053e 5473 13be
000003f0: 7a30 0d3e ac0e 263d fa2e 83bd c447 1e3e
-0.10612046 -0.10030381 -0.09902303 -0.10770989 -0.16083324 -0.04166307 0.059306074 -0.1034435
0.1594879 0.083948776 -0.039886225 0.09093811 0.08962807 0.07931435 -0.07169115 -0.06655621
0.011687453 -0.092940554 0.049416475 -0.009528142 -0.12198028 -0.06672028 0.09904252 -0.10430808
0.0474347 0.03555889 0.031707086 0.04274585 0.1360659 0.1263655 0.12845863 0.06487481
-0.04437449 0.1326824 0.029579828 -0.042847667 -0.09761968 0.07791181 -0.09224726 -0.0069554592
0.07872301 0.106888846 -0.08962906 0.11448924 -0.15265013 -0.027552808 0.024791619 -0.08649796
0.035821695 0.15595257 0.07041318 -0.07408247 -0.102751546 0.0123150535 -0.10363957 0.03538826
-0.123353764 -0.12983793 -0.091238104 0.13369608 0.10564973 -0.10940002 0.13094275 0.013648023
-0.056363456 0.13604061 -0.048807092 -0.12652004 0.06480019 -0.0056853276 -0.02904213 -0.040217232
0.012522546 0.06859794 0.119866915 -0.07221538 -0.1345735 0.13781115 -0.026736422 0.08368313
0.1292825 -0.14007421 0.040682934 0.11563937 0.021197645 -0.07352835 -0.0034604014 0.11511823
-0.049559414 -0.11327974 -0.088983655 -0.089282855 -0.136536 -0.08472371 0.08182434 0.15310019
-0.102749094 -0.02203732 0.041079488 -0.060441215 -0.07747954 -0.092105895 0.1360052 0.0981832
0.06404191 -0.09846754 -0.0736359 0.07760974 0.031549424 0.032146275 -0.13637681 0.038624648
-0.087154865 0.045923237 -0.09972492 0.09994414 -0.08325994 0.02219291 -0.11843918 -0.14984277
-0.15609953 -0.010703697 -0.03181219 -0.0801733 0.013218034 0.123297796 -0.07234216 -0.13104187
0.027638996 0.14910497 0.0023502668 -0.060404524 -0.12750366 -0.15782847 -0.087078415 0.12074295
0.12870377 0.044176668 0.021455409 -0.15489353 -0.1471989 0.08559304 -0.096735 0.04802695
-0.07232157 -0.048401177 -0.10829971 0.027022492 -0.11454269 0.115017794 0.15138842 -0.073513344
0.046025824 -0.036926914 -0.084839694 -0.11622809 0.070403956 -0.053607684 0.14647506 -0.110112645
0.04844625 0.15075153 -0.04807905 0.1052365 0.029235352 -0.06140793 -0.043242704 0.06724092
0.058718607 0.12642276 -0.07881868 0.15273815 -0.07601032 0.14096309 0.002536544 0.13823597
0.026906505 0.015082762 0.13734385 0.1280519 0.09513019 -0.08555107 -0.1462818 -0.09375497
0.10233982 0.07048026 -0.13355233 0.05401737 0.15486962 0.00045275892 0.15105888 -0.042158943
0.12393089 -0.10169053 0.06168212 0.0034141073 0.016025584 -0.12078228 0.014493825 -0.075215906
-0.052851323 0.024496894 -0.0076834653 -0.14895783 0.08619074 -0.07776397 0.08365069 0.13213643
0.08590489 0.064737916 -0.0032646926 0.038280644 0.0642106 -0.10071546 -0.010756534 0.15714195
0.114714876 -0.09494355 -0.0015346684 -0.12548268 0.035417214 -0.042552914 0.15230136 0.040781267
-0.06827965 0.12283673 -0.022050304 -0.03286211 0.115459904 0.053060953 0.07149061 0.013007916
0.10731826 -0.12206119 -0.08171935 0.029356685 -0.040145606 0.0154404575 -0.06802374 -0.060625188
0.15308394 -0.10647286 -0.10030473 -0.025426386 -0.11544461 -0.031699345 0.08406293 0.14348646
0.0125353765 0.1337221 0.1304852 -0.14399463 0.13788024 0.040541336 -0.064054444 0.15457064

classifier.0.bias f4 [128]
00000000: bf49 113e 7658 d6bd f10b 1c3e 9b11 223d
00000010: ac00 4f3c 9342 da3d 8708 dfbd 74aa e53c
00000020: 8e6e 803d 04e2 313d 0592 a6bc a2b3 02be
00000030: 130f c03d a1be 193e 715b 803b 1e7c 03be
00000040: 3439 cf3d c024 e83d 8d04 8f3d 5930 24be
00000050: 9608 d83c 6404 b7bc 9511 cb3c c3dc b8bc
00000060: 68d9 013e 2c1b 543d 9023 e9bd 93b3 053e
00000070: c7f0 a83c e880 9a3d 826a 943d b88a 6a3d
00000080: f68e 94bd cf5d 39bd 9621 213e 586e 883d
00000090: 6f12 ecbd 232f 02be 2218 963d 1aeb 2a3e
000000a0: d7da 823d 09df 9bbd b599 263e 0fa0 c73c
000000b0: 9c4c 2ebd f9fd d43d 9050 343e cb33 1c3e
000000c0: bbf2 233e b8f8 1b3e e43a adbd 1c47 01bd
000000d0: 6024 de3d 4110 c5bd 079b 89bd ac6f 9d3d
000000e0: 05b8 153e 280a 5fbd 4318 f53d d3a5 103e
000000f0: fdc5 3a3d 21de 8abd 6f8c 1b3e b641 033e
00000100: b55b da3d 551b 99bd a4a3 f3bd ef83 aa3d
00000110: efbe d43d 9059 653d 3b13 153e cd2e 05be
00000120: 8b0e 1bbe faed 27bc 8ae8 12be 6712 e5bd
00000130: 3124 353d b295 ac3d 160a ff3d 5eed 0e3d
00000140: a1e8 9dba 945b 5cbd ffc8 6d3d 7219 1c3e
00000150: bdb6 ae3d 5381 8fbb fc6c 2f3d c92d 80bd
00000160: 9df2 b43d 73cf ae3d e786 023d 4316 a63d
00000170: ccc8 dfbd 090c 0cbe d38d b43d 58e8 0a3d
00000180: 556c ac3d 1474 a639 7e2d 18be e655 67bd
00000190: 9752 8c3d 4c57 a73d 0102 bfbd 3202 ad3d
000001a0: d2aa 273e deed a4bd 4f30 d1bd 4110 c13d
000001b0: 446c f4bd ef4b 803d 301b bcbd dc3f 6cbd
000001c0: 65b9 103d decf 283d 1262 8b3d bf8f 04be
000001d0: 9ced 1a3e aab3 93bd b4cc ab3d 64cc 173e
000001e0: baf4 013e 0f6d 06be d6b0 77bd 87b1 9bbc
000001f0: 71b1 873d bb5c a3bd 8984 09be 3482 aa3d
0.14188288 -0.10466091 0.1523893 0.03956757 0.0126344375 0.10657229 -0.10890298 0.02803538
0.06271087 0.043428436 -0.0203333 -0.12763837 0.09377875 0.15014125 0.0039171507 -0.12840316
0.101183325 0.113351345 0.0698329 -0.16034068 0.026371282 -0.02234096 0.024788657 -0.022566205
0.1268059 0.051783726 -0.11383736 0.13056783 0.020622624 0.07544118 0.07246877 0.0572612
-0.0725383 -0.04525548 0.15735468 0.066616714 -0.115269534 -0.12713294 0.07328822 0.16691247
0.06389397 -0.076109 0.16269572 0.024368314 -0.04255353 0.10400004 0.17608857 0.15254132
0.16010563 0.15231597 -0.08458498 -0.031561956 0.10846782 -0.09622241 -0.06719022 0.07687315
0.14620979 -0.054453045 0.11967518 0.14125757 0.045598973 -0.06780649 0.1519029 0.12818035
0.10662023 -0.07475916 -0.11896446 0.083259456 0.1038798 0.055993617 0.14558117 -0.13006134
-0.15142266 -0.010249609 -0.14346519 -0.111851506 0.044223968 0.084269896 0.124530956 0.03489434
-0.0012047478 -0.053798273 0.058053013 0.15244082 0.08530948 -0.0043794303 0.042828545 -0.06258733
0.08835337 0.085356615 0.031866934 0.08109715 -0.10926971 -0.13676466 0.08816113 0.033912987
0.084191 0.00031748472 -0.14861104 -0.056478404 0.0685169 0.081709474 -0.09326554 0.08447684
0.16373757 -0.08053182 -0.10214292 0.09426928 -0.119347125 0.06264483 -0.09184873 -0.05767809
0.035333056 0.041213863 0.06805815 -0.1294546 0.15129703 -0.072120026 0.083886534 0.14824063
0.12691012 -0.1312754 -0.06047138 -0.01900555 0.06625641 -0.07976671 -0.13429464 0.083256155

classifier.2.weight f4 [64, 128]
00000000: 14ad 723d 6933 873c 915b 163d 1248 133d
00000010: b971 a9bd 8baa 9fbd 4f73 5d3d 1309 75bd
00000020: b06f 353d 4e40 7dbc 71db a9bc a41e cbbc
00000030: fbcf 8dbd aadf 943c d3ca ce3c 72fd 7b3d
00000040: 0396 67bc 6f58 1bbc f2b4 61bc 65fc 5c3b
00000050: e906 013d c92b 84bd c979 2b3c 2719 b73d
00000060: 1d01 8c3d c56a 4abc 27e6 8e3d 0219 18bd
00000070: 8438 b8bb dcfd 753d 6254 d5bb 43c0 96bd
00000080: b652 61bd f897 853c 5bbc 163d 81df 7e3d
00000090: c6cc 86bd 1928 8bbd 2e3a 77bd b675 4cbd
000000a0: 4275 a63d c5f6 a33c 468e 85bc 86a3 8abc
000000b0: ee2b 62bd b36e 56bc 9bf4 aa3b b8e1 4f3d
000000c0: 5867 883d f133 39bd 38ed 873d c7f0 e7bc
000000d0: 02fd 013d 3ae2 9d3d f766 a73d 07d6 10bd
000000e0: 95d1 873a 0f44 1d3d 9e4b d23c c423 6dbd
000000f0: dec1 843d 34e5 f13b e288 153d fe09 433d
00000100: 48d0 e7bc f714 923c f420 86bd 77f8 76bd
00000110: 9c2f ba3d 80c8 8cbd fc48 ae3d 6593 983d
00000120: bcef 60bd 7b3f efbb c58e ffbb 7f2e 5b3c
00000130: e17e 07bd dcdd fc3c 6c5e 8c3d 86b4 b5bd
00000140: daf2 9bbc 6865 b23c ddea a53c 70b6 933d
00000150: 2719 aaba e889 61bd ed4b 97bd 8cfc 57bd
00000160: 2387 ae3d da90 99bd e43b 55bd 896e 9c3d
00000170: 3df3 ab36 b2b9 053d cc46 cebb 3c9e 463c
00000180: c89b 78bd fe24 093d 706a 143d 6ad9 423d
00000190: 2cdf babd b4d9 333d 04ca 31bd 9eaa 76bc
000001a0: 5caa 993d 6eb7 96bd 6942 89bd ff5f 913d
000001b0: 564f bdbc 13f4 b0bc 4e79 6f3d 635c 80bb
000001c0: 5412 a83d 12c7 563d 833e f33b 795d 363c
000001d0: fa72 b43c 8d65 12bd e535 c8bc 78e7 843d
000001e0: 7bd8 ae3d 7857 8e3c e69d a53c d20a ab3b
000001f0: 9d3c 4cbd 942a 913d 0e16 47bc 043f 4b3d
00000200: acf8 793d 12d9 b6bc a776 423d 5073 153d
00000210: 9a9a a7bd bd6d a7bd 70c8 6a3d 9e82 d8bb
00000220: b7b4 1f3d 5d62 8d3d c673 093d 11e6 61bc
00000230: fa02 5bbd 88b5 27bc 7099 19bd d80f 4bbd
00000240: d2b6 adbd bb8f a3bd 019b 623d 79a6 ff3c
00000250: d5d5 cb3c 8657 373d c1a9 123d 88ef 5cbd
00000260: aee7 a4bd 5a37 15bd 3d0b 673d ebef 803d
00000270: 8efa f1bb 4e60 153d 98d5 ec3c 50e9 abbc
00000280: ecbd 28bd 1590 83bd 1516 8dbc fbcb 163d
00000290: c502 82bd e339 e5bc 96d7 2f3d 7ef8 99bd
000002a0: 9832 6cbd fe29 b4bd f819 7e3d 1553 e53b
000002b0: 4b9e 82bc f132 9e3c 3139 28bd f640 58bd
000002c0: b985 7bbc 973b 543c 085f a13d 04d4 813c
000002d0: eab4 6cbb 8d49 12bd 2511 5ebd eba8 323c
000002e0: c5bb 46bd 683e b2bd 6b62 f43c 1ab2 3c3d
000002f0: 883c 2d3d 1696 af3c f4c8 97bd 6ab4 1e3d
00000300: 3cfd 12bc c10a b2bd f083 413c 7d8d 2d3c
00000310: 67a4 6bbd 99e5 97bd 050d 373d d76c 9b3d
00000320: b76b 02bc 1204 78bd c942 483d 8404 5bbd
00000330: 4cdb bf3c eed3 99bc 7383 c2ba 07c7 083d
00000340: cdfd 453c d57b b9bc 5f08 003d 135f de3a
00000350: 49fc 883d 54ba 473c f649 c2bb 0bc8 6139
00000360: 9230 aa3d e3ae e03c 4cfd e8bc 7ed1 a5bd
00000370: 0444 af3d e902 823d ef58 103d e550 ad3c
00000380: 2431 a6bd f61b 9a3d 54f5 133d 6bd2 12bb
00000390: b2b2 a7bc ee50 2abd a650 6ebd f063 a2bd
000003a0: f6d6 963d 553f 823d e4df 2b3d 99eb a8bd
000003b0: 3c0b a7bd 3002 41bd 673d 1abd 79e7 bb3a
000003c0: 6c4b 133d a887 13bd a7e6 66bd d7cd 11bb
000003d0: c392 90bd aeab a6bd ea7c 49bc d3bf 72bd
000003e0: 2d53 6e3d 86c7 043d f098 7d3d 7e5e d5bc
000003f0: 7a5a 1fbd 6268 2c3d 62d8 49bd 2846 753d
0.05924709 0.016504006 0.03670842 0.035957403 -0.08273644 -0.077962 0.054065045 -0.059823107
0.044295967 -0.015457226 -0.02073452 -0.024794884 -0.06924435 0.018173058 0.025243198 0.061521
-0.014134887 -0.009481533 -0.013776051 0.0033719775 0.03150073 -0.06453664 0.010466048 0.08940344
0.0683615 -0.012354557 0.06977492 -0.037133224 -0.0056219716 0.060056552 -0.0065103034 -0.0736089
-0.05501052 0.016307816 0.036800724 0.06222487 -0.06582026 -0.067947574 -0.06035822 -0.049916945
0.08127834 0.02001513 -0.016303193 -0.016923677 -0.055217676 -0.013087916 0.0052171475 0.05075237
0.06660336 -0.04521555 0.06637043 -0.028313054 0.031735428 0.07709165 0.08173936 -0.035360362
0.0010362143 0.038394984 0.025670823 -0.057895437 0.0648229 0.0073820595 0.036507495 0.04761695
-0.028297558 0.017832262 -0.06549254 -0.06029555 0.09091112 -0.0687418 0.085100144 0.07449988
-0.05491613 -0.0073012686 -0.007799002 0.013377785 -0.033079986 0.03086751 0.06853947 -0.08872323
-0.0190367 0.02177687 0.020253593 0.072125316 -0.0012977467 -0.05506316 -0.073875286 -0.05273108
0.08521869 -0.07498331 -0.05205907 0.076382704 5.124514e-06 0.032647796 -0.0062950607 0.012122687
-0.06069544 0.033482544 0.03623432 0.047570623 -0.09124598 0.04390879 -0.043405548 -0.015055327
0.075031966 -0.07359205 -0.0670212 0.07098388 -0.02310912 -0.021600759 0.058465295 -0.0039172634
0.08206621 0.052435942 0.0074232235 0.011130684 0.022027481 -0.035741378 -0.024439761 0.06489462
0.08537384 0.017375693 0.020216893 0.0052197957 -0.049862493 0.07088199 -0.012151254 0.049620643
0.061028168 -0.022320304 0.047476437 0.036486924 -0.08183785 -0.08175228 0.05732006 -0.0066073677
0.038990702 0.06903527 0.033557676 -0.013787762 -0.053469636 -0.0102361515 -0.037499845 -0.049575657
-0.08482136 -0.07986399 0.055323604 0.03120731 0.024882236 0.044761203 0.03580642 -0.053939372
-0.08052002 -0.03642974 0.056407202 0.06295761 -0.007384605 0.036468796 0.028910443 -0.020985276
-0.04119675 -0.06423966 -0.017222444 0.036815625 -0.063481845 -0.027981704 0.04293021 -0.07518099
-0.057665437 -0.08797072 0.062036484 0.0069984295 -0.01594462 0.0193114 -0.041070167 -0.052796327
-0.015351706 0.01295366 0.07879454 0.015848167 -0.0036118575 -0.035714675 -0.05421557 0.010904531
-0.048518915 -0.08703309 0.029832086 0.04606829 0.042294055 0.021433871 -0.07411376 0.038746275
-0.008971509 -0.086934574 0.0118112415 0.0105928155 -0.057529833 -0.07416839 0.04469015 0.07589119
-0.0079602515 -0.060550757 0.048891816 -0.053471103 0.023419999 -0.018777814 -0.00148402 0.033392932
0.012084437 -0.022642056 0.031257983 0.001696559 0.066887446 0.01219042 -0.005929227 0.00021532194
0.08310045 0.027427142 -0.028441094 -0.08096598 0.08557895 0.06348211 0.035241064 0.021156738
-0.081148416 0.075248644 0.036122635 -0.002240325 -0.02047095 -0.041581087 -0.05818238 -0.07929218
0.07365219 0.06359736 0.041961566 -0.08248062 -0.0815644 -0.047121227 -0.037656214 0.0014335952
0.0359606 -0.036018044 -0.05637231 -0.0022247934 -0.070592426 -0.08138214 -0.012297848 -0.05926497
0.05818479 0.032416843 0.06191343 -0.026046034 -0.038904645 0.042091735 -0.049278624 0.05988136

classifier.2.bias f4 [64]
00000000: 96df 52bd ffea 9dbc 2ea4 bdbc b317 ac3d
00000010: 2d01 953d ba17 a13d 0cf4 cabc 96be 323d
00000020: e70d 443d 1a2c 6dbd 84b5 ce3d 8fa3 733d
00000030: 295c c2bb bb13 283d 13cf a5bd a68a 8fbd
00000040: cdb4 2b3d 17ec 48bd d20b da3b c938 b43b
00000050: 767a b53d 68cc 9abd 16b1 bc3d bae2 31bd
00000060: a42a bc3d 1932 ef3d a9d4 72bc a18b a53d
00000070: 3adb 8a3d 9079 adbc 4d2a 36bd ebe0 b7bc
00000080: 82fb 113c b433 14bd 0791 48bd 4de7 29bd
00000090: 6edd 823d 9a03 803c 32d3 143e 5459 71bd
000000a0: f825 83bc 559a 43bd 39eb 9bbb 382c 06bd
000000b0: be5c 043d e7b6 1d3d d480 d63d 2795 873d
000000c0: c024 e93c a493 8fbd 652e 33bd ff28 5bbd
000000d0: ed78 4b3d 30d1 6dbb 0421 20bd 64f4 47bc
000000e0: f506 623d 4f0c 3d3d 9ff0 f63b 0f4a ec3d
000000f0: 20c3 d13d 2fc1 3e3d 6651 94bd 372c b3bb
-0.05148276 -0.019277094 -0.023149576 0.08402958 0.07275615 0.078658536 -0.024774574 0.04363879
0.04786482 -0.057903387 0.10093215 0.059482154 -0.0059313965 0.04103444 -0.08096137 -0.07008867
0.041920472 -0.049053278 0.006654241 0.0054999334 0.08861248 -0.07558519 0.09213464 -0.043429114
0.091878206 0.11679477 -0.01482121 0.08083273 0.067800954 -0.02117613 -0.044473935 -0.022446116
0.008910062 -0.03618212 -0.048966434 -0.04148035 0.063898906 0.015626717 0.1453369 -0.05892308
-0.016009316 -0.047754604 -0.0047582653 -0.032757014 0.03231501 0.038504507 0.10473791 0.066202454
0.028459907 -0.07010582 -0.043745417 -0.053505894 0.04967587 -0.0036288016 -0.039093986 -0.012204263
0.055182416 0.046154317 0.0075360085 0.11537563 0.10242295 0.046570953 -0.07242088 -0.0054679173

classifier.4.weight f4 [1, 64]
00000000: 4f8f ba3d e3c8 d3bb 1e0b 7b3e 37e5 f73d
00000010: 846f cfbe c961 12be 4a3b 79be eb56 b6bc
00000020: 6bcc 2a3d 7590 863d bc92 f4bd 11ff 00bd
00000030: 075d 203e 0904 a4bd 15d4 82bc 9ffd 68bd
00000040: 04bf 2b3e 44ff 953d 8472 2fbe 38e4 f1bd
00000050: 2cfa 233e 7972 e5bd 5b79 44be 8b2b f63d
00000060: 18d3 a43d 4302 d23e 5ebb 843d bb6e 5f3c
00000070: 09bb 59be ac20 5c3c efc7 433d dbb3 b1bd
00000080: 8f3b ccbe 5bc7 bbbb f08f 0bbd e3bd 533e
00000090: 3f50 6bbe 4c83 b0be 27a6 dc3e 606a bb3d
000000a0: 49d9 7fbd 1e05 0abe 58be 17bc c923 503e
000000b0: 7fe1 9dbe ab68 313e 04d9 913e 55ca 1c3e
000000c0: 2410 25be 8128 0a3e 391d 41bd 9555 3abe
000000d0: 825e 9e3e df83 bd3d 4896 1c3d ad53 e53c
000000e0: 51af 1a3d e167 9a3e 20c4 033e be2d 95be
000000f0: 7654 79be 4adf 833e 95cb e9bc 58be e1bd
0.09109365 -0.0064631565 0.2451596 0.12104266 -0.40514767 -0.14295115 -0.24339023 -0.022258243
0.041698854 0.06570522 -0.1194205 -0.03149325 0.15660487 -0.08008582 -0.01597027 -0.056882497
0.16772085 0.07324079 -0.17133528 -0.118111074 0.16013402 -0.112034746 -0.19186918 0.12020024
0.080480754 0.4101735 0.0648105 0.01363724 -0.21262754 0.013435524 0.047798093 -0.08676883
-0.3988919 -0.005730552 -0.034072816 0.20677905 -0.2297983 -0.34475172 0.43095514 0.09151149
-0.06246308 -0.13478515 -0.00926169 0.20326151 -0.30836102 0.17325084 0.28485882 0.15311559
-0.16119438 0.13492014 -0.04714701 -0.1819671 0.3093148 0.09253668 0.038229257 0.027994001
0.03776485 0.30157378 0.12867785 -0.2913646 -0.24348626 0.25756294 -0.028539458 -0.11022633
