checkpoints/mlp_model/fold_4.pth (torch, 58878 bytes, 5 tensors)

classifier.0.weight f4 [128, 40]
0.046339765 0.038108796 0.04967916 0.09797849 0.15283687 -0.1052978 -0.1517456 -0.07454777
0.07666303 -0.12128878 0.0053629335 0.12769316 0.06067262 0.030437164 0.077922784 0.13681644
-0.0073148017 0.017328754 -0.1279357 -0.15525779 -0.09418613 0.14527997 -0.08731181 0.015676834
0.02580419 0.095443755 0.056132402 0.12483199 -0.051230744 0.08188974 0.08749139 -0.12927362
0.083912216 0.024209492 -0.098961614 0.062089946 -0.01968671 0.007925727 -0.053207062 0.10123319
-0.03905243 -0.096470825 0.16139896 -0.07070621 0.08040153 0.11001923 -0.11090276 -0.009313303
-0.15585946 0.066274166 -0.12894303 -0.14218819 0.120469235 -0.08231868 0.055961885 -0.012511099
-0.13273005 -0.01700145 0.10216923 -0.15843049 0.00034718573 -0.12118661 0.15031415 0.05526018
0.09645378 0.10786807 -0.051316477 -0.1190668 -0.120421164 0.060395945 0.062326785 0.019207656
-0.054410324 -0.09383537 0.030080024 -0.0698424 -0.05345105 0.10537089 0.09087908 0.12901689
-0.01264906 0.027173776 -0.087787345 0.11225332 0.1051827 0.044535253 0.06053585 -0.09456148
-0.0799884 -0.09578115 -0.053724315 0.10033003 0.1563873 0.14570296 -0.0023256664 0.003579783
-0.019600729 0.10758222 -0.00045654958 -0.018408626 -0.07412325 0.030829974 -0.13086988 0.15873146
0.12314143 -0.12623015 0.06880409 0.14495955 -0.13245273 -0.05204272 0.05838421 -0.011660948
0.1042856 -0.060440425 -0.0052156514 -0.06999722 0.08540924 -0.12348181 0.018493196 0.15557767
0.08846472 0.02799988 0.13899362 0.15725867 0.08206487 0.025858864 -0.1243331 0.016469669
-0.14134558 -0.10160435 -0.005448428 0.12085474 0.008934476 -0.112404406 0.049094122 -0.022441195
0.03582419 0.0064804396 0.15224835 0.051247228 0.10163426 0.14367239 -0.044285607 0.13719866
0.13028887 -0.037491743 0.010545151 -0.14344813 0.14574888 -0.14695787 -0.12638773 0.07201347
0.0615747 0.043176085 -0.13036391 0.0054934025 -0.00747985 -0.08481558 0.02978892 0.0294834
0.033463113 -0.09295931 0.082969405 0.10896816 -0.04586494 -0.077571236 -0.08126979 -0.09439562
0.034903284 0.004760357 0.14755246 0.01752525 0.040904675 0.15877774 0.018118707 -0.009255308
-0.027203191 0.03569048 -0.12036087 -0.1335858 0.12174565 -0.08210446 0.118683346 -0.17141534
0.012784194 0.062317476 -0.029721137 -0.024332719 -0.050451662 0.021696692 -0.07270061 0.121073514
-0.089679725 -0.15626512 -0.10724459 0.011679802 0.036712505 0.0013712036 0.038974173 -0.010251891
0.016052324 -0.12019946 -0.06549425 0.060042065 -0.08192921 -0.16683522 0.020540066 -0.01763561
-0.031986065 0.08315375 -0.13429026 0.08916356 0.107576825 -0.10670179 -0.05319861 -0.15269867
-0.04934433 0.13437054 0.12967265 0.09285831 -0.0071402504 0.02927131 -0.08763102 0.16817862
0.022151096 -0.018783502 0.17172146 -0.0906878 0.12395613 -0.11145195 -0.026621476 -0.028776068
0.038064696 0.08324008 0.05414457 0.1311482 0.07504468 0.17261577 0.15841557 -0.1333362
0.109442316 0.094907224 0.060996316 -0.015621441 0.10608738 0.14951515 0.0041113156 0.13887884
-0.12445219 -0.064238556 0.10894101 0.10941969 0.03134942 -0.045166332 0.12530546 0.14276256
00000000: c4ce 3d3d f817 1c3d 607c 4b3d f2a8 c83d
00000010: 4581 1c3e 5fa6 d7bd 3363 1bbe 80ac 98bd
00000020: 8201 9d3d 4066 f8bd 8cbb af3b ffc1 023e
00000030: da83 783d 5c57 f93c fb95 9f3d 9c19 0c3e
00000040: 01b1 efbb 08f5 8d3c 9301 03be e6fb 1ebe
00000050: a8e4 c0bd 46c4 143e 89d0 b2bd b46c 803c
00000060: 4f63 d33c 0478 c33d 17eb 653d eaa7 ff3d
00000070: 54d7 51bd cfb5 a73d b02e b33d 4e60 04be
00000080: 2bda ab3d fc52 c63c 63ac cabd 0752 7e3d
00000090: 0646 a1bc e9da 013c a6ef 59bd 5953 cf3d
000000a0: 71f5 1fbd 7f92 c5bd c545 253e 6bce 90bd
000000b0: 8fa9 a43d c351 e13d fc20 e3bd d396 18bc
000000c0: 9f99 1fbe c0ba 873d a409 04be c899 11be
000000d0: 93b8 f63d b296 a8bd 4a38 653d 5afb 4cbc
000000e0: 63ea 07be a046 8bbc 1a3e d13d 9a3b 22be
000000f0: 7b06 b639 af30 f8bd f4eb 193e 8058 623d
00000100: 8f89 c53d efe9 dc3d 3a31 52bd 4bd9 f3bd
00000110: 5f9f f6bd bd61 773d 5f4a 7f3d 6059 9d3c
00000120: 5cdd 5ebd c22c c0bd 626a f63c 8809 8fbd
00000130: 7def 5abd b1cc d73d d01e ba3d 011d 043e
00000140: 013e 4fbc 8a9b de3c dac9 b3bd 12e5 e53d
00000150: 076a d73d 996a 363d 70f4 773d 73a9 c1bd
00000160: f5d0 a3bd e828 c4bd 070e 5cbd d579 cd3d
00000170: fe23 203e 2833 153e 356a 18bb cb9a 6a3b
00000180: b591 a0bc 1154 dc3d 0c5d efb9 b0cd 96bc
00000190: eecd 97bd 248f fc3c c102 06be 808a 223e
000001a0: 9331 fc3d 7a42 01be 29e9 8c3d 4770 143e
000001b0: b0a1 07be bf2a 55bd 4824 6f3d 900d 3fbc
000001c0: b093 d53d 6190 77bd 0ee8 aabb b45a 8fbd
000001d0: 0aeb ae3d 08e4 fcbd 0b7f 973c c14f 1f3e
000001e0: fe2c b53d 0160 e53c 5854 0e3e 6b08 213e
000001f0: a011 a83d f8d5 d33c 5aa2 febd 66eb 863c
00000200: e5bc 10be f115 d0bd ba88 b2bb b182 f73d
00000210: e961 123c 4834 e6bd eb16 493d 99d6 b7bc
00000220: 63bc 123d de59 d43b fee6 1b3e 9de8 513d
00000230: 9f25 d03d db1e 133e d364 35bd ce7d 0c3e
00000240: 726a 053e f190 19bd 92c5 2c3c 11e4 12be
00000250: 323f 153e 207c 16be c96b 01be cc7b 933d
00000260: c135 7c3d 68d9 303d 1e7e 05be 0002 b43b
00000270: 8819 f5bb cab3 adbd e507 f43c 2c87 f13c
00000280: 9e10 093d 7361 bebd ddeb a93d b32a df3d
00000290: e0dc 3bbd abdd 9ebd c770 a6bd 7e52 c1bd
000002a0: bff6 0e3d c5fc 9b3b fe17 173e 1d91 8f3c
000002b0: a98b 273d a296 223e af6d 943c 93a3 17bc
000002c0: 3ad9 debc 2e30 123d c37f f6bd b7ca 08be
000002d0: c955 f93d 6226 a8bd 4110 f33d 8187 2fbe
000002e0: cc74 513c 9c40 7f3d be79 f3bc 6955 c7bc
000002f0: 67a6 4ebd 43bd b13c 0fe4 94bd 64f5 f73d
00000300: 01aa b7bd f703 20be 0da3 dbbd a45c 3f3c
00000310: da5f 163d f5b9 b33a 62a3 1f3d 8cf7 27bc
00000320: 2a80 833c 222b f6bd d921 86bd abee 753d
00000330: 80ca a7bd dad6 2abe a443 a83c 8e78 90bc
00000340: d203 03bd 834c aa3d 6383 09be 629b b63d
00000350: 3d51 dc3d 7886 dabd c9e6 59bd 0a5d 1cbe
00000360: 481d 4abd 6e98 093e e8c8 043e 7f2c be3d
00000370: c3f8 e9bb 63ca ef3c e477 b3bd 0437 2c3e
00000380: 3776 b53c dcdf 99bc c0d7 2f3e 86ba b9bd
00000390: b6dc fd3d ec40 e4bd 4815 dabc cabb ebbc
000003a0: bae9 1b3d c679 aa3d b2c6 5d3d b74b 063e
000003b0: 06b1 993d 30c2 303e b137 223e 4989 08be
000003c0: 4b23 e03d b85e c23d 46d7 793d 13f1 7fbc
000003d0: 5744 d93d 801a 193e 37b8 863b 4136 0e3e
000003e0: cae0 febd 818f 83bd 771c df3d 6e17 e03d
000003f0: 4068 003d 5500 39bd 1350 003e 5930 123e

classifier.0.bias f4 [128]
0.06986428 0.08384845 0.062845424 -0.064903624 0.019836431 0.11065014 -0.10030442 -0.08841114
-0.14303973 0.12239843 -0.010862238 -0.052784503 0.10620611 -0.008384953 -0.13721645 -0.14425911
0.09131013 -0.13161516 -0.093542784 -0.14936966 0.024925068 -0.070904694 0.08770663 0.12014693
0.17154925 -0.013092533 0.10358695 0.014530014 -0.08391854 -0.021536702 0.1303517 -0.13446687
-0.11130954 0.017678149 0.0038643572 0.08014548 0.001419286 -0.051666576 0.11961691 0.116939045
0.017760236 -0.08941614 -0.11992738 0.13251391 0.10075342 0.16599448 0.06069313 -0.13614915
0.028171109 0.12868623 0.024552872 0.13977017 -0.04390507 -0.0498021 -0.06245074 -0.05791351
-0.054811064 0.060690712 0.09590665 0.06249757 0.080872715 0.030822435 0.095153004 0.12914449
0.006233564 -0.0138736395 -0.08277502 0.011865142 0.06560894 -0.115470186 -0.122998126 0.07256325
0.04695983 0.02460216 -0.0060974197 0.06477009 0.20002677 0.13360336 0.116835676 0.020863047
0.14031874 0.14054474 0.13622563 -0.041895647 -0.056552857 -0.08738123 0.038330052 0.008984235
0.067762464 0.10562206 0.13490716 0.07762246 -0.013011764 -0.022342987 0.0068450533 -0.01867427
0.07916596 0.09220733 0.025055783 0.054987263 0.09337084 0.11287888 0.14300437 0.06944195
0.1288049 0.1594802 0.010018004 0.13809262 0.03678737 0.011302935 0.17638585 -0.10009431
-0.008960111 -0.045980223 -0.016421156 -0.026017053 -0.09821761 0.059811007 0.03084514 -0.07808131
-0.0022098161 0.087831415 0.06586004 -0.04944531 -0.09293579 -0.09187996 0.11495267 0.043461505
00000000: 0115 8f3d bcb8 ab3d 1ab5 803d 31ec 84bd
00000010: 0380 a23c 8a9c e23d 676c cdbd e610 b5bd
00000020: 0279 12be 07ac fa3d 87f7 31bc 9034 58bd
00000030: 9782 d93d 0b61 09bc 7882 0cbe a9b8 13be
00000040: ce00 bb3d 20c6 06be 5c93 bfbd 5cf4 18be
00000050: a82f cc3c 7b36 91bd 899f b33d 980f f63d
00000060: 9baa 2f3e 1082 56bc 6525 d43d 4c0f 6e3c
00000070: 7cdd abbd bd6d b0bc eb7a 053e afb1 09be
00000080: 42f6 e3bd c4d1 903c 2841 7d3b 5023 a43d
00000090: 5607 ba3a 55a0 53bd b6f9 f43d bd7d ef3d
000000a0: ea7d 913c cf1f b7bd 7c9c f5bd bab1 073e
000000b0: cf57 ce3d 75fa 293e 5c99 783d af6a 0bbe
000000c0: 19c7 e63c 53c6 033e 1b23 c93c e91f 0f3e
000000d0: cdd5 33bd 49fd 4bbd 59cc 7fbd b736 6dbd
000000e0: 9181 60bd d396 783d b56a c43d 74fd 7f3d
000000f0: 98a0 a53d 557f fc3c 94df c23d 743e 043e
00000100: ed42 cc3b 434e 63bc f385 a9bd 0366 423c
00000110: fb5d 863d a27b ecbd 71e6 fbbd 0b9c 943d
00000120: f358 403d 788a c93c ddcc c7bb 2ea6 843d
00000130: d1d3 4c3e 52cf 083e 8b47 ef3d fbe8 aa3c
00000140: b7af 0f3e f6ea 0f3e bb7e 0b3e c59a 2bbd
00000150: f8a3 67bd eef4 b2bd f9ff 1c3d 9d32 133c
00000160: 0cc7 8a3d 6150 d83d 1a25 0a3e 86f8 9e3d
00000170: 4b2f 55bc a408 b7bc 784c e03b c8fa 98bc
00000180: c321 a23d 32d7 bc3d c941 cd3c 533a 613d
00000190: 3639 bf3d 0b2d e73d bd6f 123e 9537 8e3d
000001a0: 6fe5 033e c74e 233e 8e22 243c 2768 0d3e
000001b0: 5aae 163d f22f 393c 7e9e 343e 3ffe ccbd
000001c0: 6ecd 12bc c255 3cbd a985 86bc b721 d5bc
000001d0: 5026 c9bd 63fc 743d f2ae fc3c 18e9 9fbd
000001e0: 90d2 10bb f5e0 b33d a1e1 863d 2a87 4abd
000001f0: 1f55 bebd 8f2b bcbd 4e6c eb3d b104 323d

classifier.2.weight f4 [64, 128]
-0.0011073616 0.05647086 0.069893375 0.042013843 0.016382232 0.053906687 0.029024856 0.122156925
0.06661183 -0.03385826 0.020100143 -0.087648086 0.11003474 -0.010892393 0.01770968 -0.052844167
0.017020084 -0.008421169 -0.017866915 0.013981409 0.0017679251 -0.019354444 -0.03589103 -0.03357542
-0.040478148 0.049868442 0.1388249 -0.088159636 0.039544076 -0.058534797 0.07948784 0.02436683
-0.04407319 0.16337417 -0.043313697 0.12284566 0.06171067 -0.07910633 0.05628167 0.051527172
0.060505215 0.043437827 -0.08514482 0.026700178 -0.01723598 -0.110691965 -0.059254877 -0.007285221
-0.027436433 0.03305641 0.07306541 -0.017283743 -0.02001834 -0.004355391 -0.036635064 -0.0046796645
-0.027510257 0.018359132 0.0019928736 0.08196989 0.038923964 0.037037022 -0.028101934 -0.05173554
0.04979191 -0.057105076 -0.0453291 0.050271016 -0.0004230307 0.0810657 -0.041845366 0.014843353
0.03786627 0.097390205 0.05461148 -0.030231142 -0.025229445 0.044685304 -0.01688979 -0.009673576
0.06594017 -0.0032704454 -0.08074952 0.05093586 0.00039214687 0.12027647 0.031727612 0.067695625
0.050800126 0.13144106 -0.019421374 0.108460136 0.080334924 0.02098771 0.067918144 0.0024922723
-0.07925319 -0.04217218 -0.010535343 0.013822064 0.07962323 0.11767327 0.05499652 0.017081227
-0.02537362 -0.03733568 0.046188015 0.025278987 -0.031854983 0.02495273 -0.0020058334 -0.026843816
0.12848352 -0.05373654 0.05738469 -0.07010149 -0.05611924 0.022911087 -0.047315773 -0.0101727825
-0.012301652 0.06075973 -0.042128652 0.10900041 0.08262568 0.112135075 -0.077968664 0.017650817
0.07625944 -0.0196756 -0.026620725 0.093316644 0.065103956 0.009950378 0.0418805 0.04569894
0.014466427 0.02042689 0.031312913 0.06592984 -0.0066210614 0.08590913 -0.0036782362 0.0226387
-0.07376751 -0.044665746 -0.0052295607 -0.052807074 -0.004947463 -0.07411846 -0.04471437 -0.043439683
0.05604568 -0.044686407 0.07367337 -0.07087459 0.043471873 -0.0017684733 0.08200899 0.019893844
-0.051627208 0.058106907 -0.077623345 -0.0063166125 0.06476319 -0.03409806 -3.9345778e-05 0.015472245
0.01891814 -0.02093045 0.020456135 0.0024860285 -0.078693345 0.051871058 0.061046198 -0.04165653
0.020137213 -0.030304622 0.0025428447 -0.016067041 -0.050148424 -0.07629362 0.065530285 0.036932338
-0.039330672 -0.005885156 -0.0035862294 -0.06849629 -0.025101293 -0.036172107 0.027517367 -0.034462284
0.08992646 -0.085304365 0.02567485 0.018236367 -0.06686763 -0.024921458 -0.06264861 0.020016037
0.014085205 -0.03424592 -0.07802278 -0.07756101 -0.009669202 0.08718615 0.01982008 -0.03668671
0.014360744 0.031785373 0.025789304 -0.017896513 -0.087787144 0.07349085 -0.062386308 0.049797285
-0.01790263 -0.03626313 -0.060631447 0.0024886876 0.08285877 -0.026181852 -0.04252551 0.04250403
-0.021640677 0.07688853 0.038264677 0.06820135 -0.078842506 -0.066351 -0.062202334 -0.06063732
0.035219125 0.058899853 -0.006324231 0.088525794 0.08566614 0.03220113 -0.002836288 0.079937965
-0.06182766 0.07714986 -0.0045320964 0.033524975 0.048763994 0.0037034515 0.046861526 -0.039290357
-0.045024123 0.003965278 -0.03115357 -0.030316014 0.00050739717 0.058688845 -0.0119314445 -0.006573024
00000000: e424 91ba fd4d 673d 4224 8f3d b516 2c3d
00000010: 0834 863c 42cd 5c3d 89c5 ed3c 692d fa3d
00000020: c86b 883d f5ae 0abd 0ea9 a43c d780 b3bd
00000030: e559 e13d 0276 32bc e413 913c 2073 58bd
00000040: b46d 8b3c f1f8 09bc a35d 92bc 4812 653c
00000050: b9b9 e73a 368d 9ebc 7902 13bd 6186 09bd
00000060: 6acc 25bd da42 4c3d 1d28 0e3e 0a8d b4bd
00000070: f8f8 213d 2fc2 6fbd 85ca a23d f29c c73c
00000080: 1786 34bd 8f4b 273e b469 31bd 8196 fb3d
00000090: 54c4 7c3d 8002 a2bd 9c87 663d 280e 533d
000000a0: 51d4 773d ddeb 313d 6860 aebd 55ba da3c
000000b0: 7832 8dbc 78b2 e2bd 3eb5 72bd ddb8 eebb
000000c0: 5fc2 e0bc 2866 073d 51a3 953d a396 8dbc
000000d0: 80fd a3bc abb7 8ebb a60e 16bd df57 99bb
000000e0: 315d e1bc e465 963c df9a 023b d4df a73d
000000f0: bc6e 1f3d 22b4 173d 0736 e6bc a5e8 53bd
00000100: 9af2 4b3d 03e7 69bd 02ab 39bd fbe8 4d3d
00000110: 38ca ddb9 c605 a63d 0c66 2bbd 8931 733c
00000120: a919 1b3d 8474 c73d 4ab0 5f3d 4da7 f7bc
00000130: fbad cebc f007 373d 755c 8abc eb7d 1ebc
00000140: a40b 873d f854 56bb 0160 a5bd 1fa2 503d
00000150: 1099 cd39 8353 f63d d0f4 013d 01a4 8a3d
00000160: cb13 503d 7c98 063e 9319 9fbc 5920 de3d
00000170: a386 a43d 6bee ab3c ab18 8b3d 6455 233b
00000180: 7f4f a2bd bcbc 2cbd 6e9c 2cbc f075 623c
00000190: 8111 a33d affe f03d 0844 613d eeed 8b3c
000001a0: 57dc cfbc 4ced 18bd a52f 3d3d e115 cf3c
000001b0: 5f7a 02bd ab69 cc3c 4d74 03bb 90e7 dbbc
000001c0: 2f91 033e d91a 5cbd 350c 6b3d 5f91 8fbd
000001d0: 4add 65bd 08b0 bb3c 2fce 41bd beab 26bc
000001e0: de8c 49bc 32df 783d 188f 2cbd 9b3b df3d
000001f0: a737 a93d 13a7 e53d 09ae 9fbd 7298 903c
00000200: e92d 9c3d b92e a1bc b513 dabc cc1c bf3d
00000210: 3955 853d e906 233c e38a 2b3d d02e 3b3d
00000220: 9804 6d3c 4b56 a73c f841 003d 3906 873d
00000230: 7df5 d8bb 20f1 af3d 900e 71bb cc74 b93c
00000240: 6c13 97bd 6ef3 36bd bc5c abbb 3b4c 58bd
00000250: 541e a2bb 6bcb 97bd 6a26 37bd cfed 31bd
00000260: 2890 653d 1809 37bd 10e2 963d b226 91bd
00000270: 900f 323d 1ecc e7ba 54f4 a73d 6af8 a23c
00000280: 0d77 53bd 8201 6e3d fdf8 9ebd 96fb cebb
00000290: 90a2 843d 68aa 0bbd 3507 25b8 4d7f 7d3c
000002a0: 37fa 9a3c 5676 abbc a093 a73c a3ec 223b
000002b0: fa29 a1bd bf76 543d 940b 7a3d 0aa0 2abd
000002c0: ccf6 a43c 6641 f8bc dba5 263b 079f 83bc
000002d0: 6f68 4dbd d43f 9cbd be34 863d 5d46 173d
000002e0: 3319 21bd 44d8 c0bb f206 6bbb c847 8cbd
000002f0: 3aa1 cdbc 3429 14bd 1a6c e13c 5328 0dbd
00000300: 5d2b b83d 0eb4 aebd 1054 d23c 6f64 953c
00000310: e5f1 88bd 1628 ccbc ea4d 80bd acf8 a33c
00000320: a2c5 663c 7345 0cbd 68ca 9fbd 4fd8 9ebd
00000330: 936b 1ebc a78e b23d b85d a23c ce44 16bd
00000340: 5349 6b3c 6131 023d 1744 d33c b59b 92bc
00000350: bfc9 b3bd 5f82 963d c988 7fbd 3df8 4b3d
00000360: 89a8 92bc a688 14bd ae58 78bd 4019 233b
00000370: dcb1 a93d 537b d6bc 3b2f 2ebd b518 2e3d
00000380: ca47 b1bc bc77 9d3d 6cbb 1c3d 26ad 8b3d
00000390: 2e78 a1bd 08e3 87bd e0c7 7ebd d75e 78bd
000003a0: ee41 103d f940 713d 7f3b cfbb 034d b53d
000003b0: bb71 af3d 55e5 033d 04e1 39bb 84b6 a33d
000003c0: 003f 7dbd bf00 9e3d fb81 94bb 7c51 093d
000003d0: c1bc 473d 9bb5 723b dff1 3f3d edee 20bd
000003e0: 376b 38bd 2aef 813b c635 ffbc 4a59 f8bc
000003f0: d902 053a b763 703d 1b7c 43bc 8662 d7bb

classifier.2.bias f4 [64]
0.05430267 0.012495908 0.09513016 -0.041331254 0.09900113 0.010203353 -0.0663816 -0.070058994
0.015114534 0.010156817 0.036363598 -0.081366636 0.11993524 0.0666466 0.028946158 0.098226205
0.064040765 -0.015669476 0.08488018 -0.042331085 -0.050624218 0.002546321 0.007696418 0.031906005
-0.009429096 0.012469094 -0.032743886 -0.057823062 -0.04373359 0.013307372 -0.0056860694 -0.04588265
0.05554457 -0.01615938 -0.03488763 -0.055960514 0.0566051 -0.029881833 0.04449332 -0.030046897
0.086596 0.018544095 -0.04220972 0.006195358 0.057062373 0.06975788 -0.039395142 0.13405122
-0.05544802 0.029459156 0.05143314 0.04518506 0.11982932 0.06530113 0.08595499 -0.082491696
0.013891003 -0.051565565 0.01602771 -0.038199253 0.13172184 0.02820195 0.0095410235 0.0051118066
00000000: 7a6c 5e3d a3bb 4c3c 9ad3 c23d f64a 29bd
00000010: 1bc1 ca3d f72b 273c 14f3 87bd 177b 8fbd
00000020: f3a2 773c c768 263c fff1 143d 8da3 a6bd
00000030: 9ba0 f53d 037e 883d 7e20 ed3c d22a c93d
00000040: ce27 833d 465d 80bc a9d5 ad3d 5c63 2dbd
00000050: 575b 4fbd 2de0 263b 3c32 fc3b dfaf 023d
00000060: 7f7c 1abc 2c4b 4c3c 741e 06bd e0d7 6cbd
00000070: fe21 33bd 2a07 5a3c 3552 babb 72ef 3bbd
00000080: b482 633d ad60 84bc 55e6 0ebd da36 65bd
00000090: c0da 673d bfca f4bc a13e 363d e924 f6bc
000000a0: 3e59 b13d c9e9 973c 19e4 2cbd 6e02 cb3b
000000b0: 3cba 693d 38dd 8e3d cd5c 21bd b944 093e
000000c0: 771d 63bd 5454 f13c 8eab 523d f813 393d
000000d0: 1369 f53d 99bc 853d 2b09 b03d 68f1 a8bd
000000e0: 1797 633c 6a36 53bd 8b4c 833c d276 1cbd
000000f0: 17e2 063e c707 e73c f451 1c3c f180 a73b

classifier.4.weight f4 [1, 64]
0.38294983 0.07692147 0.21706165 -0.019529577 -0.42956856 -0.106572144 0.08122754 0.1064099
-0.029912354 0.07022221 0.0737827 0.03909765 -0.19894478 0.052160844 0.3237082 -0.33192164
-0.42761636 -0.15092033 -0.045534525 0.15623134 0.10649193 0.078203246 -0.062462337 -0.08897997
0.04743774 -0.005383744 0.1507109 0.08070136 0.085795924 0.0750414 0.22869912 0.123326056
-0.40437448 0.0050005326 -0.14638855 0.10007719 -0.08746129 -0.08265953 0.41972274 -0.06635694
-0.08499055 -0.3591503 -0.16707796 0.0071506933 0.057335246 0.38077185 -0.07088493 -0.52723604
-9.679247e-05 0.0751908 0.3939479 0.12729663 -0.386993 0.14996025 0.37201983 0.07991928
0.15914607 0.07870779 -0.19219427 -0.16816993 0.32838064 -0.23864819 -0.13154718 0.28785405
00000000: 0012 c43e 0189 9d3d 6945 5e3e 7efc 9fbc
00000010: 69f0 dbbe 7f42 dabd a05a a63d 6fed d93d
00000020: c10a f5bc a9d0 8f3d 621b 973d dc24 203d
00000030: 2eb8 4bbe 9ca6 553d 15bd a53e a2f1 a9be
00000040: 88f0 dabe dc8a 1abe 6982 3abd 1cfb 1f3e
00000050: 7118 da3d 0629 a03d 82d8 7fbd 213b b6bd
00000060: 134e 423d 1e6a b0bb f553 1a3e c146 a53d
00000070: c6b5 af3d 4eaf 993d 1a30 6a3e 5f92 fc3d
00000080: 2c0a cfbe 82db a33b e1e6 15be 45f5 cc3d
00000090: e81e b3bd 6649 a9bd e6e5 d63e 26e6 87bd
000000a0: 870f aebd 8ce2 b7be 7c16 2bbe 5d50 ea3b
000000b0: 5dd8 6a3d 87f4 c23e 1e2c 91bd f1f8 06bf
000000c0: 10fd cab8 a2fd 993d 8ab3 c93e 0c5a 023e
000000d0: f223 c6be 2e8f 193e 6279 be3e b8ac a33d
000000e0: 30f7 223e 8d31 a13d 93ce 44be bd34 2cbe
000000f0: 8221 a83e 3160 74be 4eb4 06be 9b61 933e
