checkpoints/mlp_model/fold_1.pth (torch, 58878 bytes, 5 tensors)

classifier.0.weight f4 [128, 40]
-0.10488199 0.13889863 -0.09941738 0.14197955 -0.06798127 0.09692154 0.16926731 0.060655423
-0.058816377 -0.086602576 -0.1282423 0.06797244 0.05100245 -0.113265514 -0.0774463 -0.13247755
0.1397331 0.018676173 -0.037330035 0.043082837 -0.072376736 0.077309705 0.049350057 -0.18324469
-0.15303679 -0.14349426 -0.10539636 0.026668672 -0.05684918 -0.05840463 -0.060035005 -0.07638828
0.056555018 -0.021393703 -0.052722346 0.059173647 -0.15100366 -0.044452112 -0.1195698 -0.15545645
-0.10378139 0.018079588 0.14933261 0.031708572 -0.029560357 -0.10020673 -0.12852442 0.10066011
-0.077558465 0.15181592 -0.03187205 -0.08360526 -0.045528226 0.10894854 -0.015003393 -0.07450309
0.058631834 0.052091148 -0.05230903 0.15236568 0.025527552 -0.1211666 -0.14932972 -0.16412815
0.030618617 0.070586756 -0.13249782 0.09899137 -0.008738839 0.09974449 -0.016194267 0.089592576
-0.09375479 -0.15120064 -0.16486582 -0.06799413 0.10922494 -0.03375311 0.012086908 -0.058339585
-0.09790373 0.11780367 -0.033794392 0.09269009 0.09800433 -0.11656576 -0.07726977 0.06448516
0.085895576 0.15564483 -0.03861853 0.0131874755 0.14981905 0.026667934 -0.08638875 0.01542753
-0.078108266 0.11734238 -0.06676908 -0.085126266 0.15740173 0.15418294 0.04437837 0.059035525
0.1420747 0.08937398 -0.06985092 0.04035016 -0.018984865 0.028917648 0.09523438 0.053795364
-0.11217215 0.0015927451 0.033696264 0.027223157 -0.03424204 0.08373652 0.09940071 0.09169202
-0.06181166 -0.13278851 -0.06467938 0.12100026 -0.008332824 0.053805545 -0.07296804 0.043822918
0.109364405 -0.007539318 0.10453004 0.040915534 0.07873653 0.05977236 -0.15090692 0.095056415
0.00019351939 -0.036548607 0.10577758 0.056477994 -0.02080293 0.1401618 -0.11927557 0.12933359
-0.1195175 -0.06516321 0.05133505 -0.088897824 -0.13450734 0.013482255 0.0285241 -0.08581085
0.042646877 0.0008271214 0.033784665 -0.09598021 0.03397817 -0.050061308 -0.1211854 0.047840092
0.041856155 -0.038708426 0.1356159 0.021318136 0.11151991 -0.10408192 -0.00021751312 -0.11545156
-0.049735762 0.08329072 -0.106748946 -0.12846504 -0.08779391 0.03601933 -0.15363897 0.12858295
0.07247853 -0.10416182 -0.11158467 0.14725812 -0.06675608 0.04508907 -0.122046694 -0.12881242
0.11031972 0.062238377 -0.15190549 0.106680155 -0.111413255 -0.14888836 -0.09743524 -0.06256945
0.096047044 -0.020098992 -0.035727274 0.088459246 -0.05687167 -0.0046302425 0.029725565 0.079127155
0.054748643 0.13752003 0.0007562511 -0.013331543 0.10261587 -0.090250544 -0.027918423 0.019091148
-0.12961663 -0.016278842 -0.14149292 0.031781927 -0.16131563 -0.032232385 0.0954025 0.07428693
-0.0028608972 0.09300976 0.009178601 -0.12874104 -0.07103778 0.11674871 0.011636457 -0.111467116
-0.13375577 -0.12038684 0.036522884 -0.1018767 -0.0005967577 -0.009538971 -0.045025196 0.13313851
-0.10140617 -0.1767203 0.12494409 -0.14705907 -0.09001772 -0.076981574 -0.14100942 -0.13319343
-0.119170666 0.022504948 -0.041061297 0.089329265 0.15156583 -0.045405503 -0.00955897 0.08429077
0.12378426 0.04307328 0.1489241 0.07343287 -0.12172197 -0.116017 0.094143495 -0.1274242
00000000: 5ecc d6bd 713b 0e3e 579b cbbd 1663 113e
00000010: c439 8bbd cd7e c63d 6954 2d3e d271 783d
00000020: 71e9 70bd b15c b1bd f351 03be 2235 8b3d
00000030: f2e7 503d c0f7 e7bd 2a9c 9ebd 32a8 07be
00000040: 3216 0f3e c6fe 983c 61e7 18bd a177 303d
00000050: 413a 94bd 8d54 9e3d 4923 4a3d 7fa4 3bbe
00000060: adb5 1cbe 29f0 12be 0cda d7bd 4278 da3c
00000070: b0da 68bd b139 6fbd 44e7 75bd 7571 9cbd
00000080: 3ca6 673d d941 afbc 63f3 57bd 1160 723d
00000090: b4a0 1abe 6b13 36bd 03e1 f4bd fa2f 1fbe
000000a0: 568b d4bd a51b 943c a6ea 183e d9e0 013d
000000b0: 9028 f2bc 3039 cdbd e89b 03be e326 ce3d
000000c0: f9d6 9ebd a275 1b3e 448c 02bd 3c39 abbd
000000d0: ce7b 3abd 6a20 df3d cbd0 75bc 1395 98bd
000000e0: ef27 703d 875d 553d fe41 56bd c005 1c3e
000000f0: 281f d13c 3226 f8bd e4e9 18be 3611 28be
00000100: e5d3 fa3c ca8f 903d 82ad 07be fdbb ca3d
00000110: 592d 0fbc d746 cc3d d7a9 84bc 507c b73d
00000120: 8302 c0bd 57d4 1abe 96d2 28be 8240 8bbd
00000130: 53b1 df3d b340 0abd 2b08 463c 7df5 6ebd
00000140: c081 c8bd 0d43 f13d fd6b 0abd 4dd4 bd3d
00000150: 7fb6 c83d 07ba eebd 9d3f 9ebd cc10 843d
00000160: 05ea af3d 5c61 1f3e 772e 1ebd 4810 583c
00000170: 2a6a 193e b676 da3c 96ec b0bd c0c3 7c3c
00000180: 3af7 9fbd 3451 f03d 3abe 88bd ae56 aebd
00000190: eb2d 213e 22e2 1d3e 18c6 353d 3ccf 713d
000001a0: 087c 113e b509 b73d 000e 8fbd 3646 253d
000001b0: 2686 9bbc b4e4 ec3c 3e0a c33d 8758 5c3d
000001c0: 83ba e5bd a8c3 d03a 1805 0a3d 1903 df3c
000001d0: 6241 0cbd 0d7e ab3d 9992 cb3d 07c9 bb3d
000001e0: 392e 7dbd b6f9 07be 9f76 84bd fcce f73d
000001f0: 6686 08bc 3463 5c3d 4570 95bd a97f 333d
00000200: 72fa df3d 620c f7bb d813 d63d 0c97 273d
00000210: 9e40 a13d ddd3 743d 5887 1abe f0ac c23d
00000220: 77eb 4a39 feb3 15bd eaa1 d83d 7855 673d
00000230: e86a aabc 9386 0f3e c046 f4bd 0670 043e
00000240: 97c5 f4bd 4a74 85bd b444 523d 1010 b6bd
00000250: 4bbc 09be ade4 5c3c 60ab e93c 99bd afbd
00000260: 7eae 2e3d 2dd3 583a ca61 0a3d 4691 c4bd
00000270: b22c 0b3d 160d 4dbd 0d30 f8bd f9f3 433d
00000280: 5c71 2b3d ba8c 1ebd e5de 0a3e 5fa3 ae3c
00000290: 8d64 e43d e728 d5bd 3c14 64b9 de71 ecbd
000002a0: bab7 4bbd 5394 aa3d 319f dabd 578c 03be
000002b0: 4bcd b3bd 0189 133d 8953 1dbe 40ab 033e
000002c0: a06f 943d cb52 d5bd 8186 e4bd d5ca 163e
000002d0: 69b7 88bd 51af 383d 9ef3 f9bd 67e7 03be
000002e0: 4eef e13d abed 7e3d 1d8d 1bbe 207b da3d
000002f0: a22c e4bd 3176 18be 218c c7bd 6924 80bd
00000300: 50b4 c43d a4a6 a4bc c356 12bd 1f2a b53d
00000310: 45f2 68bd 4ab9 97bb 0783 f33c 6b0d a23d
00000320: 1d40 603d 0dd2 0c3e 273f 463a 8b6c 5abc
00000330: 4528 d23d 47d5 b8bd 2db5 e4bc 0a65 9c3c
00000340: 39ba 04be 355b 85bc 85e3 10be c42d 023d
00000350: ed2f 25be 1b06 04bd 6362 c33d bf23 983d
00000360: e47d 3bbb e77b be3d d861 163c b1d4 03be
00000370: 417c 91bd f319 ef3d d7a6 3e3c df48 e4bd
00000380: 46f7 08be 608d f6bd 0599 153d bba4 d0bd
00000390: bb6f 1cba 5849 1cbc 576c 38bd 7655 083e
000003a0: 0aae cfbd 2bf6 34be b0e2 ff3d a796 16be
000003b0: 365b b8bd 84a8 9dbd c664 10be dc63 08be
000003c0: c00f f4bd 4c5c b83c e42f 28bd 43f2 b63d
000003d0: 1334 1b3e 1ffb 39bd 3a9d 1cbc a4a0 ac3d
000003e0: 9a82 fd3d 9c6d 303d 8f7f 183e f963 963d
000003f0: 5e49 f9bd 529a edbd 4ece c03d 7d7b 02be

classifier.0.bias f4 [128]
-0.11506775 -0.10550232 0.12079829 -0.04361098 -0.097370796 -0.10295548 -0.06241897 0.12126761
0.040776424 0.11000501 -0.07836591 0.1306631 0.005289701 -0.13773017 -0.068059005 -0.06322493
0.16350266 -0.050301846 0.16634901 0.106322296 -0.11048566 0.054167315 -0.15693279 -0.026813662
0.0072004776 -0.12669419 -0.0556962 -0.14472081 0.11774517 0.09857172 0.1500647 -0.031447966
-0.13187386 0.15676747 0.0223097 -0.063714646 -0.06627412 -0.041402888 0.09037097 -0.039682683
-0.10791734 -0.11092255 0.16802682 -0.04281794 -0.096499056 0.061371703 -0.09466493 -0.025872849
-0.09417935 0.0769129 0.0400977 0.11004513 0.2048368 0.034832224 0.17402714 0.12176847
-0.12773234 0.09734985 0.17885694 -0.1308579 0.08216723 -0.0702254 -0.14398655 0.10949331
0.0948221 0.11922915 0.017670898 0.012911899 0.11268338 0.12987602 0.0175531 -0.12657915
0.010725447 0.17032804 0.10252224 0.021154938 0.07011494 -0.031930383 0.101625025 -0.14281978
-0.05289456 -0.0068827174 -0.14395761 -0.11427006 0.1455622 -0.10937595 0.14556304 -0.061721176
-0.06616835 -0.13541041 0.021356346 0.08422705 -0.0979381 -0.14632078 -0.03998045 -0.0705996
0.001905411 -0.016833033 -0.030276056 -0.09042334 -0.07278344 0.15512742 -0.047579914 0.09123026
0.12140854 0.14722854 0.04465933 0.035579965 0.014746768 0.16086155 0.060183536 0.0007327806
0.061424203 -0.078787155 -0.13143267 -0.15614049 -0.0757749 0.08699801 0.14071867 0.0446701
0.1259799 0.08481151 -0.08723274 0.0049536093 0.096331775 0.104587644 0.053829703 0.17920524
00000000: a4a8 ebbd 9a11 d8bd 1865 f73d 6da1 32bd
00000010: 576a c7bd 53da d2bd 09ab 7fbd 275b f83d
00000020: 2e05 273d 4f4a e13d 4e7e a0bd 8ccc 053e
00000030: 3a55 ad3b 2309 0dbe 8562 8bbd 127c 81bd
00000040: 3e6d 273e 4f09 4ebd 6557 2a3e 81bf d93d
00000050: 4e46 e2bd 8cde 5d3d fdb2 20be 53a8 dbbc
00000060: fcf1 eb3b 1fbc 01be b321 64bd b131 14be
00000070: 6124 f13d f8df c93d 90aa 193e 95cf 00bd
00000080: f109 07be a787 203e d5c2 b63c d37c 82bd
00000090: baba 87bd 1396 29bd 6a14 b93d 4f8a 22bd
000000a0: c403 ddbd 5d2b e3bd 390f 2c3e dd61 2fbd
000000b0: 4ca1 c5bd e560 7b3d b0df c1bd 4cf3 d3bc
000000c0: 1ae1 c0bd 8384 9d3d 7c3d 243d 575f e13d
000000d0: bdc0 513e 3cac 0e3d 2c34 323e bf61 f93d
000000e0: 44cc 02be 5c5f c73d 4626 373e 9dff 05be
000000f0: 4b47 a83d 56d2 8fbd 3671 13be 073e e03d
00000100: 1732 c23d 6a2e f43d 8fc2 903c 6e8c 533c
00000110: 8bc6 e63d 38fe 043e 85cb 8f3c f79d 01be
00000120: c9b9 2f3c 796a 2e3e 2ef7 d13d 1f4d ad3c
00000130: 6c98 8f3d 6fc9 02bd c820 d03d 593f 12be
00000140: f7a7 58bd 6b88 e1bb a069 13be 6c06 eabd
00000150: 420e 153e 8000 e0bd 7a0e 153e 58cf 7cbd
00000160: 4683 87bd 07a9 0abe 81f3 ae3c 3b7f ac3d
00000170: c593 c8bd 1dd5 15be 8ac2 23bd 8696 90bd
00000180: fcbe f93a 6ee5 89bc 7e05 f8bc df2f b9bd
00000190: 7c0f 95bd b9d9 1e3e 28e3 42bd eed6 ba3d
000001a0: 0aa5 f83d 14c3 163e b4ec 363d 4cbc 113d
000001b0: 6e9c 713c e4b8 243e 0383 763d 1318 403a
000001c0: f297 7b3d 295b a1bd 4996 06be 4be3 1fbe
000001d0: df2f 9bbd 032c b23d 8e18 103e fff7 363d
000001e0: e000 013e a8b1 ad3d 14a7 b2bd e351 a23b
000001f0: 9849 c53d 0c32 d63d 897c 5c3d 9481 373e

classifier.2.weight f4 [64, 128]
-0.060483035 -0.082921825 0.09578709 -0.03781907 0.030210078 0.07047035 0.07296648 -0.04258854
-0.025354002 0.055493772 -0.07097454 0.09184859 0.027460849 -0.06801116 -0.057947155 0.09167997
0.01574846 -0.053740285 -0.058229562 0.052044563 0.066817075 -0.062583886 0.02172204 0.030552112
0.048122887 0.06598465 0.03585433 0.055793177 0.04366203 0.10999615 0.030392077 0.059680328
-0.05119609 -0.06250728 -0.05919887 -0.01618781 0.09898683 -0.0024008115 -0.017001256 0.021877784
-0.0471281 0.056022204 -0.015660688 0.08136351 0.028493067 0.07440169 -0.0056625423 0.013769512
0.06000353 -0.056171197 0.07928305 -0.049814 -0.01615877 0.09053667 -0.016815782 -0.0068954234
-0.02349832 -0.04190888 -0.090144865 0.05584028 -0.041947376 -0.046849 -0.008429665 0.02341356
0.00027094915 0.05216662 0.035720285 -0.04634889 0.09674503 0.099185266 -0.00017616052 -0.06519443
0.016491089 0.05166729 -0.067728795 0.03198841 0.06786754 -0.059850674 -0.034553137 0.05939014
-0.007150132 -0.01953361 -0.045849234 -0.019234722 0.07072247 -0.035839565 0.09738557 -0.0212949
0.042106908 -0.042467155 -0.04289618 0.016157102 0.04197984 -0.077971205 -0.01851837 -0.011273201
0.06454416 0.01437089 0.017034382 -0.05688499 -0.011495803 -0.028287042 0.049759787 0.05011311
0.062117357 0.017023155 -0.028312908 -0.08456644 -0.032538712 0.03880559 -0.06870805 -0.0033990715
0.004320952 -0.06897146 -0.031215569 -0.050593775 0.005685693 0.06617186 0.062893316 0.095322244
0.0069388356 0.073194146 0.036677357 -0.016773958 0.06017332 -0.04574014 0.031612027 -0.06628736
0.021021087 0.05625824 0.020367054 0.022091351 0.07410846 0.027923197 -0.08197159 -0.07757998
0.022361293 0.03859215 -0.05803296 0.00020002482 -0.06280407 0.07966895 -0.047524847 -0.020314323
-0.08325898 0.039532658 0.06038218 0.009462414 0.02210558 -0.08292051 -0.02060115 -0.024373014
-0.042921375 0.027051106 -0.056525867 0.06604771 0.02505636 -0.011065053 -0.02814187 -0.034658633
0.084818974 0.077830546 -0.035744295 0.07637545 -0.082147524 -0.0019528051 0.015740855 0.051869933
-0.004300473 0.081982255 0.00760748 0.07195667 -0.07653608 0.06711623 -0.022895347 -0.024296986
-0.0869853 0.051829856 -0.07977477 -0.02383574 -0.082594156 0.022346634 -0.011623033 -0.010959309
0.017707083 0.038611542 0.03928497 0.049059562 -0.05301358 -0.036169816 0.07712883 -0.075068206
-0.075077794 -0.055677414 0.042353757 -0.07068878 0.032243133 0.08109762 -0.07215432 0.063285716
-0.08600247 -0.07172143 0.07204971 -0.058298565 0.010210049 -0.018754262 -0.056953393 -0.066541664
-0.04481724 0.073803544 -0.035328306 0.059472468 -0.011201724 -0.00855689 -0.080433294 -0.029487018
0.0550471 0.0032850178 0.07239111 -0.049145646 0.06590854 -0.06415649 0.029924182 -0.05739297
-0.03653527 -0.07296363 -0.06974998 0.07880853 0.06528007 -0.020676183 -0.025809206 0.041826665
0.047347333 0.07320823 0.038942024 -0.05218492 -0.009328674 -0.082100086 0.07098405 0.07140397
0.049082182 0.029948132 -0.026102563 -0.0004903569 -0.038228303 -0.06483328 0.024376504 0.042023256
-0.025439918 -0.0066094976 -0.020773174 -0.04649086 -0.045041144 0.0003034951 -0.044873387 -0.018895302
00000000: 0fbd 77bd ebd2 a9bd 062c c43d 2be8 1abd
00000010: 207b f73c c252 903d 736f 953d 5271 2ebd
00000020: 32b3 cfbc 704d 633d 1a5b 91bd 1d1b bc3d
00000030: 93f5 e03c 6f49 8bbd ff59 6dbd b5c2 bb3d
00000040: ea02 813c c61e 5cbd 1f82 6ebd ae2c 553d
00000050: 64d7 883d fb2b 80bd 6bf2 b13c 6c48 fa3c
00000060: 811c 453d f622 873d fddb 123d 6387 643d
00000070: f5d6 323d a945 e13d cef8 f83c 5c73 743d
00000080: feb2 51bd d103 80bd 847a 72bd 4c9c 84bc
00000090: 9bb9 ca3d ef56 1dbb 3846 8bbc 0a39 b33c
000000a0: 6509 41bd 8a77 653d d84a 80bc e9a1 a63d
000000b0: 4b6a e93c ea5f 983d d98c b9bb 8599 613c
000000c0: 43c6 753d c513 66bd 275f a23d c409 4cbd
000000d0: 665f 84bc 4a6b b93d 40c1 89bc 01f3 e1bb
000000e0: 8c7f c0bc a5a8 2bbd df9d b8bd c7b8 643d
000000f0: 03d1 2bbd bde4 3fbd 941c 0abc cbcd bf3c
00000100: 2e0e 8e39 aaac 553d 6f4f 123d 55d8 3dbd
00000110: 4222 c63d a521 cb3d bbb7 38b9 a884 85bd
00000120: 5218 873c 15a1 533d 65b5 8abd 4706 033d
00000130: 23fe 8a3d fb25 75bd 9787 0dbd 1343 733d
00000140: a84b eabb f304 a0bc 68cc 3bbd 2392 9dbc
00000150: f1d6 903d 82cc 12bd 1672 c73d a472 aebc
00000160: 4b78 2c3d 0af2 2dbd e8b3 2fbd e65b 843c
00000170: 0df3 2b3d 5eaf 9fbd d6b3 97bc 3bb3 38bc
00000180: bb2f 843d e273 6b3c b08b 8b3c 3c00 69bd
00000190: e458 3cbc 3aba e7bc ebd0 4b3d 6843 4d3d
000001a0: c56e 7e3d 2574 8b3c 79f0 e7bc 2b31 adbd
000001b0: 5047 05bd 9cf2 1e3d ceb6 8cbd f5c2 5ebb
000001c0: c696 8d3b e940 8dbd cbb7 ffbc 6b3b 4fbd
000001d0: 0d4f ba3b 1d85 873d 36ce 803d 4f38 c33d
000001e0: 2c5f e33b d0e6 953d ff3a 163d 8a69 89bc
000001f0: 4d78 763d 035a 3bbd 9d7b 013d abc1 87bd
00000200: 6a34 ac3c 0a6f 663d cfd8 a63c ecf8 b43c
00000210: 2dc6 973d 30bf e43c b9e0 a7bd 41e2 9ebd
00000220: 082f b73c cd12 1e3d f8b3 6dbd c1bd 5139
00000230: 6c9f 80bd 7929 a33d 6aa9 42bd 396a a6bc
00000240: af83 aabd ffec 213d 4e53 773d 3e08 1b3c
00000250: c316 b53c 3ad2 a9bd bec3 a8bc eaa9 c7bc
00000260: 53ce 2fbd 489a dd3c ab87 67bd 0644 873d
00000270: ff42 cd3c 324a 35bc c789 e6bc 36f6 0dbd
00000280: 92b5 ad3d 9f65 9f3d 9c68 12bd bb6a 9c3d
00000290: f63c a8bd 44f5 ffba f7f2 803c 9175 543d
000002a0: fbea 8cbb 50e6 a73d 2b48 f93b 055e 933d
000002b0: f3be 9cbd 3c74 893d 068f bbbc 790a c7bc
000002c0: 5925 b2bd 8b4b 543d f460 a3bd 2b43 c3bc
000002d0: 2027 a9bd 4a10 b73c 896e 3ebc ac8e 33bc
000002e0: 720e 913c 2327 1e3d 47e9 203d aef2 483d
000002f0: c524 59bd cd26 14bd b8f5 9d3d 5cbd 99bd
00000300: 63c2 99bd 000e 64bd 227b 2d3d 47c5 90bd
00000310: 6011 043d 8216 a63d a5c5 93bd f19b 813d
00000320: 1022 b0bd afe2 92bd cc8e 933d 7aca 6ebd
00000330: 0d48 273c 8aa2 99bc f647 69bd ff46 88bd
00000340: 4892 37bd 5026 973d 6ab4 10bd 6799 733d
00000350: 7087 37bc 3332 0cbc 36ba a4bd c28e f1bc
00000360: 1179 613d 7449 573b ca41 943d f24c 49bd
00000370: 0efb 863d 7a64 83bd 8f23 f53c e414 6bbd
00000380: 02a6 15bd f56d 95bd 14d9 8ebd 5e66 a13d
00000390: 8fb1 853d 1961 a9bc d46d d3bc 7052 2b3d
000003a0: 47ef 413d 32ee 953d ac81 1f3d dbbf 55bd
000003b0: 4bd7 18bc 1724 a8bd 1660 913d 3f3c 923d
000003c0: 660a 493d c955 f53c 0bd5 d5bc 4b8b 00ba
000003d0: 4895 1cbd 50c7 84bd 3cb1 c73c 9420 2c3d
000003e0: 6067 d0bc 7c94 d8bb 812c aabc 336d 3ebd
000003f0: 107d 38bd 6c1e 9f39 28cd 37bd 52ca 9abc

classifier.2.bias f4 [64]
0.0008036693 -0.034673374 -0.004032315 -0.027504688 0.100286074 0.039811954 0.031501416 0.069528535
0.062389422 0.08850501 0.0017987755 -0.007739131 0.07509817 0.036792327 0.079957664 0.073614165
-0.073864765 0.07682911 0.003796727 -0.045049295 0.10531281 0.03547651 -0.05872512 0.040128168
0.044984702 0.06682807 -0.058337733 0.033923026 -0.00010245319 -0.029280558 -0.019692296 -0.044817626
0.106788434 0.103514485 0.028929224 0.012370287 -0.02751695 -0.04696477 0.04878965 -0.03931553
0.07394489 0.05441255 0.07101365 -0.03488259 0.09243636 -0.039514624 0.07501327 0.069775045
0.010013552 0.075140305 0.03509345 0.049438 0.04802934 0.09271064 0.06275045 0.0024651093
0.110622756 0.050254304 -0.037830595 -0.06409132 -0.011687255 -0.07939962 -0.06715065 0.062361624
00000000: 55ad 523a ab05 0ebd 8321 84bb 8351 e1bc
00000010: c962 cd3d dc11 233d a107 013d fa64 8e3d
00000020: 0d8c 7f3d 1d42 b53d e4c4 eb3a 8998 fdbb
00000030: 12cd 993d 8db3 163d d8c0 a33d 06c3 963d
00000040: 6946 97bd 9558 9d3d 82d2 783b 9c85 38bd
00000050: 3eae d73d d14f 113d c089 70bd 6f5d 243d
00000060: e141 383d 28dd 883d 8cf3 6ebd dff2 0a3d
00000070: 23dc d6b8 c8dd efbc bd51 a1bc b092 37bd
00000080: e5b3 da3d 67ff d33d fbfc ec3c bfac 4a3c
00000090: 3a6b e1bc 215e 40bd a8d7 473d 5209 21bd
000000a0: 6b70 973d b2df 5e3d 9b6f 913d 0ce1 0ebd
000000b0: 464f bd3d 16da 21bd 8fa0 993d 38e6 8e3d
000000c0: e20f 243c 29e3 993d 26be 0f3d 807f 4a3d
000000d0: 6aba 443d 13df bd3d 4f83 803d ac8d 213b
000000e0: 2f8e e23d 75d7 4d3d 41f4 1abd 4f42 83bd
000000f0: e77b 3fbc 459c a2bd 4886 89bd e76e 7f3d

classifier.4.weight f4 [1, 64]
0.2426505 0.012427696 -0.052886628 0.016366607 -0.29057956 0.13503148 -0.09878663 -0.11818372
0.023768503 -0.077246256 0.0017458239 -0.1306332 -0.06142194 0.30011573 -0.16224717 -0.33198866
0.063227065 -0.031409916 0.31162363 0.13602296 -0.09692729 0.20614849 0.12050145 0.05560481
0.03539042 -0.38257873 0.22325233 -0.04757864 0.039373692 0.15308617 0.19142188 -0.17411089
-0.24818283 -0.17813188 0.2139264 0.25876388 0.12420835 0.089645356 0.03875753 -0.117562465
0.20503923 -0.25877282 0.18557718 -0.0006410653 0.43042874 0.11351181 0.056817688 -0.30893907
0.00027499726 -0.09547182 -0.3717296 -0.17661326 -0.504092 -0.24829789 0.4657257 -0.42663214
0.5193795 0.24500257 -0.030394332 0.18260409 0.094595626 0.1118384 0.030539267 0.3050195
00000000: 5f79 783e 899d 4b3c a69f 58bd 4313 863c
00000010: d8c6 94be b145 0a3e a550 cabd 4e0a f2bd
00000020: 2ab6 c23c 4933 9ebd 21d4 e43a b6c4 05be
00000030: 9295 7bbd c5a8 993e 1f24 26be 6bfa a9be
00000040: 317d 813d afa7 00bd 228d 9f3e 9a49 0b3e
00000050: d181 c6bd 9718 533e 77c9 f63d dfc1 633d
00000060: 8cf5 103d 5ce1 c3be 429c 643e d2e1 42bd
00000070: 4f46 213d 9fc2 1c3e 1904 443e 204a 32be
00000080: a423 7ebe 3468 36be 860f 5b3e b37c 843e
00000090: f360 fe3d fc97 b73d 37c0 1e3d 97c4 f0bd
000000a0: cef5 513e df7d 84be f207 3e3e 2a0d 28ba
000000b0: 2861 dc3e e178 e83d aab9 683d 432d 9ebe
000000c0: 822d 9039 bb86 c3bd 5853 bebe 1bda 34be
000000d0: 2c0c 01bf cd41 7ebe 9973 ee3e 876f dabe
000000e0: 0ef6 043f f4e1 7a3e 89fd f8bc 91fc 3a3e
000000f0: 5abb c13d 880b e53d 7c2d fa3c 842b 9c3e
