checkpoints/mlp_model/fold_0.pth (torch, 58878 bytes, 5 tensors)

classifier.0.weight f4 [128, 40]
0.06909669 0.12479706 -0.021682657 0.02970524 -0.12903352 0.080828406 -0.08928197 -0.07747521
0.07133345 -0.044946652 0.022563446 -0.0048744427 -0.14014338 0.1358376 -0.072336115 0.1289118
-0.0074163754 -0.032642 0.089465685 0.041798495 0.026867975 -0.07235057 0.068326354 0.13909554
0.02965393 -0.13623172 -0.10655555 -0.028118428 0.09094169 -0.14286816 0.024547877 0.10965263
0.07458067 0.13699248 0.07259957 -0.110570036 -0.045186047 -0.1149836 0.06389272 0.05764242
-0.010923362 0.048425864 0.035077523 0.12152978 0.07683289 -0.08366617 0.13280688 -0.12431893
0.009459583 -0.16025217 -0.06946362 0.09193151 0.122394055 0.09162379 -0.03763064 -0.06653111
0.16443066 0.14903726 -0.07374334 0.096400835 0.106630296 0.0010296355 -0.08188177 -0.16274859
0.013536529 0.07333469 -0.052274294 0.086242534 0.10360474 -0.050632067 -0.14073342 -0.16224188
-0.16330966 -0.02327661 -0.07040621 -0.08184739 -0.07796453 0.050842207 -0.02259939 0.1235848
0.045941163 -0.08690832 0.050658077 -0.051274188 0.12078406 -0.10843632 0.08027181 0.026303617
0.06556048 -0.12609081 0.107917935 -0.036279917 -0.030731265 -0.0873095 0.004148284 -0.058797814
0.13150947 -0.0605681 0.15360591 0.1291358 0.0143034365 -0.004543801 0.11338995 0.022951704
-0.10293798 -0.035213787 0.13239625 -0.07730984 -0.034247812 -0.11033783 -0.011729774 0.015960073
-0.05828299 0.05516161 0.023072429 0.07921214 0.099973336 -0.132063 0.010943845 -0.115212
0.14302658 -0.13746579 -0.05709434 0.08384489 -0.110952295 0.10180984 0.07802032 -0.031671003
0.087919295 -0.118394956 -0.020649685 0.10110557 0.11230359 0.1443582 -0.13513006 -0.039111864
0.052152537 0.089111894 0.10459653 -0.14795491 0.004884911 0.074057505 -0.15297624 -0.07259397
0.13404943 -0.082626045 -0.043073304 -0.05244282 -0.10806567 0.13273166 -0.06686194 -0.15126361
0.07463765 -0.12674473 -0.02039732 0.07087476 0.049341343 -0.1280864 -0.043603055 0.045342226
0.03907111 0.030933982 0.14075805 0.051708918 0.122962624 -0.11486296 0.060680855 -0.13103627
-0.05503569 -0.11759069 0.0024226757 -0.14228272 -0.119778454 0.07487828 -0.0061871773 -0.012685783
0.14707002 -0.054012246 -0.020625 0.13930689 -0.14372073 0.12606691 0.12379324 -0.060910337
-0.14666706 0.04696482 -0.08861032 -0.12668163 -0.08432445 0.09304632 0.09653291 -0.08795992
0.03758702 0.048682656 -0.095645234 0.036650926 -0.05556642 0.058176123 0.11143053 0.085774295
-0.11646867 0.11748601 0.059422206 -0.052378524 0.052479614 -0.033957556 0.097313955 0.06739792
0.033780094 -0.10297945 0.02709406 -0.13090459 0.03412513 0.023861155 -0.09536973 0.08959032
0.047254786 -0.15920286 -0.0934638 -0.008306116 0.05511603 -0.054762147 -0.030084534 0.09828869
0.100699164 0.1488948 -0.080318004 0.099738136 -0.042638075 -0.014469468 0.11581747 0.042287387
0.049801644 0.10917307 -0.114277996 0.13508594 -0.13451579 -0.014767506 0.10515181 -0.007885926
0.019360334 0.06739176 0.101444654 0.11167498 -0.0014081788 -0.116310224 -0.1451494 -0.06037062
-0.09486057 0.06469892 0.008540045 0.11688095 -0.076139174 -0.12633671 -0.13106743 -0.06668601
00000000: 9182 8d3d 9a95 ff3d d49f b1bc 6758 f33c
00000010: 5d21 04be 5d89 a53d 77d9 b6bd 53ab 9ebd
00000020: 4617 923d fb19 38bd fad6 b83c cab9 9fbb
00000030: bf81 0fbe 0319 0b3e f524 94bd 7401 043e
00000040: 1105 f3bb 9eb3 05bd c939 b73d e634 2b3d
00000050: 3a1a dc3c 892c 94bd b0ee 8b3d 106f 0e3e
00000060: ccec f23c 5480 0bbe cc39 dabd 9e58 e6bc
00000070: a33f ba3d 084c 12be a118 c93c 8f91 e03d
00000080: c0bd 983d c247 0c3e 15af 943d 8b72 e2bd
00000090: 0115 39bd 867c ebbd 30da 823d 751a 6c3d
000000a0: e7f7 32bc 335a 463d 73ad 0f3d 9be4 f83d
000000b0: 905a 9d3d 2b59 abbd 87fe 073e ec9a febd
000000c0: 5efc 1a3c 2519 24be f142 8ebd 9646 bc3d
000000d0: bca9 fa3d 41a5 bb3d 9622 1abd 7641 88bd
000000e0: 8360 283e 399d 183e c006 97bd cd6d c53d
000000f0: fc60 da3d d6f4 863a a1b1 a7bd 91a7 26be
00000100: 51c8 5d3c 7f30 963d 921d 56bd ed9f b03d
00000110: b92e d43d 9263 4fbd 6c1c 10be bc22 26be
00000120: a63a 27be 97ae bebc 2231 90bd 9b9f a7bd
00000130: deab 9fbd eb3f 503d 5b22 b9bc 071a fd3d
00000140: cd2c 3c3d fdfc b1bd d87e 4f3d e204 52bd
00000150: a25d f73d dd13 debd 8c65 a43d af7a d73c
00000160: 9344 863d f31d 01be 1404 dd3d 409a 14bd
00000170: 22c0 fbbc 53cf b2bd 54ee 873b fad5 70bd
00000180: 6baa 063e 4216 78bd de4a 1d3e 2d3c 043e
00000190: f658 6a3c 2ae4 94bb fd38 e83d 3605 bc3c
000001a0: 26d1 d2bd 553c 10bd e292 073e 9f54 9ebd
000001b0: 6f47 0cbd cdf8 e1bd 3d2e 40bc b3be 823c
000001c0: 25ba 6ebd 24f1 613d 6402 bd3c f939 a23d
000001d0: d2be cc3d 863b 07be d04d 333c 45f4 ebbd
000001e0: 8f75 123e d5c3 0cbe c1db 69bd dfb6 ab3d
000001f0: f53a e3bd ad81 d03d 1ec9 9f3d 74b9 01bd
00000200: 080f b43d 0e79 f2bd 8729 a9bc 7010 cf3d
00000210: 6dff e53d a3d2 133e 895f 0abe c333 20bd
00000220: e69d 553d 4c80 b63d b536 d63d 7e81 17be
00000230: 9a11 a03b 76ab 973d cea5 1cbe 26ac 94bd
00000240: 4144 093e d837 a9bd a26d 30bd 48ce 56bd
00000250: 8951 ddbd cfea 073e eaee 88bd d9e4 1abe
00000260: a0db 983d 5fc9 01be 4818 a7bc c926 913d
00000270: 261a 4a3d 1529 03be 1e99 32bd c5b8 393d
00000280: 0709 203d 4369 fd3c e122 103e bbcc 533d
00000290: d4d3 fb3d 463d ebbd 7d8c 783d 5f2e 06be
000002a0: 1b6d 61bd 63d3 f0bd c1c5 1e3b 90b2 11be
000002b0: 684e f5bd c959 993d cebd cabb 08d8 4fbc
000002c0: 8699 163e f23b 5dbd c3f5 a8bc 77a6 0e3e
000002d0: 872b 13be af17 013e 4f87 fd3d 1e7d 79bd
000002e0: e42f 16be 2f5e 403d 5479 b5bd d4b8 01be
000002f0: 4cb2 acbd 128f be3d 0cb3 c53d 5524 b4bd
00000300: d9f4 193d 7767 473d a6e1 c3bd 481f 163d
00000310: 9d99 63bd 164a 6e3d b135 e43d 6faa af3d
00000320: 2087 eebd 819c f03d b364 733d dd8a 56bd
00000330: ddf4 563d 1417 0bbd 8a4c c73d ec07 8a3d
00000340: ff5c 0a3d e4e6 d2bd 5df4 dd3c da0b 06be
00000350: cbc6 0b3d 7878 c33c 3451 c3bd 217b b73d
00000360: 3c8e 413d 1306 23be f369 bfbd 6016 08bc
00000370: 59c1 613d 464e 60bd d773 f6bc 954b c93d
00000380: 5d3b ce3d e177 183e c47d a4bd 8243 cc3d
00000390: 43a5 2ebd 5911 6dbc b631 ed3d 8a35 2d3d
000003a0: cffc 4b3d 2196 df3d 950a eabd f853 0a3e
000003b0: 82be 09be 69f3 71bc d559 d73d f933 01bc
000003c0: 9099 9e3c b104 8a3d 37c2 cf3d dab5 e43d
000003d0: a492 b8ba 0e34 eebd 0ba2 14be 2f47 77bd
000003e0: 4246 c2bd de80 843d 8beb 0b3c 485f ef3d
000003f0: dbee 9bbd 695e 01be 8a36 06be ad92 88bd

classifier.0.bias f4 [128]
-0.10585599 0.10198039 -0.030316295 0.09297312 0.14582525 -0.06787913 -0.10467317 -0.14555806
-0.15987971 0.059874635 -0.09388049 -0.15205875 -0.111759424 -0.091475405 0.037413843 0.11062945
-0.1276857 0.085831694 0.0011453755 -0.083515234 -0.07722236 -0.04856502 -0.05261714 0.0023259018
0.14569898 -0.03338053 -0.11464368 0.09540682 -0.037352324 0.014670779 0.024394313 -0.07984505
0.042156883 0.15207392 -0.03590187 0.081126384 -0.08307681 -0.12027057 0.052336153 -0.118833646
0.12919822 0.1564584 -0.050626583 0.14677475 0.12668641 -0.07772594 -0.012188728 -0.04685807
-0.121792965 0.13335565 -0.059450794 -0.04228836 -0.052453887 -0.16298051 0.13893178 0.05938174
0.057999026 0.033296466 0.02603749 -0.0042910455 0.13352388 0.14496058 0.120595284 -0.0072977887
0.08276277 0.09644357 0.09780482 0.07415845 0.11881341 -0.116048165 0.117083594 -0.08562663
0.06866741 0.07291421 -0.14602557 -0.01110143 0.16331896 -0.065048516 -0.08933043 -0.07758428
0.011607542 0.12683602 0.16804032 -0.0277082 -0.134013 0.027317936 0.09071208 -0.103122875
-0.03611387 0.062547505 0.11046159 0.082322665 0.1840468 -0.023397978 0.035993688 -0.002289737
0.12947519 0.01450926 0.02388851 -0.055013932 0.01719262 -0.13821015 -0.0625305 0.1518475
-0.018726755 0.11214125 0.04455962 -0.027676228 -0.10520478 -0.14285709 -0.039054707 -0.08922316
0.097179845 -0.06302201 -0.1195612 -0.0027356134 0.14729548 0.15908608 -0.11156281 -0.06698926
0.14550601 0.14600348 0.00011175037 0.05584202 -0.05609821 0.11245131 0.12168789 0.068593696
00000000: 06cb d8bd 18db d03d e159 f8bc b168 be3d
00000010: 3753 153e 3704 8bbd e35e d6bd 2c0d 15be
00000020: 82b7 23be 1b3f 753d 6a44 c0bd 4ab5 1bbe
00000030: 20e2 e4bd 7557 bbbd 423f 193d b191 e23d
00000040: 0ac0 02be 87c8 af3d 6d20 963a 090a abbd
00000050: c226 9ebd 1dec 46bd 1285 57bd 286e 183b
00000060: 1d32 153e 06ba 08bd 4eca eabd a764 c33d
00000070: c0fe 18bd b55d 703c 95d6 c73c cd85 a3bd
00000080: b2ac 2c3d 44b9 1b3e d70d 13bd 9725 a63d
00000090: 2d24 aabd 6b50 f6bd 6f5e 563d 0e5f f3bd
000000a0: 8a4c 043e a136 203e d25d 4fbd 1f4c 163e
000000b0: 15ba 013e c72e 9fbd 3bb3 47bc 3fee 3fbd
000000c0: 976e f9bd 628e 083e ad82 73bd 8f36 2dbd
000000d0: e3d9 56bd 5de4 26be 2244 0e3e 443a 733d
000000e0: 6390 6d3d e061 083d 934c d53c e69b 8cbb
000000f0: 7cba 083e 8c70 143e a9fa f63d 4a22 efbb
00000100: 877f a93d 3584 c53d e54d c83d 63e0 973d
00000110: 7254 f33d a9aa edbd 86c9 ef3d 045d afbd
00000120: 80a1 8c3d 0c54 953d ba87 15be c6e2 35bc
00000130: 163d 273e 2838 85bd dff2 b6bd 82e4 9ebd
00000140: 8f2d 3e3c 4de1 013e c312 2c3e 4ffc e2bc
00000150: b43a 09be ddc9 df3c 41c7 b93d 1632 d3bd
00000160: 23ec 13bd e818 803d b039 e23d c998 a83d
00000170: c476 3c3e 1ead bfbc 1e6e 133d 6a0f 16bb
00000180: 2595 043e 3fb8 6d3c d6b1 c33c 4a56 61bd
00000190: 8ad7 8c3c f686 0dbe fe0f 80bd e97d 1b3e
000001a0: da68 99bc 50aa e53d 2684 363d 42b9 e2bc
000001b0: 9b75 d7bd 2149 12be d4f7 1fbd a2ba b6bd
000001c0: 3a06 c73d af11 81bd 81dc f4bd fa47 33bb
000001d0: a0d4 163e 76e7 223e 0b7b e4bd aa31 89bd
000001e0: 87ff 143e f081 153e 865b ea38 9aba 643d
000001f0: 3dc7 65bd df4c e63d 8037 f93d da7a 8c3d

classifier.2.weight f4 [64, 128]
-0.037933774 -0.022961067 -0.07497707 0.07229787 0.04798675 0.02332324 -0.04210766 -0.0188608
-0.010752943 -0.02239043 0.08719535 0.010474341 0.0074973684 -0.014403892 -0.05401142 -0.013624444
0.063666835 0.043441743 -0.065045856 -0.043971997 -0.03769801 -0.043276064 -0.03023912 -0.016662376
0.09039091 -0.040737957 -0.022646133 0.078726545 0.0020043815 -0.05934785 -0.005287492 0.059473127
0.046733856 0.086340554 0.017319232 0.08597501 0.019340182 0.08648428 -0.06529176 0.055215936
-0.07441647 0.07200727 0.042380676 -0.06770244 -0.0025622551 0.017177325 -0.023548681 -0.04349166
-0.0335672 -0.061582204 -0.0038685224 -0.0031314292 0.07859518 0.009952091 -0.06500942 -0.0053989217
0.05927108 0.009805328 0.03442783 -0.04384153 0.040027484 0.030516323 0.020303324 0.009672618
0.0655898 -0.055781785 -0.0013240817 0.040284444 0.09296006 0.038282186 0.037151232 0.06660353
-0.047612153 -0.03673408 -0.013895752 -0.0628915 0.060698446 -0.0671789 0.06994834 -0.0013814585
0.049489025 -0.064891875 -0.05195482 -0.055964056 -0.00064460875 0.03959751 0.023630278 -0.021974262
0.09397788 0.045397434 0.0745925 -0.059649546 -0.033690143 0.06270205 -0.060695957 -0.01243589
-0.036579393 -0.014660165 -0.0033825643 -0.042009395 -0.06408182 -0.06864689 -0.020596286 0.022701073
-0.02937029 0.084628046 -0.058659974 -0.075742885 -0.08064374 0.048237395 0.019818395 0.041377295
-0.00076924474 -0.0025247275 -0.01758786 -0.028212124 -0.0056712143 0.047240727 0.05430035 0.03489864
0.053205665 0.037538555 -0.076456465 -0.08258636 0.014057373 -0.041853428 0.02318708 0.02146803
-0.05279363 -0.08312795 0.017843049 -0.049965024 0.005160348 0.065368116 -0.016407916 0.009142195
-0.0652559 -0.040053923 0.046674617 -0.05613759 0.025389206 0.08889508 0.08307412 0.015386518
0.046612848 -0.01144723 0.018804004 -0.06674052 0.052836064 0.11010888 0.025444794 -0.055059776
-0.08454987 -0.0017117196 0.11012666 0.10373927 0.10764564 -0.003212277 0.08973599 -0.019319257
0.018231735 0.052483942 -0.020918831 0.07229622 -0.08371313 -0.05634463 0.08079993 -0.033192314
0.09350622 0.005218511 0.02345219 0.008695312 0.0308185 0.036754347 0.08107703 -0.042718466
0.06568863 0.09535038 -0.009397398 -0.030364651 -0.020149931 0.013819797 -0.041017007 0.00070952286
0.05922627 0.06277776 0.067807294 -0.0013093044 -0.011235318 0.07218531 -0.0012640429 -0.041848417
0.035669345 0.05620239 0.012723867 0.079478465 -0.064981796 -0.05193022 -0.052373506 0.09902452
-0.03852666 0.027143236 0.05549817 -0.098399565 0.013163668 -0.056459494 0.019610817 0.04105324
0.07801035 0.01753581 -0.02526971 -0.018135127 -0.051785264 0.056304347 0.073772505 -0.031212848
-0.035477925 0.0002055322 0.005927618 -0.038226273 0.0030979875 -0.06253285 -0.017679868 0.07396618
-0.051339414 -0.069699325 -0.034359626 0.1011473 0.070367716 -0.018805325 0.016066765 -0.03053097
-0.08615021 0.07115425 -0.04589831 -0.039910365 0.002308565 -0.06253202 0.0987836 -0.0082939705
0.07185497 0.08462322 -0.0749682 0.08625119 0.045817267 -0.023992315 -0.0474459 0.039205424
-0.038762428 0.10142657 0.0006353008 -0.0076673524 -0.04439302 0.056031335 -0.10730421 0.03085751
00000000: 7260 1bbd d918 bcbc 948d 99bd e810 943d
00000010: c18d 443d 6110 bf3c 1579 2cbd f781 9abc
00000020: 1d2d 30bc 236c b7bc 7a93 b23d 929c 2b3c
00000030: 7cac f53b 4dfe 6bbc 143b 5dbd 0f39 5fbc
00000040: c263 823d f8ef 313d c336 85bd fb1b 34bd
00000050: 3b69 1abd 3e42 31bd 08b8 f7bc 897f 88bc
00000060: df1e b93d d8dc 26bd 6284 b9bc 623b a13d
00000070: f15b 033b bb16 73bd b342 adbb 189a 733d
00000080: 006c 3f3d 51d3 b03d 10e1 8d3c ab13 b03d
00000090: 4d6f 9e3c ac1e b13d b0b7 85bd 1b2a 623d
000000a0: aa67 98bd 8c78 933d 5c97 2d3d 94a7 8abd
000000b0: 82eb 27bb 76b7 8c3c 2ae9 c0bc 5024 32bd
000000c0: c37d 09bd 9f3d 7cbd 0987 7dbb aa38 4dbb
000000d0: 82f6 a03d 180e 233c a923 85bd 70e9 b0bb
000000e0: 3bc6 723d 87a6 203c 3204 0d3d 2d93 33bd
000000f0: dcf3 233d 5efd f93c 2853 a63c e679 1e3c
00000100: f253 863d 717b 64bd cf8c adba 4d01 253d
00000110: d861 be3d c8cd 1c3d e42b 183d 6e67 883d
00000120: f604 43bd 7a76 16bd 02ab 63bc 42cd 80bd
00000130: ef9e 783d 1795 89bd 1341 8f3d 0e12 b5ba
00000140: 01b5 4a3d 08e6 84bd 94ce 54bd 913a 65bd
00000150: f6fa 28ba 0031 223d 4994 c13c 5e03 b4bc
00000160: 7a77 c03d a9f2 393d f4c3 983d 1553 74bd
00000170: adfe 09bd ef69 803d 539c 78bd e7bf 4bbc
00000180: 46d4 15bd 3031 70bc 03ae 5dbb 0b12 2cbd
00000190: 543d 83bd be96 8cbd 8bb9 a8bc 9af7 b93c
000001a0: f699 f0bc 7851 ad3d 7145 70bd 161f 9bbd
000001b0: 8c28 a5bd 9394 453d 305a a23c 3d7b 293d
000001c0: 24a7 49ba e675 25bb 6a14 90bc 1d1d e7bc
000001d0: 98d5 b9bb 7e7f 413d 0b6a 5e3d e0f1 0e3d
000001e0: 2fee 593d 07c2 193d 3595 9cbd 0a23 a9bd
000001f0: e550 663c 806e 2bbd d5f2 bd3c b9dd af3c
00000200: 223e 58bd fd3e aabd 962b 923c 20a8 4cbd
00000210: 2318 a93b b8df 853d e569 86bc 25c9 153c
00000220: e3a4 85bd 950f 24bd e22d 3f3d 88f0 65bd
00000230: 06fd cf3c a00e b63d c422 aa3d bc17 7c3c
00000240: 1ded 3e3d 2a8d 3bbc db0a 9a3c 41af 88bd
00000250: a16a 583d c480 e13d 9a71 d03c 5c86 61bd
00000260: 7b28 adbd c75b e0ba 168a e13d 4175 d43d
00000270: 5175 dc3d 1185 52bb 81c7 b73d 6b43 9ebc
00000280: b85a 953c 67f9 563d f85d abbc 0a10 943d
00000290: ca71 abbd a0c9 66bd 6f7a a53d aaf4 07bd
000002a0: 3080 bf3d 0b00 ab3b cf1e c03c c876 0e3c
000002b0: 1477 fc3c ba8b 163d b70b a63d 8ff9 2ebd
000002c0: c387 863d 0f47 c33d 8bf7 19bc 4abf f8bc
000002d0: 7811 a5bc 6e6c 623c 7301 28bd 46ff 393a
000002e0: 3f97 723d a091 803d 8dde 8a3d f79c abba
000002f0: 5714 38bc e4d5 933d 3eae a5ba 3f69 2bbd
00000300: 051a 123d 7a34 663d c477 503c 9bc5 a23d
00000310: 2d15 85bd c8b4 54bd 9a85 56bd 5ecd ca3d
00000320: 22ce 1dbd 7e5b de3c 0d52 633d b685 c9bd
00000330: 6dac 573c 1242 67bd dda6 a03c 7127 283d
00000340: e4c3 9f3d 42a7 8f3c 6c02 cfbc 1e90 94bc
00000350: c91c 54bd 639f 663d 0a16 973d 16b2 ffbc
00000360: 4d51 11bd 2184 5739 773c c23b 2793 1cbd
00000370: 9b07 4b3b 3911 80bd 5fd5 90bc 957b 973d
00000380: 4749 52bd 85be 8ebd aebc 0cbd 5126 cf3d
00000390: f31c 903d a00d 9abc 739e 833c 161c fabc
000003a0: 856f b0bd 52b9 913d deff 3bbd 0d79 23bd
000003b0: 4b4b 173b ca10 80bd 0e4f ca3d 6fe3 07bc
000003c0: b328 933d f04e ad3d ed88 99bd 77a4 b03d
000003d0: e3aa 3b3d 888b c4bc a256 42bd de95 203d
000003e0: 5ac5 1ebd bcb8 cf3d 518a 263a 6a3e fbbb
000003f0: 75d5 35bd 1d81 653d 4fc2 dbbd e4c8 fc3c

classifier.2.bias f4 [64]
-0.04094041 0.08059891 0.044995565 0.06359696 0.01355344 0.06945013 0.087825626 -0.038756937
0.030607596 0.098442234 0.0118586095 0.04219056 -0.073284015 0.04205601 0.13582882 -0.08409057
0.06497667 0.03654589 -0.06014352 0.07045125 -0.02647466 0.00899783 -0.042990353 0.080632195
0.08268194 -0.033687335 0.089777105 0.07154273 0.09737376 0.035533458 0.050666578 0.08144695
0.08485233 0.010296978 0.06290947 -0.06710732 0.034939572 -0.034021247 -0.01611823 0.04473995
0.06735178 0.059971523 0.008361087 -0.06701935 -0.043256726 -0.033472225 0.037101734 -0.0030989705
0.037226904 0.0005834644 0.07557832 0.0024678004 -0.025602011 0.02030095 0.03559923 0.05220742
0.024059823 0.051875114 0.10968844 0.06108968 0.057489164 0.034695145 -0.08498548 0.044128247
00000000: 22b1 27bd 0b11 a53d 454d 383d 1f3f 823d
00000010: 3f0f 5e3c df3b 8e3d ecdd b33d 98bf 1ebd
00000020: c8bc fa3c 159c c93d 9d4a 423c 02d0 2c3d
00000030: ee15 96bd ec42 2c3d b616 0b3e ad37 acbd
00000040: 7d12 853d 25b1 153d 0d59 76bd bf48 903d
00000050: 63e1 d8bc a26b 133c a716 30bd 7e22 a53d
00000060: 2655 a93d bbfb 09bd 0fdd b73d ff84 923d
00000070: e56b c73d 888b 113d c287 4f3d a9cd a63d
00000080: 0fc7 ad3d a8b4 283c aed6 803d 906f 89bd
00000090: cc1c 0f3d dd59 0bbd 610a 84bc 3d41 373d
000000a0: bbef 893d b3a4 753d f1fc 083c 7141 89bd
000000b0: f72d 31bd 2c1a 09bd fdf7 173d 1918 4bbb
000000c0: 3d7b 183d a2f3 183a cec8 9a3d d2ba 213b
000000d0: 4fbb d1bc 2e4e a63c 80d0 113d 73d7 553d
000000e0: 1b19 c53c 007b 543d 55a4 e03d 2c39 7a3d
000000f0: c279 6b3d 7f1c 0e3d de0c aebd d2bf 343d

classifier.4.weight f4 [1, 64]
-0.106932074 0.2548386 -0.090715505 -0.074008204 -0.18505323 0.09916397 0.23393944 0.01915893
0.13466093 0.2834436 -0.24503702 0.19125593 0.05250226 0.044560734 -0.30029488 -0.10860283
0.043222483 0.3326781 0.13789906 0.13047054 -0.03146843 -0.13057068 -0.2356866 0.16441944
0.13148354 0.06772664 0.115476795 0.036338747 -0.26632383 -0.011073978 0.023307383 0.035702836
-0.17410445 -0.29300764 -0.20537573 0.07605437 0.029388001 0.003462057 -0.07634111 0.25539672
0.20394693 -0.21539019 -0.12177418 -0.027562888 0.09823465 0.3236107 -0.08554053 0.279726
-0.06700711 0.2341275 0.24707012 0.15597701 0.3313014 0.05072551 0.109107316 0.18973227
-0.00014581537 -0.12292904 -0.24707736 -0.195683 -0.28848648 0.06699743 0.018398603 0.117932744
00000000: 34ff dabd 347a 823e 0dc9 b9bd 9d91 97bd
00000010: 987e 3dbe 7b16 cb3d d28d 6f3e 30f3 9c3c
00000020: 8ee4 093e 851f 913e fcea 7abe 98d8 433e
00000030: 9c0c 573d 5185 363d 40c0 99be 296b debd
00000040: 0f0a 313d c954 aa3e 6935 0d3e 129a 053e
00000050: 0ae5 00bd 52b4 05be d457 71be 925d 283e
00000060: 9fa3 063e 44b4 8a3d 197f ec3d f0d7 143d
00000070: 995b 88be a16f 35bc 20ef be3c 233d 123d
00000080: 7048 32be 1905 96be 044e 52be 65c2 9b3d
00000090: 1bbf f03c aee3 623b ba58 9cbd 5cc3 823e
000000a0: 77d7 503e 3f8f 5cbe be64 f9bd 91cb e1bc
000000b0: 402f c93d 4db0 a53e e02f afbd 3f38 8f3e
000000c0: 063b 89bd 1fbf 6f3e f3ff 7c3e 70b8 1f3e
000000d0: 56a0 a93e 8dc5 4f3d a873 df3d 2d49 423e
000000e0: 04e6 18b9 38c2 fbbd d901 7dbe 2061 48be
000000f0: 80b4 93be f335 893d abb8 963c b986 f13d
