checkpoints/mlp_model/fold_2.pth (torch, 58878 bytes, 5 tensors)

classifier.0.weight f4 [128, 40]
00000000: fa62 10be ded9 373d 9fb1 8abd 7670 2e3e
00000010: 85cb d1bc 1fd0 b0bd a519 663d f3c2 013d
00000020: 22c4 4dbd dfef 023d 963e 2fbe 4b99 9b3d
00000030: 742d c73d 0fe7 c53d ba59 dbbd 2595 e3bd
00000040: 830a 5ebd b934 023e 547b 003e 0f5f 143d
00000050: 010d 2cbe e5ac a7bd 715a 173d a29a 3fbe
00000060: 05f1 ad3d 0761 46bd e51f 9dbd d225 a33c
00000070: 6c36 25be b21e 753d 7944 efbd f7c7 17bd
00000080: 6d94 8e3b 3b4d db3d 68e8 dcbd b21f cebd
00000090: 544d 8f3d 8664 ce3d afd5 0e3c 86c3 bfbd
000000a0: 87ca ff3d fd59 65ba b9bb e2bc b856 95bb
000000b0: 6331 b7bd b4c1 22be 1692 9f3d 154d d63d
000000c0: 0efa 6bbc e324 c63c 3aa7 013e 9ca2 48bc
000000d0: 30e0 d1bd 27f9 2abe 8df3 8cbd 8c24 a0bd
000000e0: c28a 34be 6e82 5ebd 6a2e febd 15c2 e3bd
000000f0: 1710 bd3d 5adc 1e3e dd4b 8b3b 345b ee3d
00000100: ed39 10be e0f2 213e bc65 ebbc df93 c6bd
00000110: 7a33 a9bd a216 d03d cc0c f0bd 51ab c2bd
00000120: d12f 1a3e cf95 bf3d aa1f 2b3e d421 583d
00000130: cba3 a4bc 0e79 bbbd d92c 143e 050a 1bbc
00000140: e76f fc3d 0ef9 25bd 6789 5fbd bfc3 67bb
00000150: e6c0 22be 1b88 dbbd af90 74bd 1689 bcbd
00000160: 52ed 093e 3b74 403d 88ef a53d 53e1 383d
00000170: b894 b4bd d6c6 393d cfa3 8ebd d9c5 d3bc
00000180: 7694 4ebe 78f8 193d b06d 98bd 262b bd3d
00000190: aca1 233e 34df f13c a608 333e 86d1 1f3e
000001a0: cea0 f8bd fc57 1b3e 442b 8abc f395 153c
000001b0: e238 e5bd 8141 343e 236c ed3d 47de 043e
000001c0: d351 cabd 5f1b 0d3c 92b2 5b3d 2aca a1bd
000001d0: d59c 123e 316c 873d 732a debd 3e37 e13d
000001e0: fa40 d0bd 2ff2 643d 6f4b 6cbd 64b9 153d
000001f0: 0d29 bcbd 374b 133e 47d8 ca3d 728c d23d
00000200: 43cc 11be 3376 0f3d 3f38 0e3e 2e9b 163e
00000210: 224f 363b df2a 303e db5c d5bd fc94 7b3d
00000220: 3911 01bc c6c6 ed3d 7181 7bbc e03d a3bd
00000230: e605 6cbd 5110 11bd 925d 07be 5d42 a5bd
00000240: b31b eabd 39de 673d b7cb 0bbe 4cb9 013e
00000250: d6f6 a2bd 7e67 54bd b234 5c3c 4cdb ae3a
00000260: d6cd 783c bccd 41bd 1556 b83a 3172 20bd
00000270: 5286 23be d0d0 74bd eda3 01be b668 0b3e
00000280: 534f cf3d 83e4 01be adfe 9cbd 10cd 063d
00000290: 6392 80bd 463b 59bd ae0f 243e ce27 a63b
000002a0: 19a8 1dbe c773 15be 600e d9bd 5141 713a
000002b0: 09fc 25be b205 203e 2ecf 163d 9cc3 f33d
000002c0: e034 2dbc 949b 02be b4e6 fdbd 03bb 0bbd
000002d0: d9a2 25be fc05 d3bc 13ab ff3c 9576 0d3e
000002e0: f980 ab3d ca04 c83d 528b 21be 8441 30bc
000002f0: 2456 bf3d 8cfd 9d3d 222a 8d3d 33bf 0c3e
00000300: f8ba 28be 1e79 51bd 880f e9bd 0420 18be
00000310: 1445 73bd ec3c 123c 92f8 823d 8ea7 bf3d
00000320: 6f57 9abc 9081 12bd e04a 13be 199c 9abd
00000330: c5f7 0c3e b42d 103a 59b2 2dbd 7872 aebd
00000340: 0207 0d3e ea91 17be 7965 193e 6d60 2c3b
00000350: c35c 6b3d ec23 5bbc 85e0 223e b0cf 86bd
00000360: c885 0b3d 983f 1e3e 9b84 76bc 7e9c e1bd
00000370: 857a 28bd dfbc 0b3e 7527 abbd 1434 6dbc
00000380: 90f0 e33d fc7e 02bc 9ba4 0f3d 6990 153e
00000390: 3f01 47bd 14e2 d1bd 77df c0bc ff2b 9fbd
000003a0: 7d23 223d f60b 0bbe 378c f43d a267 ca3d
000003b0: 760d 0cbe 01e2 90bc 3826 823d 3472 5dbd
000003c0: d301 f23d 0555 013e 655a 0bbd d2c5 6fbc
000003d0: 89f7 153e e515 ca3d b409 eabc e905 3cbc
000003e0: f1ee 1b3e 5028 dcbd 7b57 083e 28d2 113e
000003f0: e0c0 95bd 48b6 ee3c ef49 1f3c 611f 223d
-0.14100257 0.04488551 -0.0677216 0.17035088 -0.025609741 -0.08633446 0.0561768 0.03168006
-0.050235875 0.03196704 -0.17113718 0.07597598 0.09725466 0.096632116 -0.10710473 -0.111124314
-0.054209244 0.12715425 0.12547046 0.036223467 -0.16801836 -0.08187274 0.036951486 -0.18711331
0.084932365 -0.048432376 -0.07672099 0.019915495 -0.16134042 0.059843726 -0.11682982 -0.037055936
0.00435119 0.1070809 -0.107865155 -0.10064639 0.06997171 0.10077767 0.008717938 -0.09363465
0.12489801 -0.0008749066 -0.027677404 -0.004557457 -0.08944967 -0.15894204 0.077915356 0.10463921
-0.014402879 0.02418751 0.12661448 -0.0122458 -0.102478385 -0.16696607 -0.06882391 -0.07819471
-0.17631057 -0.054323606 -0.124111965 -0.111210026 0.092315845 0.15513745 0.004250987 0.11638489
-0.14084597 0.15815306 -0.028735034 -0.09696173 -0.082617715 0.10160567 -0.11721191 -0.09505332
0.15057303 0.093547456 0.16711298 0.052766636 -0.020097634 -0.09153949 0.14470233 -0.009462838
0.12326031 -0.04052072 -0.054574396 -0.0035364476 -0.15893897 -0.107193194 -0.059708294 -0.092058346
0.13469437 0.046985846 0.081023276 0.04513676 -0.08817428 0.04535564 -0.06964838 -0.025851177
-0.20173821 0.037590474 -0.07442796 0.092367455 0.15979642 0.029525377 0.17483768 0.1560727
-0.12140046 0.15170282 -0.016866334 0.009129989 -0.1119249 0.17603113 0.11592891 0.12975417
-0.09878888 0.008612483 0.053637095 -0.07899888 0.14317639 0.06612433 -0.1084794 0.10996865
-0.10168643 0.055895027 -0.057689127 0.036553755 -0.09187517 0.14384161 0.09904533 0.10280694
-0.14238076 0.035024833 0.13888644 0.14707634 0.0027818163 0.17203854 -0.104181014 0.06142138
-0.007877641 0.11610179 -0.015350685 -0.07970786 -0.057622813 -0.03541595 -0.13219288 -0.080692984
-0.114310645 0.056608412 -0.1365193 0.12668341 -0.079572365 -0.05185651 0.013440298 0.0013340502
0.015185794 -0.047315344 0.001406374 -0.0391714 -0.15969208 -0.05976945 -0.12660189 0.13614163
0.10122552 -0.12684827 -0.07665763 0.032910407 -0.06277921 -0.053035043 0.16021606 0.005070663
-0.15396155 -0.14594947 -0.10598445 0.00092031533 -0.16209425 0.15627173 0.036818676 0.11902544
-0.010571688 -0.12754661 -0.12397519 -0.034113895 -0.16175403 -0.02575969 0.031209504 0.13814767
0.08374209 0.097665384 -0.15775803 -0.010757808 0.09342602 0.07714376 0.06892802 0.13744812
-0.16477573 -0.051140897 -0.113799155 -0.14855963 -0.05939205 0.008925658 0.06395067 0.093581304
-0.01884052 -0.03576809 -0.14384031 -0.075493045 0.13766392 0.00054999744 -0.042406414 -0.08517927
0.13772205 -0.14801756 0.14980115 0.0026302591 0.05746151 -0.013375264 0.1590596 -0.06582582
0.03406313 0.15453947 -0.015046264 -0.11016177 -0.04113247 0.13646267 -0.08357135 -0.014477748
0.11129868 -0.007964846 0.03506909 0.1460587 -0.048585173 -0.10248199 -0.023544056 -0.077720635
0.039584626 -0.13578781 0.11940806 0.09883048 -0.1367701 -0.017685892 0.06354946 -0.05406399
0.11816754 0.12630089 -0.034021754 -0.014634566 0.14645208 0.09867457 -0.02856908 -0.0114760185
0.15227868 -0.107498765 0.13314621 0.14240324 -0.073121786 0.029139653 0.009722217 0.039580707

classifier.0.bias f4 [128]
00000000: 0747 293e 63f0 e7bd 1639 b63b 2a22 a2bd
00000010: 4864 cb3d 3931 0fbe 47c1 18be 7272 95bc
00000020: bda7 b43d e910 57bd 2a6c 65bd 8c9a 96bb
00000030: 22c3 9d3d f042 fb3d afba 103e c5f0 ce3d
00000040: ce61 04be f74d 5b3d 5762 89bd 55c6 e93d
00000050: cd4a 803c 4fd4 a93d d525 ef3d d8c2 1abe
00000060: 1678 4bbd a4d1 adbd beea 743d 7bfb 123c
00000070: b68d 3b3d f2ec 033e 3dea cb3d ca61 953d
00000080: 2c59 e13d e45e debd 9f8d b3bd 0278 e63c
00000090: ab58 8ebd df5b de3d c477 e6bd 40a0 0cbd
000000a0: 0016 583d 2570 b5bc 0955 6b3d a936 0b3d
000000b0: 5cde 673d 6907 dabd 4eb1 2d3e ec14 4b3e
000000c0: f9e2 013e 3e3e d4bd 1317 ea3d d52f d63b
000000d0: a93e 28bd dc47 fcbd b2d2 cfbd ef3a 68bd
000000e0: 54bd a23d 486f ba3d 909e c33d da5d 45bd
000000f0: 8eeb 08be c24c ad3d 5553 ac3c f3a7 133d
00000100: 97d6 0e3e fc7f fc3b 6fdd 18be 3078 26bd
00000110: 5880 9cbd deb1 193e 4c84 c83d 4999 143e
00000120: 7ee5 213e 5de0 2ebd 2d4c 013e be3f 20be
00000130: 5a82 eb3d 52f1 50bd c6aa d5bd 27d4 2cbc
00000140: 5f83 eabc 2ad2 b73d 39f6 8dbd 314b 133d
00000150: f6c9 343e f9a2 d9bd 1f34 15be 65ea 06bd
00000160: 208d 003e 545f 793d 2f63 a53d 00fe 133e
00000170: b98b da3d 2ca9 47bd 0d8d 95bd 8eca b13c
00000180: 5c4b 0d3e 11ba dc3d 63fc aa3d f6bb c83d
00000190: 345a a1bc ec98 a93b be79 f93b 720b debd
000001a0: 12d4 08be 113e d33d 69a1 043d f7e6 c5bd
000001b0: 45ed a03d cf6f 3e3c 245b f0bd da65 e43d
000001c0: d6e4 80b9 13fd c93d b64a 75bd 5122 e3bd
000001d0: e627 b93c c8da 0c3d b712 08bd bab5 173e
000001e0: c833 9a3c 7492 213b 49e3 d63d fd19 92bc
000001f0: 1ca3 ba3d 6de1 f8bd 51c9 e9bd 301f 153d
0.16531001 -0.11325147 0.0055610044 -0.079166725 0.099312365 -0.1398362 -0.1491748 -0.018243048
0.08821056 -0.05250636 -0.056011356 -0.00459606 0.07703234 0.12268627 0.14133714 0.10104517
-0.12927935 0.05354115 -0.0670821 0.11414782 0.015660668 0.08292448 0.11677138 -0.1511339
-0.04967507 -0.084872514 0.05979418 0.00897109 0.045789443 0.12883356 0.09956787 0.072940424
0.11003336 -0.10857943 -0.087672465 0.028133396 -0.06950506 0.10857367 -0.11253312 -0.034332514
0.052755356 -0.022148201 0.057454143 0.033987675 0.056608543 -0.106459446 0.16962168 0.198322
0.1268424 -0.10363434 0.11430182 0.0065364637 -0.041075382 -0.123183936 -0.10147609 -0.05669683
0.07946268 0.091032565 0.09551728 -0.048185207 -0.13371107 0.08461906 0.02103583 0.03604884
0.13949047 0.0077056866 -0.1492822 -0.040641963 -0.07641667 0.15009257 0.097908586 0.14511599
0.158102 -0.04269444 0.12626715 -0.15649316 0.11499472 -0.05101139 -0.10432963 -0.010548628
-0.028627096 0.089756325 -0.06931729 0.03596038 0.17655167 -0.10626788 -0.14570664 -0.03293838
0.12553835 0.060881928 0.080755584 0.14452362 0.10671181 -0.04874532 -0.07302294 0.02170303
0.13798279 0.10777677 0.0834892 0.09801476 -0.019696333 0.0051757004 0.0076133898 -0.10842027
-0.13362148 0.103145726 0.032380495 -0.09663194 0.078577556 0.011623337 -0.11736134 0.11152239
-0.0002458456 0.09862723 -0.059885703 -0.1109053 0.022602033 0.034388334 -0.033220973 0.14815417
0.01882352 0.0024653943 0.1049257 -0.017834658 0.09113142 -0.121523716 -0.11415351 0.036406696

classifier.2.weight f4 [64, 128]
00000000: 404f a7bd a459 f13c 6bfc bfbc 341d 61bd
00000010: b1cb 913d 0a27 acbd da07 903d 339e 763d
00000020: e647 78bd 796f a73d e5ce c3bc fc3b d0bb
00000030: 0310 8b3d 810a 9dbd 7d34 6cbd 4a14 93bc
00000040: 72a6 5d3c f2ba 453c 8e68 adbd 335f 333d
00000050: 473f 8cbb d394 c2bc 2a9f 3b3d 2922 ff3c
00000060: 06f5 933b 5f31 6abd 21aa a23b 3470 963d
00000070: 64d5 a03d 29b7 24bd 16bb b33c a5f4 e7bb
00000080: 645c ecbc 39df 163d 0448 76bc cdcc 83bd
00000090: 9389 643b 5349 efbb 4aaa 9a39 4043 a0bd
000000a0: 6918 1bbd 9944 e53c 1759 3abd fef9 8bbd
000000b0: d8cc 803c e820 18bd 4410 05bd cee6 a3bd
000000c0: a74b b53d 449b 773d 4871 93bd 4b4d a1bd
000000d0: 8d7c 27bd 588c cfbc 1bbe aebd 9a83 dd3c
000000e0: f8a3 a6bd d8a6 8b3c 97e3 b3bc 8a1a 063c
000000f0: 555d 27bd bda7 6739 a70c 25bd ef49 863c
00000100: 6397 b8bc c043 3ebd f5a1 8f3d 2656 adbd
00000110: f5b7 983d 491d 283d 9ab1 89bd 3aa6 7d3d
00000120: 4c47 10bd e685 f0bc 3cb1 123c cdf4 81bc
00000130: 3570 8c3d c009 da3c f710 d7bc 152f 45bd
00000140: 6b7f 1a3d dea9 8abd 4717 71bd d93c 69bc
00000150: cbe4 0bbd 4161 973d ac0d 0fbb 598a 86bd
00000160: 41d6 1cbc 125d 903c 1d02 a6bd 21b0 403d
00000170: e913 86bd 0a07 9abd aa4c 87bc ee36 7d3d
00000180: f628 3dba 0a4f 3a3d 840a bcbb d641 8fbd
00000190: 9928 62bd 4f92 0cbd 7014 59bd 156c 923d
000001a0: 0e01 b0bd b048 c9bc 6101 413c 1334 8dbd
000001b0: ca7c 64bd fcd4 853d e5a5 7dbb 3ea8 493d
000001c0: ee9a 203b 1c1f a2bd 79b5 a73b e65b a73d
000001d0: 1c0b 303d 806d 063d cccf 51bd 4046 813d
000001e0: 119e 94bd ca42 22ba 7604 f0bc e44a 503d
000001f0: 7996 afbd 9744 7a3d fb43 983d 2eaa a6bd
00000200: b745 36bd ee6f a7bc d637 5b3c 67a7 b4bd
00000210: 6712 2c3d cc1f 6cbd 3b6b ae3d 65de aa3d
00000220: 15c3 bc3d 6a2a de3c 9092 97bc 01a3 21bd
00000230: 5f7e 3c3d 5ed5 1fbd 1867 8cbd 2ccc 97bd
00000240: 03fe 563d 67a6 853d b8a1 4b3d 988e a4bc
00000250: e246 cd3c 5d9d a73d 6af3 cf3c c639 23bd
00000260: 7411 113d fe78 953d 0e9a 5f3c 9392 aa3d
00000270: d2d8 7dbd 4eb9 a1bd 9707 f43a c77c 803b
00000280: d714 073d 88eb 3c3d 4d09 263d 1aed 723b
00000290: 2e14 be3c 9f68 88bb 4463 a23d 0af2 403c
000002a0: dba3 e13c b84f 65bd 1e66 aebc 64b2 993d
000002b0: f877 a5bd ff39 943b 1a9f 853d d163 68bb
000002c0: e001 25bb 5c3c 90bd bd2e 29bd 2b60 c23d
000002d0: 1994 ab3d e640 533d e6c2 693d 67d8 113d
000002e0: dcce c43d 4d12 3d3d 68c8 11bd 607a a33d
000002f0: a083 a83d 73e4 a43d 30ab 4f3d 46cc fabb
00000300: 7e5f 023e f32b c5bd 2aff 2c3d a6c1 de3c
00000310: 9403 0a3c 1ae0 63bd da28 84bd d261 2c3d
00000320: f1bb 4c3d 8eb7 fe3c ade3 1d3d cba8 a53b
00000330: 309b b6bc fb80 c23d 0bf3 a63d 76ca edbc
00000340: 1d59 a23d c684 11bd 0512 b73c eb09 c8bd
00000350: cc63 6ebd cd67 6cbd 1b9d 02bd cc60 95bd
00000360: c2db 8a3c 7607 253d eac1 493c 3405 5fbd
00000370: af07 3bbd c97e 8abd 178a b4bd 149e ba3d
00000380: 4f78 e23d ec50 05bb 5da6 503d dfc5 4bbb
00000390: c7e9 cb3d 2cfa 8abc 4db6 89bd e210 f0b9
000003a0: 7702 a3bb 70f7 a13d edcf 1abd f039 053d
000003b0: bc04 cfbc f46b 293d 33a0 4d3d 9c9c 7b3d
000003c0: a1af fa3d 9887 e63c 64b4 ecbc 95d1 0a3c
000003d0: 4e32 9cbd e132 b8bd 0aae 9c3d 128a ac3d
000003e0: 39ff edbc b7a4 8f3d bb0e 2e3d baa4 c03c
000003f0: c423 623d 91ee bfbd dc6f 41bc 38f2 a73d
-0.081694126 0.02946169 -0.023435792 -0.05495949 0.07118929 -0.084058836 0.070327476 0.060209464
-0.060615443 0.081755586 -0.023902366 -0.006354807 0.06790163 -0.07668019 -0.057667244 -0.01795401
0.013528453 0.012068497 -0.08467208 0.04379196 -0.004280004 -0.023752606 0.045806088 0.031144219
0.004515293 -0.05717599 0.0049641286 0.0734562 0.07853201 -0.040213738 0.021939795 -0.0070787244
-0.028852649 0.036833975 -0.015031818 -0.06435547 0.003487204 -0.007302442 0.00029500044 -0.07825327
-0.037865076 0.027986811 -0.04549512 -0.068347916 0.015722677 -0.037140757 -0.032486215 -0.08003007
0.0885232 0.060450807 -0.07199341 -0.078760706 -0.040890265 -0.025335476 -0.085323535 0.027040292
-0.08136743 0.01704733 -0.02195911 0.008185038 -0.040860493 0.00022092364 -0.04029527 0.016392676
-0.022533124 -0.04645133 0.07013313 -0.08463697 0.07456962 0.041043554 -0.06723328 0.061926104
-0.035224244 -0.029360723 0.008953389 -0.0158638 0.06857339 0.026615977 -0.026253207 -0.048140604
0.03771917 -0.06770681 -0.05886009 -0.014235699 -0.03415374 0.073915966 -0.0021828217 -0.065693565
-0.0095725665 0.017622504 -0.08105872 0.04704297 -0.06546766 -0.07520874 -0.016516048 0.061819963
-0.00072158815 0.045485534 -0.0057385582 -0.06994979 -0.0552145 -0.03431922 -0.052998006 0.07149521
-0.08593951 -0.024570793 0.011780114 -0.06894698 -0.05578307 0.06534764 -0.0038703617 0.049232714
0.0024506408 -0.0791609 0.005118069 0.08171825 0.042979345 0.03281927 -0.05122356 0.06312227
-0.07256711 -0.0006189762 -0.029299002 0.05085267 -0.08573622 0.06110057 0.07434841 -0.08137928
-0.04450008 -0.020439114 0.013380012 -0.08820992 0.042009737 -0.05764751 0.08516546 0.083432
0.092168964 0.027119834 -0.018502504 -0.039462093 0.046018954 -0.039021842 -0.06855601 -0.074119896
0.05248834 0.06525879 0.049714774 -0.020087525 0.025058214 0.081843115 0.025384624 -0.03985002
0.035417035 0.07298468 0.013647569 0.08328738 -0.061974354 -0.07896672 0.0018617985 0.0039211246
0.03297886 0.046123058 0.040536214 0.0037067593 0.023202982 -0.0041628624 0.0792909 0.011776457
0.027543953 -0.05598423 -0.021288928 0.075047284 -0.08079523 0.0045235152 0.06524487 -0.0035459886
-0.002517812 -0.07042763 -0.04130434 0.09490999 0.08377857 0.051575564 0.057070635 0.035606768
0.09609768 0.04616003 -0.035591513 0.079823256 0.082282305 0.08051386 0.050700366 -0.007653746
0.1273174 -0.09627523 0.04223553 0.027191948 0.008423705 -0.05563364 -0.06453104 0.042085476
0.049983922 0.031093385 0.038547207 0.005055522 -0.022290796 0.09497257 0.081518255 -0.029027205
0.07927153 -0.035527013 0.02234746 -0.09767517 -0.058200642 -0.05771618 -0.03188811 -0.07293853
0.016950492 0.04029032 0.012314299 -0.05444832 -0.045661625 -0.067624636 -0.08815401 0.09112182
0.11058103 -0.0020342423 0.050939906 -0.0031093282 0.09956699 -0.016964994 -0.06724224 -0.00045788946
-0.004974659 0.07908523 -0.03779595 0.032525957 -0.025270812 0.041362718 0.050201606 0.06142865
0.1224053 0.028140828 -0.02889461 0.00847282 -0.07626782 -0.089940794 0.07650383 0.08424772
-0.029052364 0.07013839 0.042494517 0.023516048 0.05520989 -0.09371675 -0.0118064545 0.082004964

classifier.2.bias f4 [64]
00000000: 954d 97bc b7c9 cb3d ebf4 2a3d adc1 48bd
00000010: 5fe8 ea3b 589f 8fbd f4cd 953d 4f3b 013d
00000020: 1eff 8d3d a8ed 463d 4540 0c3d 9fa2 60bd
00000030: de18 08bd 2fb1 4ebd a646 f2bc 2243 86bd
00000040: a875 88bd de39 9c3c 131b 29bd 3b21 e93d
00000050: b142 c2bb 20bf 69bd 6521 39bd 86a9 2b3d
00000060: b2c0 c73d 81c6 153d cd56 543d e67e f13d
00000070: 2811 8d3b a858 0cbc bd9e 9e3d 8711 adbc
00000080: f2d4 b83d b85a cf3c daf8 cb3c 9ad9 c13d
00000090: 4d1d 483d a67c c9bc f00d 063d 9df2 0fbc
000000a0: 0209 b33c 7b42 6abd 816e c73c 7de8 7c3d
000000b0: 21a4 27bd 05b5 433d 5e78 453c 0bc6 023d
000000c0: e8ff ea3c dc91 9b3c 77f4 46bd b3b7 a9bd
000000d0: 4540 f33d 746c e93b 0dd9 26bd e083 fc3c
000000e0: fca9 0a3d f862 b33c 21df 3d3d 52cb 003c
000000f0: 099b 963d 16b5 8b3d 6f62 503d bbf7 1dbd
-0.018469611 0.099505834 0.04173748 -0.04901283 0.007168814 -0.07012814 0.07314673 0.0315507
0.06933425 0.04856649 0.03424098 -0.054842588 -0.03322684 -0.050461944 -0.029574703 -0.06555773
-0.06663066 0.019070562 -0.041285586 0.11383291 -0.0059283604 -0.057067037 -0.045197863 0.041909717
0.097535506 0.03656626 0.051840592 0.11791782 0.0043050237 -0.008566059 0.07745121 -0.021126522
0.09024991 0.025311813 0.024898935 0.09465332 0.04885607 -0.02459557 0.032728136 -0.008785871
0.021854881 -0.057192307 0.024344685 0.061745156 -0.04092801 0.047780056 0.012052624 0.03192715
0.028686479 0.01899045 -0.048572984 -0.08286991 0.11877493 0.0071235243 -0.04073434 0.030824602
0.033853516 0.021897778 0.04635537 0.007860975 0.07353789 0.06821649 0.050875124 -0.038566332

classifier.4.weight f4 [1, 64]
00000000: bb36 76bd fa08 ae3e b6c5 c9be b6ae bebc
00000010: b77e b53c 4b4d 0fbd 776d f43d d54c 8dbe
00000020: 39d9 103f 6b03 363d b3a9 f13d b8da e3bd
00000030: 062f 863e 4362 2b3d 1291 73bd 757d 90bd
00000040: 288f 9a3d 1971 00bd 9712 dd3c 0096 93be
00000050: 7e1c 4f3e bf1e 7b3e ba23 7e3c 6aff 693e
00000060: e192 2dbe 5aa0 2c3d a37c 01bf 9682 fa3e
00000070: 3392 783d e622 8dbe 1b5a 2b3d 020c 893c
00000080: cdcd a13e 1e94 4e3d 7548 ba3d 1a26 c8bd
00000090: 8e37 24be 99b8 7cbd f66d d83d 158c 70be
000000a0: 7644 313e 090a c2bc 8563 ba3d 5732 a7be
000000b0: 0664 f63b 94a3 9d3d aaf5 8a3e 8cfb 803e
000000c0: 165f dcbd 5731 d23d 238e 533e d2f9 9fbc
000000d0: d1bd e0be fc84 6f3d c86b 16bd 45a3 b53d
000000e0: a38f 4fbe fab2 d83c 9037 ce3d f642 9a3d
000000f0: 573f 11bd 5be2 7ebd 1136 89bd 542d 333d
-0.06011079 0.33991224 -0.39408654 -0.023276668 0.022155149 -0.03498582 0.11934941 -0.2759768
0.56581455 0.044436853 0.11799946 -0.11125702 0.2620775 0.041841757 -0.05946452 -0.07055179
0.07546836 -0.03135786 0.026986403 -0.28825378 0.20225713 0.24523447 0.015511448 0.22851339
-0.16950561 0.04214511 -0.50580806 0.48927754 0.0606863 -0.27565688 0.04183398 0.016729359
0.31602326 0.050434224 0.09095851 -0.09772892 -0.16036817 -0.061699484 0.105678484 -0.23490937
0.17311272 -0.023686426 0.09101013 -0.32655594 0.007519248 0.07697216 0.27140552 0.25191915
-0.10760324 0.10263317 0.2065969 -0.019528303 -0.43894818 0.058476433 -0.036723882 0.08869032
-0.20269637 0.02645253 0.100691915 0.07532303 -0.035460796 -0.06222759 -0.066997655 0.0437444
