checkpoints/mlp_model/fold_3.pth (torch, 58814 bytes, 5 tensors)

classifier.0.weight f4 [128, 40]
000000 61 b7 05 3d 57 77 a1 bd 09 33 5b 3d 5f 9f e0 3d
       0.032645587 -0.078840904 0.053515468 0.109678976
000010 b5 d8 96 3c 99 a5 c1 bb d2 58 15 be 9c c4 33 3d
       0.01841388 -0.0059096334 -0.14584664 0.043888673
000020 59 01 1e 3e b3 45 e4 bd a6 84 f7 3d 47 08 16 3e
       0.15430202 -0.111461066 0.120858476 0.14651595
000030 1c 21 46 3d 47 a5 14 be ed 1d 1d be e1 aa 09 3e
       0.04837142 -0.14516173 -0.15343447 0.13444091
000040 14 94 06 3d aa 7f 14 3e 18 5f 72 3d 38 ce f8 bd
       0.032856062 0.14501825 0.05917272 -0.12148708
000050 f3 a3 d1 bd 8a dc 1c 3e 4a dd 0a 3e 98 7d 26 3e
       -0.10236349 0.15318504 0.13560978 0.16258848
000060 ef b7 d5 bc 36 53 60 bd a0 77 a1 3d 5d 93 ad bd
       -0.026088683 -0.054766856 0.07884145 -0.08475373
000070 bc 02 06 3e 1a 6b c5 3d 7c cb cc 3d 91 d3 19 be
       0.1308698 0.096395686 0.09999749 -0.15022112
000080 06 ac 49 bc 02 32 f6 bd 4b 13 c2 bd e5 b5 aa bd
       -0.01230908 -0.12021257 -0.09476336 -0.08335475
000090 5d 15 c4 bd 48 47 91 3d 56 a2 b3 bd eb b9 bc 3d
       -0.09574387 0.07093674 -0.087711975 0.092151485
0000a0 1b 74 97 bc a5 c6 40 3c ea 5c 08 3e 8e 02 03 3e
       -0.01848798 0.011766111 0.13316694 0.12793943
0000b0 f2 98 c6 bd ea 21 6e 3d 65 04 ca bd a2 4a b6 bd
       -0.09697141 0.05813781 -0.098641194 -0.08900954
0000c0 55 8b b6 3d f4 94 48 bd 9a 9f fb 3d 6a 40 31 bb
       0.08913294 -0.048970178 0.12286301 -0.002704645
0000d0 cf 51 f2 3d 42 7b 16 be a3 b0 13 be f6 a8 40 bd
       0.1183201 -0.14695457 -0.1442285 -0.047036134
0000e0 ae c0 6a 3d 04 03 5b 3d c5 87 8e bd de da 3c bd
       0.05731266 0.053469673 -0.0695949 -0.046107166
0000f0 e0 0e 09 be 46 3f cc bd 6a bd 69 3d 71 68 db bd
       -0.1338458 -0.09973006 0.057065405 -0.1071328
000100 1c 53 e9 bd 35 f2 7a bd e8 07 0d 3e f8 9d d2 3c
       -0.11392805 -0.061266143 0.13772547 0.025710091
000110 d7 3e 1b bd cd a7 f1 3c 0b 03 28 3e 61 27 16 3e
       -0.037901726 0.029498959 0.16407411 0.1466346
000120 b1 f2 28 3e 03 c6 2b 3d 7c c8 34 3c 31 b6 f3 3d
       0.1649883 0.041936886 0.011034127 0.11899985
000130 5f a7 8a bc d8 01 04 be 72 84 13 3e 9c ae 37 3b
       -0.016925512 -0.12891328 0.14405993 0.002802766
000140 a8 43 1a be c0 d0 bc bd 5f 63 e8 3b a2 33 07 be
       -0.15064871 -0.092195034 0.007091924 -0.1320329
000150 2c eb 3b bd 36 6f 24 be 69 48 19 3c 93 6f 18 be
       -0.045878574 -0.16058049 0.009355643 -0.14886312
000160 8a a4 a7 3d 51 41 69 3d 46 05 a5 bc 56 df b9 bd
       0.0818568 0.056947056 -0.020144116 -0.09075801
000170 74 79 b6 3d 65 10 1b be af 17 8d bc 56 53 10 3d
       0.08909884 -0.15142973 -0.017223207 0.035235725
000180 ba 38 b1 3d 7e 80 e4 bc 4e 56 0c 3e 84 14 07 3e
       0.08653398 -0.027893301 0.13704798 0.1319142
000190 10 b8 a6 bd 13 a8 b9 bd fe 4f ff bd c2 dc 13 3e
       -0.08140576 -0.09065261 -0.12466429 0.14439681
0001a0 e9 fa 82 3d 93 33 a9 3d ab 71 2b 3e 56 61 a3 3d
       0.063955136 0.0826179 0.1674258 0.0797755
0001b0 fe 3d f7 bc d1 2b b2 3d d5 b8 99 3d c6 97 3b bd
       -0.030180927 0.086997636 0.07505957 -0.04579904
0001c0 af 4b 4a bd 67 0b 1d bd c0 d9 18 3e 36 56 be 3d
       -0.049388584 -0.038340952 0.14926815 0.09293787
0001d0 97 44 3c bd 65 c6 82 bd 36 1e 8f bd c9 a7 1b be
       -0.04596385 -0.06385497 -0.06988184 -0.15200724
0001e0 af 61 15 3c 4d 42 1f 3e 6b 73 bd bc 9e 03 c0 3d
       0.009117528 0.15552635 -0.023126325 0.0937569
0001f0 26 a4 e1 3b 1a 83 fd bc fb 9a 86 bd 8f 63 94 3d
       0.006886023 -0.030946303 -0.06572529 0.07245552
000200 e7 94 e6 bd 0b 45 ae 3d 64 35 b9 bd 39 94 12 3e
       -0.112588696 0.08509263 -0.090433866 0.14314355
000210 17 d4 16 bd 81 bb c1 3c 86 7f 42 bc d9 68 3c 3c
       -0.03682336 0.02364898 -0.011871224 0.011499607
000220 f8 3d 46 3e 29 74 dd 3c 19 d4 0a be f1 0e a7 bd
       0.19359577 0.027032929 -0.13557471 -0.08157147
000230 d0 81 7f 3c 36 26 26 bd a6 8f 1b 3e b7 ad b0 bd
       0.015594915 -0.040563785 0.15191516 -0.086268835
000240 11 cc c1 3d f7 63 13 be 94 a1 93 bd b6 50 6b 3c
       0.09462751 -0.14393602 -0.07208553 0.014362505
000250 ea 52 25 3d 51 a4 12 3d 15 41 2f 3c 5d d9 ea 3d
       0.040362276 0.035801236 0.010696669 0.1146724
000260 fe 5f 2c be fc 62 35 3d 80 2e 11 be dd bb b0 3d
       -0.16833493 0.044283852 -0.14177895 0.08629582
000270 95 0c fe bd 73 4b 12 be a6 d9 a0 3c 18 2f 16 3e
       -0.124047436 -0.14286594 0.019635033 0.14666402
000280 3f 81 17 be 7b 5d 2f 3d dc be ad bd a9 3b 0d be
       -0.14795397 0.04281376 -0.08483669 -0.1379229
000290 64 89 1c bd 38 31 b8 3d 41 de 14 3d 41 f1 27 3d
       -0.038216963 0.08993763 0.03634477 0.041001562
0002a0 ca 7c d4 bd e1 dc dd bd 54 04 1e bd 4e c9 c1 bb
       -0.10375364 -0.10833145 -0.038578346 -0.00591389
0002b0 44 7a 0f be c5 e3 2c bd 00 29 8c 3d f1 4d c4 bd
       -0.14011484 -0.042209405 0.06843758 -0.09585179
0002c0 16 29 b8 3d b4 be ea bc 41 e3 97 3d 58 05 8b 3d
       0.089922115 -0.028655387 0.07416392 0.067881286
0002d0 22 11 3f 3d e9 54 96 bd 0f 70 97 bb e4 e0 da bd
       0.0466472 -0.07340414 -0.0046215127 -0.10687426
0002e0 f8 2c af 3b 0c 5d 7a 3d 58 c7 6c 3d e9 dd a3 3d
       0.005345937 0.061123893 0.057807297 0.080013104
0002f0 47 5c 8c bd 5c 2d 67 bb b6 0d 8a bd 35 52 10 3e
       -0.06853538 -0.003527484 -0.067408964 0.1409386
000300 58 40 30 bd 95 4b 9c bd a6 c8 9c 3d 49 dd f0 3d
       -0.043030113 -0.07631604 0.07655458 0.11760957
000310 c5 c9 0b be 93 42 1c bd 71 d8 41 bd 60 0f 57 bd
       -0.13651188 -0.038149428 -0.047325555 -0.052504897
000320 51 ea ec bc 53 1c 44 3b c9 f5 11 3c ad 93 b9 3d
       -0.028920325 0.002992411 0.008908697 0.0906137
000330 e6 80 a0 3d 14 eb 1a 3d e7 3f cf bd 49 9a 50 3d
       0.078370854 0.037821844 -0.1011961 0.050928388
000340 d8 b6 00 be 2b f3 eb bd 53 9e 02 3e b2 64 51 bd
       -0.1256975 -0.1152099 0.12755708 -0.05112142
000350 aa 42 be 3d 4b 36 3a 3e 24 6b 19 3d 99 c5 d9 bd
       0.09290059 0.18184774 0.037455693 -0.10633392
000360 98 ba 1f 3d 95 2e f5 3d c9 1e 0d be fa 9f 94 bd
       0.03899631 0.119717754 -0.13781275 -0.072570756
000370 db a6 c0 bd fe a8 04 be 94 70 7f 3d ae 29 d5 bd
       -0.09406825 -0.1295509 0.062363222 -0.104083404
000380 0d 43 c3 bb 6f 7e df 3d 00 3c 99 3d 46 83 e6 bd
       -0.005958921 0.10912787 0.07482147 -0.11255507
000390 0d 40 77 bd bf 16 be 3d 04 3b 47 bd 0c 66 c0 bd
       -0.060363818 0.09281682 -0.048640266 -0.09394464
0003a0 18 a2 93 bb b9 ac 95 bd f4 27 6f 3d 3e d6 9a bd
       -0.004505407 -0.07308335 0.05838771 -0.07560395
0003b0 dd 36 cf bc 46 46 7a 3c df d0 84 bd 72 6d f0 3c
       -0.025294716 0.015275544 -0.064851515 0.029349063
0003c0 40 26 5b 3d 25 14 f7 3d ca 86 8b 3d 02 ae 85 3a
       0.053503275 0.12064389 0.06812818 0.0010198953
0003d0 6c 68 f2 3d 73 91 22 3c e7 f6 a1 bd f4 74 43 3c
       0.11836323 0.009922373 -0.07908421 0.011929739
0003e0 5c b9 da 3d 73 72 fd bd 8a 2b 0a be 8b 7e 22 b8
       0.10679886 -0.12375345 -0.13493171 -3.8741662e-05
0003f0 a3 a3 07 bd 84 ef 0c bd 0e 5a 3c 3e e7 aa 16 be
       -0.03311504 -0.034408107 0.18393728 -0.14713632

classifier.0.bias f4 [128]
000000 5e 19 24 3e 35 2b 97 bd 4d ea ca bd f2 ac e3 3d
       0.16025302 -0.07381288 -0.099079706 0.11116971
000010 8e ab b6 bd a0 56 b8 3d f2 9a e8 3c fb ca 23 3e
       -0.0891944 0.090008974 0.028394196 0.159954
000020 6b 10 de 3d 33 32 23 bd d9 c2 ec bd cf 33 d3 bd
       0.10842975 -0.039842796 -0.11560602 -0.10312616
000030 f7 f1 2f 3e 17 d0 67 3d 66 98 d9 bd 9a 10 79 3c
       0.17182146 0.056594934 -0.10624771 0.015201712
000040 88 e4 a0 bd ea ef 25 bd 38 76 56 bc c3 99 c3 3c
       -0.07856089 -0.040512003 -0.013089709 0.02387703
000050 23 07 f7 bb e6 3c 18 3d d8 9f 43 3d be a3 63 3d
       -0.0075386926 0.037167452 0.04775986 0.05557608
000060 f6 b6 9c bd fa 28 25 bd af 3f f8 3d 04 37 a8 bd
       -0.076520845 -0.04032228 0.12121522 -0.082136184
000070 09 36 7a bb 2c a7 3d bc bb df e1 3d a6 49 b3 3d
       -0.003817918 -0.011575501 0.11029001 0.08754282
000080 3f 7c 61 3c 9d c7 05 be 17 5b c3 3d e2 21 d0 bd
       0.013762533 -0.13064428 0.095388584 -0.10162713
000090 08 f6 90 3d 6c 02 29 3d f9 aa 02 be 85 93 9a 3c
       0.07078177 0.041262075 -0.12760533 0.01886917
0000a0 90 47 df 3d a0 c0 c6 bd ca af 51 bd b0 d2 ec 3d
       0.10902321 -0.09704709 -0.051193036 0.11563623
0000b0 54 27 00 be 7f 90 02 3e 8e 79 e4 3d d8 49 40 bd
       -0.12515002 0.12750433 0.11155997 -0.046945423
0000c0 75 4c b5 3d 99 d6 c5 bd c1 52 b1 bc c1 d8 e2 3b
       0.08852474 -0.09660072 -0.021645905 0.0069228117
0000d0 12 a2 0f 3d ec a2 9f 3c 7e 79 6a 3d 48 26 01 bd
       0.03506667 0.019486867 0.05724477 -0.03153065
0000e0 a1 4c f5 bd d1 24 5c bd 24 1f 5c 3d 08 45 04 bc
       -0.119775064 -0.05374605 0.053740636 -0.008073099
0000f0 f5 62 b8 bd 57 67 b4 bd 86 a7 dd 3d 9e 91 8b 3b
       -0.090032496 -0.08808773 0.10822968 0.0042593023
000100 2a 33 54 3d 32 df 15 3e 65 be 41 3c a6 c6 1d 3e
       0.051806606 0.14635924 0.011825179 0.1540781
000110 b8 1d 6a 3d ab f5 ea 3d 35 14 c3 3c 98 90 06 3e
       0.05715725 0.11472639 0.023813346 0.13141096
000120 1a 24 96 bd 37 48 2b bd 28 e0 c8 bd 5d f0 65 3d
       -0.073311046 -0.041816916 -0.098083794 0.05613743
000130 a9 48 96 3d 21 c1 b1 3d 04 94 db bd b5 20 c1 3d
       0.073380776 0.086794145 -0.10721591 0.094300665
000140 1a dc de bd cc a3 74 bd 86 6c bd bd a7 46 ef bd
       -0.10881825 -0.05972652 -0.09249215 -0.11683398
000150 e2 7c 3d 3d dd fb bc 3a c2 b2 36 3d 3f 1e cb 3d
       0.046261676 0.0014418323 0.04460407 0.09917878
000160 db 34 10 3b f9 0f ec bd 1f e4 49 3d c7 f9 12 3e
       0.002200416 -0.11526484 0.04928982 0.14353095
000170 00 ec af 3d c6 37 de bd 99 95 40 3c 84 31 d8 bd
       0.08589935 -0.10850482 0.011754417 -0.10556319
000180 de b9 3a bd 7b 4b d0 3d ae 67 a0 3d 69 c9 39 bd
       -0.045587413 0.10170647 0.07832275 -0.045358095
000190 49 23 0f be ee 86 fb bd e9 f8 05 3e 33 d4 b0 3d
       -0.13978304 -0.12281595 0.13083233 0.08634224
0001a0 ce 0a e3 3d 91 e8 0b 3d e9 c2 89 3c 6e 71 de 3c
       0.11086045 0.03415734 0.016816573 0.027153697
0001b0 57 f4 ca 3d aa 11 1e 3e ff a5 08 be a1 54 36 3d
       0.099098854 0.15436426 -0.13344572 0.044514302
0001c0 2c b0 27 bd 84 f2 23 3e 32 93 7b bd 9f 37 c1 bd
       -0.040939495 0.16010481 -0.061419673 -0.09434437
0001d0 05 3e 0e be a6 e2 f4 3d 38 59 0b 3e 29 12 0d be
       -0.13890846 0.11957292 0.13608253 -0.13776459
0001e0 fd 25 65 bd b7 ea ee 3d ea ad 14 3e 1e 23 2e bc
       -0.05594443 0.11665862 0.14519468 -0.01062849
0001f0 55 45 ab bd 24 e1 00 be e9 3a 89 bd b0 bb 04 be
       -0.083628334 -0.12585884 -0.06700689 -0.12962222

classifier.2.weight f4 [64, 128]
000000 d9 5a 27 bc 0f fd 0e 3d 39 a5 2c bc da c4 ce bc
       -0.010214531 0.034909304 -0.010537439 -0.02524035
000010 f9 4d 8b 3d f6 bd a4 3d 96 56 c5 bc 5b 62 60 bc
       0.068019815 0.08044045 -0.024089139 -0.013695325
000020 30 7f d1 3c a7 83 59 3c 24 f8 50 3d 73 2f 35 bd
       0.025573343 0.013276017 0.051017895 -0.044234704
000030 a0 14 84 bd 66 e9 9e 3c 0b 2f 5d 3d 2e 5b 80 3d
       -0.064492464 0.019398402 0.05399994 0.06267391
000040 8e 89 97 bd 65 18 97 bd 84 ae 78 bd 4e a3 b1 bd
       -0.07399283 -0.073777 -0.060713306 -0.08673726
000050 31 ca 4c bc 38 5a a1 bd e7 9d 9c 3d 31 37 55 bc
       -0.012499378 -0.07878536 0.07647305 -0.013013647
000060 65 ff 05 bd 41 78 ab bd 43 1f 48 3d 6a 6c 30 3d
       -0.032714266 -0.08372546 0.04885794 0.04307214
000070 f5 37 d7 bc 94 a4 9a bd 57 de 34 bd 20 91 a8 bd
       -0.0262718 -0.07550922 -0.044157352 -0.082308054
000080 26 5e 8c 3d e6 69 ab 3c b9 d5 71 bd 68 37 3c bb
       0.06853895 0.02092452 -0.059041712 -0.0028719548
000090 68 9a 9a bd c0 9b 58 3d 40 ea d6 bc 83 73 85 bd
       -0.07548982 0.05288291 -0.026234746 -0.06516173
0000a0 c1 90 9a bd 94 90 a3 3c 75 c5 1c 3d 47 f4 86 3d
       -0.07547141 0.019966401 0.038274247 0.06589561
0000b0 96 51 a9 3d e4 26 0c bc 5b 89 af 3d 18 c8 72 bd
       0.082675144 -0.008554194 0.0857112 -0.059272856
0000c0 3b ab 8b 3d 67 c7 76 3d 54 94 f2 bc e5 da 99 ba
       0.06819769 0.06024876 -0.029611744 -0.0011738209
0000d0 ad 33 0a bd 82 50 5d bd d8 d6 f1 3c 0f 1f 62 3c
       -0.033740688 -0.054031856 0.02952139 0.01380135
0000e0 6f 95 a2 bd c0 7a 55 bc ca 20 63 bd 81 7e 52 bc
       -0.079386584 -0.013029754 -0.055451192 -0.012847544
0000f0 35 a2 64 bd 74 05 d2 3c 3c 91 91 bd 3e ef 43 3d
       -0.055818755 0.025637366 -0.071077794 0.04783558
000100 91 11 9b bc d8 ff 85 bd 35 a9 91 bd dd c0 96 bd
       -0.018929275 -0.06542939 -0.07112352 -0.073610045
000110 b1 9c 52 3c ac ae a0 bd bc 10 30 bd 95 2d 8a 3b
       0.012854741 -0.07845816 -0.04298471 0.0042168596
000120 16 6d 1c bd 46 37 9e 3d e1 e5 a2 3d e9 94 93 bd
       -0.03818997 0.07725386 0.07954002 -0.07206137
000130 b4 06 5a 3c f8 92 41 bc 63 cd 53 3b 2a d0 3f 3d
       0.013307262 -0.011814825 0.0032318465 0.04682938
000140 28 5a b2 bd a2 17 2c 3d 1b e6 37 bb d1 ef a7 bd
       -0.08708602 0.042014726 -0.0028060738 -0.08200038
000150 f6 23 a2 3a f7 c3 19 bb eb 1c 5b bc b7 f1 7c bd
       0.0012370336 -0.0023462751 -0.013373594 -0.061753955
000160 f3 62 be 3c 33 ef 8a bd 1a 6d a1 bd f9 aa aa bd
       0.023240542 -0.06783905 -0.078821376 -0.08333392
000170 46 28 46 bb 74 7d 52 3d b5 a2 0b 3d 6d 1e ad bd
       -0.0030236407 0.051389173 0.034090716 -0.08453069
000180 67 d1 53 3c 26 cb 9a 3d 93 6a 47 bc f4 8e 59 bc
       0.012928343 0.07558279 -0.012171405 -0.013278712
000190 cd 5a 94 bd 43 c1 8e bd ca 39 64 3d e6 27 60 3d
       -0.072438814 -0.069704555 0.055719174 0.05472555
0001a0 cd 8a bf 3c 6a 42 8e 3c 24 6d b7 bc c9 80 a9 bd
       0.023381615 0.017365653 -0.02239091 -0.08276517
0001b0 df 01 97 bd ad 27 bf 3c 26 65 8c bd 97 f6 80 3d
       -0.07373404 0.023334349 -0.0685523 0.06297033
0001c0 d2 9e 61 3d 76 26 0f bd 7c de 5d 3c 72 af 64 bd
       0.055083103 -0.03494879 0.013541814 -0.05583138
0001d0 3d 22 a2 3c e3 b0 30 3d ca ff 5f 3d f0 2c 53 bd
       0.019791717 0.043137442 0.0546873 -0.051556528
0001e0 67 2b 86 3d 77 8f 38 3d 84 44 7b 3d 78 03 83 bc
       0.06551247 0.045058694 0.06134464 -0.015992865
0001f0 9b 11 56 3c cf 80 82 bd 6b 45 66 bc 7f 1a aa bd
       0.013065721 -0.063722245 -0.0140546365 -0.08305835
000200 57 fd fa bc ed b2 c0 b9 a1 8a 07 3c 3c 52 38 3d
       -0.03063838 -0.00036754404 0.008272798 0.0450003
000210 db 45 8e bd bd 50 5e bc 2c ef 14 bd 2c 36 32 3d
       -0.069469176 -0.013569054 -0.036360905 0.043508694
000220 7a 63 3c 3b bf 71 1a 3d ef 0d cd 3c 85 db a2 3c
       0.0028745816 0.037706133 0.025031058 0.019880066
000230 a4 c7 ad 3d 17 68 f3 3c 0a 75 22 bc f7 a3 03 3d
       0.08485344 0.02971272 -0.0099156 0.03213879
000240 63 06 e7 3c 7a 17 08 bd e3 eb 5d 3d 82 a8 4a bd
       0.028201288 -0.033225514 0.054180037 -0.049477108
000250 fe 13 48 3d cb a8 4f 3d e8 e9 66 3d 51 a9 64 bc
       0.04884719 0.050698083 0.056375414 -0.013956384
000260 f6 64 1f 3d 8c f9 99 bc e4 51 dd 3d 49 70 95 3d
       0.038914643 -0.018795751 0.10806635 0.07296807
000270 eb ab 67 3d 3a 27 b5 bc 3a 3d 8e 3d 08 d3 69 3d
       0.056560438 -0.022113431 0.06945272 0.05708602
000280 f9 91 0e bb 1b ca 95 3c b7 5f 6b bd 01 b3 5f 3d
       -0.0021754487 0.018284848 -0.057464328 0.05461407
000290 ef fa ae bd 8a 7d 12 3d 39 a2 33 bc 57 82 a7 bd
       -0.085439555 0.035764255 -0.01096397 -0.08179157
0002a0 b2 65 31 bd ab 21 be bd 80 92 67 bd 37 f7 31 bd
       -0.043309875 -0.092837654 -0.056536198 -0.043448653
0002b0 51 00 b6 3d f8 69 6a 3d ed f7 b8 3c 02 10 aa bc
       0.08886779 0.057229966 0.022579158 -0.020759586
0002c0 0c db ca bc a8 80 fa 3c f7 44 97 bb a3 bf fd bb
       -0.024762653 0.030578926 -0.0046163755 -0.007743792
0002d0 a8 97 09 3c 8f 66 a5 bb e7 ed b1 bd 38 ec 7e 3c
       0.008397974 -0.0050476263 -0.086879544 0.015559249
0002e0 bb 39 9a bd 80 87 de 3c 6b 47 aa bd 91 f6 93 bd
       -0.075305425 0.02716422 -0.08314403 -0.07224763
0002f0 3c 82 ac 3d 36 01 6f 3d 39 9d 02 3d e7 9a 1c 3d
       0.08423278 0.058350764 0.03188822 0.038233664
000300 48 ae a1 3d 75 c4 19 bc e7 19 b5 3b 6d f7 51 3d
       0.0789457 -0.009385218 0.0055267694 0.051261354
000310 f4 cf aa 3d 50 46 8d bd 7d f4 c3 bd 65 95 68 3d
       0.08340445 -0.06898177 -0.09568117 0.0567831
000320 91 a9 d6 3c d3 62 6d 3c c7 53 21 bd bc 71 2d bd
       0.026203902 0.014488894 -0.039386537 -0.042344794
000330 1e 27 85 bd 3d 81 bd bd fa 1c bf 3d f1 40 23 bd
       -0.06501602 -0.09253166 0.09331699 -0.039856855
000340 41 a1 75 3d 48 81 b0 bd 2f 22 6a 3d 9e 50 df bc
       0.059968237 -0.086184084 0.057161506 -0.027260121
000350 f0 b6 ab 3d 4b 25 6b bd b9 46 e6 bc 15 98 0c 3d
       0.08384502 -0.057408612 -0.028109895 0.034324724
000360 3d c9 53 bd e8 5d 04 3d f6 b2 4b bd d3 8c 79 bd
       -0.051705588 0.03231612 -0.049731217 -0.060925316
000370 27 50 82 3d b8 2d 0b bd af e6 95 3d 1b 9c 97 3d
       0.06362944 -0.033979148 0.0731939 0.07402822
000380 d0 f4 db 3c cc 9f 79 bc 87 e3 d5 bc ef 48 a5 bd
       0.026850134 -0.015235852 -0.02610947 -0.080705516
000390 15 a5 6e bd 72 09 2d bc a2 20 a3 3d 84 db 51 bb
       -0.058262903 -0.010561334 0.079652086 -0.003202171
0003a0 78 33 a2 bd 76 01 94 bc 31 b5 41 3d 49 fd 06 bc
       -0.07919973 -0.018067103 0.04729194 -0.008239099
0003b0 89 b4 7f bd eb 6d 38 3d a1 87 82 bc 55 74 92 3d
       -0.06242803 0.0450267 -0.015933814 0.07151095
0003c0 6e fd a4 3d 9f 02 0d bd 75 a6 8e 3b ed f4 8c bd
       0.080561504 -0.034426328 0.0043533393 -0.068826534
0003d0 20 0f d3 3c 94 13 ba 3d 0d 15 90 3d 8a 5f a3 bd
       0.025764048 0.090857655 0.07035265 -0.07977207
0003e0 c4 55 7a bd 38 da 69 3d 3d 2e 6a 3b ce 47 a5 bc
       -0.06111695 0.057092875 0.0035733127 -0.02017584
0003f0 d9 ee e4 bc 8f 7b a5 3d 88 6d b9 bb 56 94 ed bc
       -0.027945923 0.080802076 -0.005658809 -0.029001396

classifier.2.bias f4 [64]
000000 b6 06 23 3d ea 98 83 3d d4 f2 ef bc a9 c7 26 bd
       0.039801322 0.064256504 -0.029290594 -0.040717755
000010 f0 c2 62 3d 2d 00 df bc 67 fa 34 bc db 94 04 bd
       0.055361688 -0.027221764 -0.011046029 -0.032368522
000020 9c 12 27 3d 67 cf 52 3d 30 16 09 3d 67 24 93 3d
       0.04078923 0.051467326 0.033468425 0.071846776
000030 35 1e 03 bc c8 98 de 3d 0b 8a 43 bd 5a 8f 54 3d
       -0.008002807 0.108689845 -0.04773907 0.051894523
000040 06 c6 e6 bc a2 0d a0 3d 3a 7a 69 bd ff de 6b 3d
       -0.028170597 0.078151 -0.05700133 0.057585713
000050 7e d6 c3 3c e2 c0 94 3c 3d e4 a4 3d 69 d2 88 3d
       0.023905989 0.01815838 0.080513455 0.066807576
000060 e0 5e 84 3c ad 1f 93 bc c0 18 89 bc 52 39 d4 3c
       0.016158521 -0.01795944 -0.016735435 0.025906239
000070 6d ea 20 3d c0 77 cd 3d d3 4a 95 bd 2b 42 05 3d
       0.039286066 0.10032606 -0.07289662 0.032533806
000080 47 ea 42 3d 10 85 88 bd ea f5 0c 3d 09 d8 58 bd
       0.047586706 -0.06666005 0.03441421 -0.052940402
000090 4d e8 40 3c b0 ee 67 3d 24 b6 91 bd 7b 58 86 bd
       0.011774135 0.056624115 -0.07114819 -0.06559845
0000a0 3a 48 95 3d a9 6b 9f bd ef 5c 2d 3c af 2d fd 3d
       0.07289167 -0.077842064 0.010581239 0.12362229
0000b0 04 62 6b 3d 03 2a 86 3d 07 16 9b 3d 14 ae 94 3c
       0.05746652 0.06550982 0.07572561 0.018149413
0000c0 f7 97 fe bc 4e df 20 3d 38 eb c0 3c 7b 8e dc 3d
       -0.031078322 0.03927546 0.023549661 0.107693635
0000d0 0e ed 97 3d 15 2b 9f bc 0f 4f b4 3c 88 6f c7 3d
       0.074182615 -0.019429723 0.022010354 0.0973807
0000e0 86 6a 9e bd 07 c3 62 3d 16 dc c8 3d f0 15 67 3d
       -0.077351615 0.055361774 0.09807603 0.056417406
0000f0 a1 cd 56 bd 0c 72 d7 3c d2 44 0b 3e 6b bd 50 3d
       -0.052442197 0.026299499 0.13600472 0.050961893

classifier.4.weight f4 [1, 64]
000000 93 69 16 3d 0e 7e 23 be 69 d3 54 3e 66 e9 6d bd
       0.036721777 -0.15966055 0.20783772 -0.058083914
000010 9e 92 e6 3d 3e f4 82 3e dc 0e 3a 3e fb 5b d6 bd
       0.11258434 0.25576967 0.18169731 -0.10466763
000020 47 b0 45 bd 11 fc 7b be f2 46 6f be 2c 1b 2f bd
       -0.048263814 -0.24607874 -0.23366907 -0.042750522
000030 6f e5 59 3e 3b 50 6a be 23 1a 4c 3d bd f8 23 be
       0.21278928 -0.22882168 0.049829613 -0.16012855
000040 53 52 6b 3e 72 cd 77 bc d6 cc e4 bd 59 f5 eb 3d
       0.22980623 -0.015124666 -0.11171882 0.11521406
000050 67 65 13 bd 95 57 a1 3e 31 21 8d be bb a7 63 3e
       -0.035985377 0.31512132 -0.27564386 0.22231953
000060 67 97 ca bd a7 3c ed bb b8 98 5c 3e 68 e9 92 be
       -0.09892159 -0.0072398963 0.21542633 -0.286937
000070 76 d8 5d be 00 3e 8d be 0f a7 aa bd 1b a3 d8 3b
       -0.21664605 -0.27586365 -0.08332645 0.0066112406
000080 ae 2c d0 3d f4 67 ce 3d 0a d6 fd bd 3b e5 49 bd
       0.10164772 0.10078421 -0.1239434 -0.049290877
000090 0a d5 44 bd 8b d1 80 bd b0 54 d2 3d 4a 8e 9e bd
       -0.048054732 -0.06289967 0.10270059 -0.07741983
0000a0 ea ca e9 3e f2 88 13 bd e5 59 05 bc 89 03 b1 be
       0.45662624 -0.036019273 -0.008139108 -0.3457301
0000b0 f5 3e 9c 3e a1 ec df bd 68 52 b6 bc a6 45 1b 3e
       0.30516782 -0.10933805 -0.022256091 0.15163288
0000c0 46 88 6f be 7b c6 db 3d ee a1 12 3e ea 4d dd 3e
       -0.23391828 0.107312165 0.14319584 0.43223506
0000d0 95 4b 0d be ed 76 07 be c8 21 08 bf 3f 19 de 3e
       -0.13798364 -0.1322896 -0.53176546 0.43378636
0000e0 77 f8 72 bd 03 dc b9 3d 45 5d ab be a5 8c 8f 3e
       -0.059318986 0.09075167 -0.33469597 0.2803699
0000f0 31 1e cd 3d cb b6 9f 3e 54 2f aa be eb 76 de bd
       0.10015524 0.31194147 -0.33239233 -0.108625256
